{"format": "graph-model", "generatedBy": "2.6.0-rc1", "convertedBy": "TensorFlow.js Converter v3.8.0", "signature": {"inputs": {"images": {"name": "images:0", "dtype": "DT_FLOAT", "tensorShape": {"dim": [{"size": "1"}, {"size": "480"}, {"size": "640"}, {"size": "3"}]}}}, "outputs": {"tf.identity": {"name": "Identity:0", "dtype": "DT_FLOAT", "tensorShape": {"dim": [{"size": "1"}, {"size": "6300"}, {"size": "85"}]}}}}, "modelTopology": {"node": [{"name": "StatefulPartitionedCall/model/conv2d_50/Conv2D/ReadVariableOp", "op": "Const", "attr": {"value": {"tensor": {"dtype": "DT_FLOAT", "tensorShape": {"dim": [{"size": "1"}, {"size": "1"}, {"size": "64"}, {"size": "4"}]}}}, "dtype": {"type": "DT_FLOAT"}}}, {"name": "StatefulPartitionedCall/model/tf.math.add_73/Add/y", "op": "Const", "attr": {"value": {"tensor": {"dtype": "DT_FLOAT", "tensorShape": {"dim": [{"size": "4"}]}}}, "dtype": {"type": "DT_FLOAT"}}}, {"name": "StatefulPartitionedCall/model/zero_padding2d_15/Pad/paddings", "op": "Const", "attr": {"dtype": {"type": "DT_INT32"}, "value": {"tensor": {"dtype": "DT_INT32", "tensorShape": {"dim": [{"size": "4"}, {"size": "2"}]}}}}}, {"name": "StatefulPartitionedCall/model/depthwise_conv2d_14/depthwise/ReadVariableOp", "op": "Const", "attr": {"dtype": {"type": "DT_FLOAT"}, "value": {"tensor": {"dtype": "DT_FLOAT", "tensorShape": {"dim": [{"size": "3"}, {"size": "3"}, {"size": "64"}, {"size": "1"}]}}}}}, {"name": "StatefulPartitionedCall/model/tf.math.add_69/Add/y", "op": "Const", "attr": {"dtype": {"type": "DT_FLOAT"}, "value": {"tensor": {"dtype": "DT_FLOAT", "tensorShape": {"dim": [{"size": "64"}]}}}}}, {"name": "StatefulPartitionedCall/model/conv2d_48/Conv2D/ReadVariableOp", "op": "Const", "attr": {"dtype": {"type": "DT_FLOAT"}, "value": {"tensor": {"dtype": "DT_FLOAT", "tensorShape": {"dim": [{"size": "1"}, {"size": "1"}, {"size": "64"}, {"size": "64"}]}}}}}, {"name": "StatefulPartitionedCall/model/tf.math.add_70/Add/y", "op": "Const", "attr": {"value": {"tensor": {"dtype": "DT_FLOAT", "tensorShape": {"dim": [{"size": "64"}]}}}, "dtype": {"type": "DT_FLOAT"}}}, {"name": "StatefulPartitionedCall/model/zero_padding2d_16/Pad/paddings", "op": "Const", "attr": {"value": {"tensor": {"dtype": "DT_INT32", "tensorShape": {"dim": [{"size": "4"}, {"size": "2"}]}}}, "dtype": {"type": "DT_INT32"}}}, {"name": "StatefulPartitionedCall/model/depthwise_conv2d_15/depthwise/ReadVariableOp", "op": "Const", "attr": {"value": {"tensor": {"dtype": "DT_FLOAT", "tensorShape": {"dim": [{"size": "3"}, {"size": "3"}, {"size": "64"}, {"size": "1"}]}}}, "dtype": {"type": "DT_FLOAT"}}}, {"name": "StatefulPartitionedCall/model/tf.math.add_71/Add/y", "op": "Const", "attr": {"value": {"tensor": {"dtype": "DT_FLOAT", "tensorShape": {"dim": [{"size": "64"}]}}}, "dtype": {"type": "DT_FLOAT"}}}, {"name": "StatefulPartitionedCall/model/conv2d_49/Conv2D/ReadVariableOp", "op": "Const", "attr": {"dtype": {"type": "DT_FLOAT"}, "value": {"tensor": {"dtype": "DT_FLOAT", "tensorShape": {"dim": [{"size": "1"}, {"size": "1"}, {"size": "64"}, {"size": "64"}]}}}}}, {"name": "StatefulPartitionedCall/model/tf.math.add_72/Add/y", "op": "Const", "attr": {"dtype": {"type": "DT_FLOAT"}, "value": {"tensor": {"dtype": "DT_FLOAT", "tensorShape": {"dim": [{"size": "64"}]}}}}}, {"name": "StatefulPartitionedCall/model/conv2d_51/Conv2D/ReadVariableOp", "op": "Const", "attr": {"value": {"tensor": {"dtype": "DT_FLOAT", "tensorShape": {"dim": [{"size": "1"}, {"size": "1"}, {"size": "64"}, {"size": "1"}]}}}, "dtype": {"type": "DT_FLOAT"}}}, {"name": "StatefulPartitionedCall/model/tf.math.add_74/Add/y", "op": "Const", "attr": {"value": {"tensor": {"dtype": "DT_FLOAT", "tensorShape": {"dim": [{"size": "1"}]}}}, "dtype": {"type": "DT_FLOAT"}}}, {"name": "StatefulPartitionedCall/model/conv2d_47/Conv2D/ReadVariableOp", "op": "Const", "attr": {"dtype": {"type": "DT_FLOAT"}, "value": {"tensor": {"dtype": "DT_FLOAT", "tensorShape": {"dim": [{"size": "1"}, {"size": "1"}, {"size": "64"}, {"size": "64"}]}}}}}, {"name": "StatefulPartitionedCall/model/tf.math.add_68/Add/y", "op": "Const", "attr": {"value": {"tensor": {"dtype": "DT_FLOAT", "tensorShape": {"dim": [{"size": "64"}]}}}, "dtype": {"type": "DT_FLOAT"}}}, {"name": "StatefulPartitionedCall/model/zero_padding2d_17/Pad/paddings", "op": "Const", "attr": {"value": {"tensor": {"dtype": "DT_INT32", "tensorShape": {"dim": [{"size": "4"}, {"size": "2"}]}}}, "dtype": {"type": "DT_INT32"}}}, {"name": "StatefulPartitionedCall/model/depthwise_conv2d_16/depthwise/ReadVariableOp", "op": "Const", "attr": {"value": {"tensor": {"dtype": "DT_FLOAT", "tensorShape": {"dim": [{"size": "3"}, {"size": "3"}, {"size": "64"}, {"size": "1"}]}}}, "dtype": {"type": "DT_FLOAT"}}}, {"name": "StatefulPartitionedCall/model/tf.math.add_75/Add/y", "op": "Const", "attr": {"value": {"tensor": {"dtype": "DT_FLOAT", "tensorShape": {"dim": [{"size": "64"}]}}}, "dtype": {"type": "DT_FLOAT"}}}, {"name": "StatefulPartitionedCall/model/conv2d_52/Conv2D/ReadVariableOp", "op": "Const", "attr": {"value": {"tensor": {"dtype": "DT_FLOAT", "tensorShape": {"dim": [{"size": "1"}, {"size": "1"}, {"size": "64"}, {"size": "64"}]}}}, "dtype": {"type": "DT_FLOAT"}}}, {"name": "StatefulPartitionedCall/model/tf.math.add_76/Add/y", "op": "Const", "attr": {"dtype": {"type": "DT_FLOAT"}, "value": {"tensor": {"dtype": "DT_FLOAT", "tensorShape": {"dim": [{"size": "64"}]}}}}}, {"name": "StatefulPartitionedCall/model/zero_padding2d_18/Pad/paddings", "op": "Const", "attr": {"dtype": {"type": "DT_INT32"}, "value": {"tensor": {"dtype": "DT_INT32", "tensorShape": {"dim": [{"size": "4"}, {"size": "2"}]}}}}}, {"name": "StatefulPartitionedCall/model/depthwise_conv2d_17/depthwise/ReadVariableOp", "op": "Const", "attr": {"dtype": {"type": "DT_FLOAT"}, "value": {"tensor": {"dtype": "DT_FLOAT", "tensorShape": {"dim": [{"size": "3"}, {"size": "3"}, {"size": "64"}, {"size": "1"}]}}}}}, {"name": "StatefulPartitionedCall/model/tf.math.add_77/Add/y", "op": "Const", "attr": {"dtype": {"type": "DT_FLOAT"}, "value": {"tensor": {"dtype": "DT_FLOAT", "tensorShape": {"dim": [{"size": "64"}]}}}}}, {"name": "StatefulPartitionedCall/model/conv2d_53/Conv2D/ReadVariableOp", "op": "Const", "attr": {"dtype": {"type": "DT_FLOAT"}, "value": {"tensor": {"dtype": "DT_FLOAT", "tensorShape": {"dim": [{"size": "1"}, {"size": "1"}, {"size": "64"}, {"size": "64"}]}}}}}, {"name": "StatefulPartitionedCall/model/tf.math.add_78/Add/y", "op": "Const", "attr": {"value": {"tensor": {"dtype": "DT_FLOAT", "tensorShape": {"dim": [{"size": "64"}]}}}, "dtype": {"type": "DT_FLOAT"}}}, {"name": "StatefulPartitionedCall/model/conv2d_54/Conv2D/ReadVariableOp", "op": "Const", "attr": {"value": {"tensor": {"dtype": "DT_FLOAT", "tensorShape": {"dim": [{"size": "1"}, {"size": "1"}, {"size": "64"}, {"size": "80"}]}}}, "dtype": {"type": "DT_FLOAT"}}}, {"name": "StatefulPartitionedCall/model/tf.math.add_79/Add/y", "op": "Const", "attr": {"value": {"tensor": {"dtype": "DT_FLOAT", "tensorShape": {"dim": [{"size": "80"}]}}}, "dtype": {"type": "DT_FLOAT"}}}, {"name": "StatefulPartitionedCall/model/tf.concat_10/concat/axis", "op": "Const", "attr": {"value": {"tensor": {"dtype": "DT_INT32", "tensorShape": {}}}, "dtype": {"type": "DT_INT32"}}}, {"name": "StatefulPartitionedCall/model/tf.reshape/Reshape/shape", "op": "Const", "attr": {"dtype": {"type": "DT_INT32"}, "value": {"tensor": {"dtype": "DT_INT32", "tensorShape": {"dim": [{"size": "3"}]}}}}}, {"name": "StatefulPartitionedCall/model/conv2d_64/Conv2D/ReadVariableOp", "op": "Const", "attr": {"value": {"tensor": {"dtype": "DT_FLOAT", "tensorShape": {"dim": [{"size": "1"}, {"size": "1"}, {"size": "64"}, {"size": "4"}]}}}, "dtype": {"type": "DT_FLOAT"}}}, {"name": "StatefulPartitionedCall/model/tf.math.add_93/Add/y", "op": "Const", "attr": {"value": {"tensor": {"dtype": "DT_FLOAT", "tensorShape": {"dim": [{"size": "4"}]}}}, "dtype": {"type": "DT_FLOAT"}}}, {"name": "StatefulPartitionedCall/model/zero_padding2d_21/Pad/paddings", "op": "Const", "attr": {"dtype": {"type": "DT_INT32"}, "value": {"tensor": {"dtype": "DT_INT32", "tensorShape": {"dim": [{"size": "4"}, {"size": "2"}]}}}}}, {"name": "StatefulPartitionedCall/model/depthwise_conv2d_20/depthwise/ReadVariableOp", "op": "Const", "attr": {"dtype": {"type": "DT_FLOAT"}, "value": {"tensor": {"dtype": "DT_FLOAT", "tensorShape": {"dim": [{"size": "3"}, {"size": "3"}, {"size": "64"}, {"size": "1"}]}}}}}, {"name": "StatefulPartitionedCall/model/tf.math.add_89/Add/y", "op": "Const", "attr": {"dtype": {"type": "DT_FLOAT"}, "value": {"tensor": {"dtype": "DT_FLOAT", "tensorShape": {"dim": [{"size": "64"}]}}}}}, {"name": "StatefulPartitionedCall/model/conv2d_62/Conv2D/ReadVariableOp", "op": "Const", "attr": {"dtype": {"type": "DT_FLOAT"}, "value": {"tensor": {"dtype": "DT_FLOAT", "tensorShape": {"dim": [{"size": "1"}, {"size": "1"}, {"size": "64"}, {"size": "64"}]}}}}}, {"name": "StatefulPartitionedCall/model/tf.math.add_90/Add/y", "op": "Const", "attr": {"dtype": {"type": "DT_FLOAT"}, "value": {"tensor": {"dtype": "DT_FLOAT", "tensorShape": {"dim": [{"size": "64"}]}}}}}, {"name": "StatefulPartitionedCall/model/zero_padding2d_22/Pad/paddings", "op": "Const", "attr": {"value": {"tensor": {"dtype": "DT_INT32", "tensorShape": {"dim": [{"size": "4"}, {"size": "2"}]}}}, "dtype": {"type": "DT_INT32"}}}, {"name": "StatefulPartitionedCall/model/depthwise_conv2d_21/depthwise/ReadVariableOp", "op": "Const", "attr": {"value": {"tensor": {"dtype": "DT_FLOAT", "tensorShape": {"dim": [{"size": "3"}, {"size": "3"}, {"size": "64"}, {"size": "1"}]}}}, "dtype": {"type": "DT_FLOAT"}}}, {"name": "StatefulPartitionedCall/model/tf.math.add_91/Add/y", "op": "Const", "attr": {"dtype": {"type": "DT_FLOAT"}, "value": {"tensor": {"dtype": "DT_FLOAT", "tensorShape": {"dim": [{"size": "64"}]}}}}}, {"name": "StatefulPartitionedCall/model/conv2d_63/Conv2D/ReadVariableOp", "op": "Const", "attr": {"value": {"tensor": {"dtype": "DT_FLOAT", "tensorShape": {"dim": [{"size": "1"}, {"size": "1"}, {"size": "64"}, {"size": "64"}]}}}, "dtype": {"type": "DT_FLOAT"}}}, {"name": "StatefulPartitionedCall/model/tf.math.add_92/Add/y", "op": "Const", "attr": {"dtype": {"type": "DT_FLOAT"}, "value": {"tensor": {"dtype": "DT_FLOAT", "tensorShape": {"dim": [{"size": "64"}]}}}}}, {"name": "StatefulPartitionedCall/model/conv2d_65/Conv2D/ReadVariableOp", "op": "Const", "attr": {"dtype": {"type": "DT_FLOAT"}, "value": {"tensor": {"dtype": "DT_FLOAT", "tensorShape": {"dim": [{"size": "1"}, {"size": "1"}, {"size": "64"}, {"size": "1"}]}}}}}, {"name": "StatefulPartitionedCall/model/tf.math.add_94/Add/y", "op": "Const", "attr": {"value": {"tensor": {"dtype": "DT_FLOAT", "tensorShape": {"dim": [{"size": "1"}]}}}, "dtype": {"type": "DT_FLOAT"}}}, {"name": "StatefulPartitionedCall/model/conv2d_61/Conv2D/ReadVariableOp", "op": "Const", "attr": {"value": {"tensor": {"dtype": "DT_FLOAT", "tensorShape": {"dim": [{"size": "1"}, {"size": "1"}, {"size": "128"}, {"size": "64"}]}}}, "dtype": {"type": "DT_FLOAT"}}}, {"name": "StatefulPartitionedCall/model/tf.math.add_88/Add/y", "op": "Const", "attr": {"value": {"tensor": {"dtype": "DT_FLOAT", "tensorShape": {"dim": [{"size": "64"}]}}}, "dtype": {"type": "DT_FLOAT"}}}, {"name": "StatefulPartitionedCall/model/zero_padding2d_23/Pad/paddings", "op": "Const", "attr": {"dtype": {"type": "DT_INT32"}, "value": {"tensor": {"dtype": "DT_INT32", "tensorShape": {"dim": [{"size": "4"}, {"size": "2"}]}}}}}, {"name": "StatefulPartitionedCall/model/depthwise_conv2d_22/depthwise/ReadVariableOp", "op": "Const", "attr": {"value": {"tensor": {"dtype": "DT_FLOAT", "tensorShape": {"dim": [{"size": "3"}, {"size": "3"}, {"size": "64"}, {"size": "1"}]}}}, "dtype": {"type": "DT_FLOAT"}}}, {"name": "StatefulPartitionedCall/model/tf.math.add_95/Add/y", "op": "Const", "attr": {"value": {"tensor": {"dtype": "DT_FLOAT", "tensorShape": {"dim": [{"size": "64"}]}}}, "dtype": {"type": "DT_FLOAT"}}}, {"name": "StatefulPartitionedCall/model/conv2d_66/Conv2D/ReadVariableOp", "op": "Const", "attr": {"value": {"tensor": {"dtype": "DT_FLOAT", "tensorShape": {"dim": [{"size": "1"}, {"size": "1"}, {"size": "64"}, {"size": "64"}]}}}, "dtype": {"type": "DT_FLOAT"}}}, {"name": "StatefulPartitionedCall/model/tf.math.add_96/Add/y", "op": "Const", "attr": {"dtype": {"type": "DT_FLOAT"}, "value": {"tensor": {"dtype": "DT_FLOAT", "tensorShape": {"dim": [{"size": "64"}]}}}}}, {"name": "StatefulPartitionedCall/model/zero_padding2d_24/Pad/paddings", "op": "Const", "attr": {"dtype": {"type": "DT_INT32"}, "value": {"tensor": {"dtype": "DT_INT32", "tensorShape": {"dim": [{"size": "4"}, {"size": "2"}]}}}}}, {"name": "StatefulPartitionedCall/model/depthwise_conv2d_23/depthwise/ReadVariableOp", "op": "Const", "attr": {"dtype": {"type": "DT_FLOAT"}, "value": {"tensor": {"dtype": "DT_FLOAT", "tensorShape": {"dim": [{"size": "3"}, {"size": "3"}, {"size": "64"}, {"size": "1"}]}}}}}, {"name": "StatefulPartitionedCall/model/tf.math.add_97/Add/y", "op": "Const", "attr": {"value": {"tensor": {"dtype": "DT_FLOAT", "tensorShape": {"dim": [{"size": "64"}]}}}, "dtype": {"type": "DT_FLOAT"}}}, {"name": "StatefulPartitionedCall/model/conv2d_67/Conv2D/ReadVariableOp", "op": "Const", "attr": {"value": {"tensor": {"dtype": "DT_FLOAT", "tensorShape": {"dim": [{"size": "1"}, {"size": "1"}, {"size": "64"}, {"size": "64"}]}}}, "dtype": {"type": "DT_FLOAT"}}}, {"name": "StatefulPartitionedCall/model/tf.math.add_98/Add/y", "op": "Const", "attr": {"dtype": {"type": "DT_FLOAT"}, "value": {"tensor": {"dtype": "DT_FLOAT", "tensorShape": {"dim": [{"size": "64"}]}}}}}, {"name": "StatefulPartitionedCall/model/conv2d_68/Conv2D/ReadVariableOp", "op": "Const", "attr": {"value": {"tensor": {"dtype": "DT_FLOAT", "tensorShape": {"dim": [{"size": "1"}, {"size": "1"}, {"size": "64"}, {"size": "80"}]}}}, "dtype": {"type": "DT_FLOAT"}}}, {"name": "StatefulPartitionedCall/model/tf.math.add_99/Add/y", "op": "Const", "attr": {"dtype": {"type": "DT_FLOAT"}, "value": {"tensor": {"dtype": "DT_FLOAT", "tensorShape": {"dim": [{"size": "80"}]}}}}}, {"name": "StatefulPartitionedCall/model/tf.concat_13/concat/axis", "op": "Const", "attr": {"dtype": {"type": "DT_INT32"}, "value": {"tensor": {"dtype": "DT_INT32", "tensorShape": {}}}}}, {"name": "StatefulPartitionedCall/model/tf.reshape_1/Reshape/shape", "op": "Const", "attr": {"value": {"tensor": {"dtype": "DT_INT32", "tensorShape": {"dim": [{"size": "3"}]}}}, "dtype": {"type": "DT_INT32"}}}, {"name": "StatefulPartitionedCall/model/conv2d_78/Conv2D/ReadVariableOp", "op": "Const", "attr": {"dtype": {"type": "DT_FLOAT"}, "value": {"tensor": {"dtype": "DT_FLOAT", "tensorShape": {"dim": [{"size": "1"}, {"size": "1"}, {"size": "64"}, {"size": "4"}]}}}}}, {"name": "StatefulPartitionedCall/model/tf.math.add_113/Add/y", "op": "Const", "attr": {"dtype": {"type": "DT_FLOAT"}, "value": {"tensor": {"dtype": "DT_FLOAT", "tensorShape": {"dim": [{"size": "4"}]}}}}}, {"name": "StatefulPartitionedCall/model/zero_padding2d_27/Pad/paddings", "op": "Const", "attr": {"dtype": {"type": "DT_INT32"}, "value": {"tensor": {"dtype": "DT_INT32", "tensorShape": {"dim": [{"size": "4"}, {"size": "2"}]}}}}}, {"name": "StatefulPartitionedCall/model/depthwise_conv2d_26/depthwise/ReadVariableOp", "op": "Const", "attr": {"value": {"tensor": {"dtype": "DT_FLOAT", "tensorShape": {"dim": [{"size": "3"}, {"size": "3"}, {"size": "64"}, {"size": "1"}]}}}, "dtype": {"type": "DT_FLOAT"}}}, {"name": "StatefulPartitionedCall/model/tf.math.add_109/Add/y", "op": "Const", "attr": {"dtype": {"type": "DT_FLOAT"}, "value": {"tensor": {"dtype": "DT_FLOAT", "tensorShape": {"dim": [{"size": "64"}]}}}}}, {"name": "StatefulPartitionedCall/model/conv2d_76/Conv2D/ReadVariableOp", "op": "Const", "attr": {"dtype": {"type": "DT_FLOAT"}, "value": {"tensor": {"dtype": "DT_FLOAT", "tensorShape": {"dim": [{"size": "1"}, {"size": "1"}, {"size": "64"}, {"size": "64"}]}}}}}, {"name": "StatefulPartitionedCall/model/tf.math.add_110/Add/y", "op": "Const", "attr": {"dtype": {"type": "DT_FLOAT"}, "value": {"tensor": {"dtype": "DT_FLOAT", "tensorShape": {"dim": [{"size": "64"}]}}}}}, {"name": "StatefulPartitionedCall/model/zero_padding2d_28/Pad/paddings", "op": "Const", "attr": {"dtype": {"type": "DT_INT32"}, "value": {"tensor": {"dtype": "DT_INT32", "tensorShape": {"dim": [{"size": "4"}, {"size": "2"}]}}}}}, {"name": "StatefulPartitionedCall/model/depthwise_conv2d_27/depthwise/ReadVariableOp", "op": "Const", "attr": {"dtype": {"type": "DT_FLOAT"}, "value": {"tensor": {"dtype": "DT_FLOAT", "tensorShape": {"dim": [{"size": "3"}, {"size": "3"}, {"size": "64"}, {"size": "1"}]}}}}}, {"name": "StatefulPartitionedCall/model/tf.math.add_111/Add/y", "op": "Const", "attr": {"dtype": {"type": "DT_FLOAT"}, "value": {"tensor": {"dtype": "DT_FLOAT", "tensorShape": {"dim": [{"size": "64"}]}}}}}, {"name": "StatefulPartitionedCall/model/conv2d_77/Conv2D/ReadVariableOp", "op": "Const", "attr": {"value": {"tensor": {"dtype": "DT_FLOAT", "tensorShape": {"dim": [{"size": "1"}, {"size": "1"}, {"size": "64"}, {"size": "64"}]}}}, "dtype": {"type": "DT_FLOAT"}}}, {"name": "StatefulPartitionedCall/model/tf.math.add_112/Add/y", "op": "Const", "attr": {"dtype": {"type": "DT_FLOAT"}, "value": {"tensor": {"dtype": "DT_FLOAT", "tensorShape": {"dim": [{"size": "64"}]}}}}}, {"name": "StatefulPartitionedCall/model/conv2d_79/Conv2D/ReadVariableOp", "op": "Const", "attr": {"value": {"tensor": {"dtype": "DT_FLOAT", "tensorShape": {"dim": [{"size": "1"}, {"size": "1"}, {"size": "64"}, {"size": "1"}]}}}, "dtype": {"type": "DT_FLOAT"}}}, {"name": "StatefulPartitionedCall/model/tf.math.add_114/Add/y", "op": "Const", "attr": {"dtype": {"type": "DT_FLOAT"}, "value": {"tensor": {"dtype": "DT_FLOAT", "tensorShape": {"dim": [{"size": "1"}]}}}}}, {"name": "StatefulPartitionedCall/model/conv2d_70/Conv2D/ReadVariableOp", "op": "Const", "attr": {"dtype": {"type": "DT_FLOAT"}, "value": {"tensor": {"dtype": "DT_FLOAT", "tensorShape": {"dim": [{"size": "1"}, {"size": "1"}, {"size": "256"}, {"size": "128"}]}}}}}, {"name": "StatefulPartitionedCall/model/tf.math.add_102/Add/y", "op": "Const", "attr": {"dtype": {"type": "DT_FLOAT"}, "value": {"tensor": {"dtype": "DT_FLOAT", "tensorShape": {"dim": [{"size": "128"}]}}}}}, {"name": "StatefulPartitionedCall/model/conv2d_71/Conv2D/ReadVariableOp", "op": "Const", "attr": {"dtype": {"type": "DT_FLOAT"}, "value": {"tensor": {"dtype": "DT_FLOAT", "tensorShape": {"dim": [{"size": "1"}, {"size": "1"}, {"size": "128"}, {"size": "128"}]}}}}}, {"name": "StatefulPartitionedCall/model/tf.math.add_103/Add/y", "op": "Const", "attr": {"value": {"tensor": {"dtype": "DT_FLOAT", "tensorShape": {"dim": [{"size": "128"}]}}}, "dtype": {"type": "DT_FLOAT"}}}, {"name": "StatefulPartitionedCall/model/zero_padding2d_26/Pad/paddings", "op": "Const", "attr": {"dtype": {"type": "DT_INT32"}, "value": {"tensor": {"dtype": "DT_INT32", "tensorShape": {"dim": [{"size": "4"}, {"size": "2"}]}}}}}, {"name": "StatefulPartitionedCall/model/depthwise_conv2d_25/depthwise/ReadVariableOp", "op": "Const", "attr": {"value": {"tensor": {"dtype": "DT_FLOAT", "tensorShape": {"dim": [{"size": "3"}, {"size": "3"}, {"size": "128"}, {"size": "1"}]}}}, "dtype": {"type": "DT_FLOAT"}}}, {"name": "StatefulPartitionedCall/model/tf.math.add_104/Add/y", "op": "Const", "attr": {"value": {"tensor": {"dtype": "DT_FLOAT", "tensorShape": {"dim": [{"size": "128"}]}}}, "dtype": {"type": "DT_FLOAT"}}}, {"name": "StatefulPartitionedCall/model/conv2d_72/Conv2D/ReadVariableOp", "op": "Const", "attr": {"value": {"tensor": {"dtype": "DT_FLOAT", "tensorShape": {"dim": [{"size": "1"}, {"size": "1"}, {"size": "128"}, {"size": "128"}]}}}, "dtype": {"type": "DT_FLOAT"}}}, {"name": "StatefulPartitionedCall/model/tf.math.add_105/Add/y", "op": "Const", "attr": {"dtype": {"type": "DT_FLOAT"}, "value": {"tensor": {"dtype": "DT_FLOAT", "tensorShape": {"dim": [{"size": "128"}]}}}}}, {"name": "StatefulPartitionedCall/model/conv2d_56/Conv2D/ReadVariableOp", "op": "Const", "attr": {"dtype": {"type": "DT_FLOAT"}, "value": {"tensor": {"dtype": "DT_FLOAT", "tensorShape": {"dim": [{"size": "1"}, {"size": "1"}, {"size": "128"}, {"size": "64"}]}}}}}, {"name": "StatefulPartitionedCall/model/tf.math.add_82/Add/y", "op": "Const", "attr": {"dtype": {"type": "DT_FLOAT"}, "value": {"tensor": {"dtype": "DT_FLOAT", "tensorShape": {"dim": [{"size": "64"}]}}}}}, {"name": "StatefulPartitionedCall/model/conv2d_57/Conv2D/ReadVariableOp", "op": "Const", "attr": {"value": {"tensor": {"dtype": "DT_FLOAT", "tensorShape": {"dim": [{"size": "1"}, {"size": "1"}, {"size": "64"}, {"size": "64"}]}}}, "dtype": {"type": "DT_FLOAT"}}}, {"name": "StatefulPartitionedCall/model/tf.math.add_83/Add/y", "op": "Const", "attr": {"value": {"tensor": {"dtype": "DT_FLOAT", "tensorShape": {"dim": [{"size": "64"}]}}}, "dtype": {"type": "DT_FLOAT"}}}, {"name": "StatefulPartitionedCall/model/zero_padding2d_20/Pad/paddings", "op": "Const", "attr": {"value": {"tensor": {"dtype": "DT_INT32", "tensorShape": {"dim": [{"size": "4"}, {"size": "2"}]}}}, "dtype": {"type": "DT_INT32"}}}, {"name": "StatefulPartitionedCall/model/depthwise_conv2d_19/depthwise/ReadVariableOp", "op": "Const", "attr": {"value": {"tensor": {"dtype": "DT_FLOAT", "tensorShape": {"dim": [{"size": "3"}, {"size": "3"}, {"size": "64"}, {"size": "1"}]}}}, "dtype": {"type": "DT_FLOAT"}}}, {"name": "StatefulPartitionedCall/model/tf.math.add_84/Add/y", "op": "Const", "attr": {"value": {"tensor": {"dtype": "DT_FLOAT", "tensorShape": {"dim": [{"size": "64"}]}}}, "dtype": {"type": "DT_FLOAT"}}}, {"name": "StatefulPartitionedCall/model/conv2d_58/Conv2D/ReadVariableOp", "op": "Const", "attr": {"value": {"tensor": {"dtype": "DT_FLOAT", "tensorShape": {"dim": [{"size": "1"}, {"size": "1"}, {"size": "64"}, {"size": "64"}]}}}, "dtype": {"type": "DT_FLOAT"}}}, {"name": "StatefulPartitionedCall/model/tf.math.add_85/Add/y", "op": "Const", "attr": {"dtype": {"type": "DT_FLOAT"}, "value": {"tensor": {"dtype": "DT_FLOAT", "tensorShape": {"dim": [{"size": "64"}]}}}}}, {"name": "StatefulPartitionedCall/model/conv2d_42/Conv2D/ReadVariableOp", "op": "Const", "attr": {"dtype": {"type": "DT_FLOAT"}, "value": {"tensor": {"dtype": "DT_FLOAT", "tensorShape": {"dim": [{"size": "1"}, {"size": "1"}, {"size": "128"}, {"size": "32"}]}}}}}, {"name": "StatefulPartitionedCall/model/tf.math.add_62/Add/y", "op": "Const", "attr": {"value": {"tensor": {"dtype": "DT_FLOAT", "tensorShape": {"dim": [{"size": "32"}]}}}, "dtype": {"type": "DT_FLOAT"}}}, {"name": "StatefulPartitionedCall/model/conv2d_43/Conv2D/ReadVariableOp", "op": "Const", "attr": {"value": {"tensor": {"dtype": "DT_FLOAT", "tensorShape": {"dim": [{"size": "1"}, {"size": "1"}, {"size": "32"}, {"size": "32"}]}}}, "dtype": {"type": "DT_FLOAT"}}}, {"name": "StatefulPartitionedCall/model/tf.math.add_63/Add/y", "op": "Const", "attr": {"dtype": {"type": "DT_FLOAT"}, "value": {"tensor": {"dtype": "DT_FLOAT", "tensorShape": {"dim": [{"size": "32"}]}}}}}, {"name": "StatefulPartitionedCall/model/zero_padding2d_14/Pad/paddings", "op": "Const", "attr": {"value": {"tensor": {"dtype": "DT_INT32", "tensorShape": {"dim": [{"size": "4"}, {"size": "2"}]}}}, "dtype": {"type": "DT_INT32"}}}, {"name": "StatefulPartitionedCall/model/depthwise_conv2d_13/depthwise/ReadVariableOp", "op": "Const", "attr": {"value": {"tensor": {"dtype": "DT_FLOAT", "tensorShape": {"dim": [{"size": "3"}, {"size": "3"}, {"size": "32"}, {"size": "1"}]}}}, "dtype": {"type": "DT_FLOAT"}}}, {"name": "StatefulPartitionedCall/model/tf.math.add_64/Add/y", "op": "Const", "attr": {"dtype": {"type": "DT_FLOAT"}, "value": {"tensor": {"dtype": "DT_FLOAT", "tensorShape": {"dim": [{"size": "32"}]}}}}}, {"name": "StatefulPartitionedCall/model/conv2d_44/Conv2D/ReadVariableOp", "op": "Const", "attr": {"dtype": {"type": "DT_FLOAT"}, "value": {"tensor": {"dtype": "DT_FLOAT", "tensorShape": {"dim": [{"size": "1"}, {"size": "1"}, {"size": "32"}, {"size": "32"}]}}}}}, {"name": "StatefulPartitionedCall/model/tf.math.add_65/Add/y", "op": "Const", "attr": {"value": {"tensor": {"dtype": "DT_FLOAT", "tensorShape": {"dim": [{"size": "32"}]}}}, "dtype": {"type": "DT_FLOAT"}}}, {"name": "StatefulPartitionedCall/model/lambda_1/resize/size", "op": "Const", "attr": {"dtype": {"type": "DT_INT32"}, "value": {"tensor": {"dtype": "DT_INT32", "tensorShape": {"dim": [{"size": "2"}]}}}}}, {"name": "StatefulPartitionedCall/model/tf.concat_8/concat/axis", "op": "Const", "attr": {"dtype": {"type": "DT_INT32"}, "value": {"tensor": {"dtype": "DT_INT32", "tensorShape": {}}}}}, {"name": "StatefulPartitionedCall/model/conv2d_45/Conv2D/ReadVariableOp", "op": "Const", "attr": {"value": {"tensor": {"dtype": "DT_FLOAT", "tensorShape": {"dim": [{"size": "1"}, {"size": "1"}, {"size": "128"}, {"size": "32"}]}}}, "dtype": {"type": "DT_FLOAT"}}}, {"name": "StatefulPartitionedCall/model/tf.math.add_66/Add/y", "op": "Const", "attr": {"dtype": {"type": "DT_FLOAT"}, "value": {"tensor": {"dtype": "DT_FLOAT", "tensorShape": {"dim": [{"size": "32"}]}}}}}, {"name": "StatefulPartitionedCall/model/tf.concat_9/concat/axis", "op": "Const", "attr": {"value": {"tensor": {"dtype": "DT_INT32", "tensorShape": {}}}, "dtype": {"type": "DT_INT32"}}}, {"name": "StatefulPartitionedCall/model/conv2d_46/Conv2D/ReadVariableOp", "op": "Const", "attr": {"value": {"tensor": {"dtype": "DT_FLOAT", "tensorShape": {"dim": [{"size": "1"}, {"size": "1"}, {"size": "64"}, {"size": "64"}]}}}, "dtype": {"type": "DT_FLOAT"}}}, {"name": "StatefulPartitionedCall/model/tf.math.add_67/Add/y", "op": "Const", "attr": {"value": {"tensor": {"dtype": "DT_FLOAT", "tensorShape": {"dim": [{"size": "64"}]}}}, "dtype": {"type": "DT_FLOAT"}}}, {"name": "StatefulPartitionedCall/model/zero_padding2d_19/Pad/paddings", "op": "Const", "attr": {"dtype": {"type": "DT_INT32"}, "value": {"tensor": {"dtype": "DT_INT32", "tensorShape": {"dim": [{"size": "4"}, {"size": "2"}]}}}}}, {"name": "StatefulPartitionedCall/model/depthwise_conv2d_18/depthwise/ReadVariableOp", "op": "Const", "attr": {"value": {"tensor": {"dtype": "DT_FLOAT", "tensorShape": {"dim": [{"size": "3"}, {"size": "3"}, {"size": "64"}, {"size": "1"}]}}}, "dtype": {"type": "DT_FLOAT"}}}, {"name": "StatefulPartitionedCall/model/tf.math.add_80/Add/y", "op": "Const", "attr": {"dtype": {"type": "DT_FLOAT"}, "value": {"tensor": {"dtype": "DT_FLOAT", "tensorShape": {"dim": [{"size": "64"}]}}}}}, {"name": "StatefulPartitionedCall/model/conv2d_55/Conv2D/ReadVariableOp", "op": "Const", "attr": {"value": {"tensor": {"dtype": "DT_FLOAT", "tensorShape": {"dim": [{"size": "1"}, {"size": "1"}, {"size": "64"}, {"size": "64"}]}}}, "dtype": {"type": "DT_FLOAT"}}}, {"name": "StatefulPartitionedCall/model/tf.math.add_81/Add/y", "op": "Const", "attr": {"dtype": {"type": "DT_FLOAT"}, "value": {"tensor": {"dtype": "DT_FLOAT", "tensorShape": {"dim": [{"size": "64"}]}}}}}, {"name": "StatefulPartitionedCall/model/conv2d_36/Conv2D/ReadVariableOp", "op": "Const", "attr": {"dtype": {"type": "DT_FLOAT"}, "value": {"tensor": {"dtype": "DT_FLOAT", "tensorShape": {"dim": [{"size": "1"}, {"size": "1"}, {"size": "256"}, {"size": "64"}]}}}}}, {"name": "StatefulPartitionedCall/model/tf.math.add_55/Add/y", "op": "Const", "attr": {"dtype": {"type": "DT_FLOAT"}, "value": {"tensor": {"dtype": "DT_FLOAT", "tensorShape": {"dim": [{"size": "64"}]}}}}}, {"name": "StatefulPartitionedCall/model/conv2d_37/Conv2D/ReadVariableOp", "op": "Const", "attr": {"dtype": {"type": "DT_FLOAT"}, "value": {"tensor": {"dtype": "DT_FLOAT", "tensorShape": {"dim": [{"size": "1"}, {"size": "1"}, {"size": "64"}, {"size": "64"}]}}}}}, {"name": "StatefulPartitionedCall/model/tf.math.add_56/Add/y", "op": "Const", "attr": {"value": {"tensor": {"dtype": "DT_FLOAT", "tensorShape": {"dim": [{"size": "64"}]}}}, "dtype": {"type": "DT_FLOAT"}}}, {"name": "StatefulPartitionedCall/model/zero_padding2d_13/Pad/paddings", "op": "Const", "attr": {"dtype": {"type": "DT_INT32"}, "value": {"tensor": {"dtype": "DT_INT32", "tensorShape": {"dim": [{"size": "4"}, {"size": "2"}]}}}}}, {"name": "StatefulPartitionedCall/model/depthwise_conv2d_12/depthwise/ReadVariableOp", "op": "Const", "attr": {"value": {"tensor": {"dtype": "DT_FLOAT", "tensorShape": {"dim": [{"size": "3"}, {"size": "3"}, {"size": "64"}, {"size": "1"}]}}}, "dtype": {"type": "DT_FLOAT"}}}, {"name": "StatefulPartitionedCall/model/tf.math.add_57/Add/y", "op": "Const", "attr": {"dtype": {"type": "DT_FLOAT"}, "value": {"tensor": {"dtype": "DT_FLOAT", "tensorShape": {"dim": [{"size": "64"}]}}}}}, {"name": "StatefulPartitionedCall/model/conv2d_38/Conv2D/ReadVariableOp", "op": "Const", "attr": {"dtype": {"type": "DT_FLOAT"}, "value": {"tensor": {"dtype": "DT_FLOAT", "tensorShape": {"dim": [{"size": "1"}, {"size": "1"}, {"size": "64"}, {"size": "64"}]}}}}}, {"name": "StatefulPartitionedCall/model/tf.math.add_58/Add/y", "op": "Const", "attr": {"value": {"tensor": {"dtype": "DT_FLOAT", "tensorShape": {"dim": [{"size": "64"}]}}}, "dtype": {"type": "DT_FLOAT"}}}, {"name": "StatefulPartitionedCall/model/lambda/resize/size", "op": "Const", "attr": {"value": {"tensor": {"dtype": "DT_INT32", "tensorShape": {"dim": [{"size": "2"}]}}}, "dtype": {"type": "DT_INT32"}}}, {"name": "StatefulPartitionedCall/model/tf.concat_6/concat/axis", "op": "Const", "attr": {"value": {"tensor": {"dtype": "DT_INT32", "tensorShape": {}}}, "dtype": {"type": "DT_INT32"}}}, {"name": "StatefulPartitionedCall/model/conv2d_39/Conv2D/ReadVariableOp", "op": "Const", "attr": {"dtype": {"type": "DT_FLOAT"}, "value": {"tensor": {"dtype": "DT_FLOAT", "tensorShape": {"dim": [{"size": "1"}, {"size": "1"}, {"size": "256"}, {"size": "64"}]}}}}}, {"name": "StatefulPartitionedCall/model/tf.math.add_59/Add/y", "op": "Const", "attr": {"value": {"tensor": {"dtype": "DT_FLOAT", "tensorShape": {"dim": [{"size": "64"}]}}}, "dtype": {"type": "DT_FLOAT"}}}, {"name": "StatefulPartitionedCall/model/tf.concat_7/concat/axis", "op": "Const", "attr": {"dtype": {"type": "DT_INT32"}, "value": {"tensor": {"dtype": "DT_INT32", "tensorShape": {}}}}}, {"name": "StatefulPartitionedCall/model/conv2d_40/Conv2D/ReadVariableOp", "op": "Const", "attr": {"dtype": {"type": "DT_FLOAT"}, "value": {"tensor": {"dtype": "DT_FLOAT", "tensorShape": {"dim": [{"size": "1"}, {"size": "1"}, {"size": "128"}, {"size": "128"}]}}}}}, {"name": "StatefulPartitionedCall/model/tf.math.add_60/Add/y", "op": "Const", "attr": {"dtype": {"type": "DT_FLOAT"}, "value": {"tensor": {"dtype": "DT_FLOAT", "tensorShape": {"dim": [{"size": "128"}]}}}}}, {"name": "StatefulPartitionedCall/model/conv2d_41/Conv2D/ReadVariableOp", "op": "Const", "attr": {"value": {"tensor": {"dtype": "DT_FLOAT", "tensorShape": {"dim": [{"size": "1"}, {"size": "1"}, {"size": "128"}, {"size": "64"}]}}}, "dtype": {"type": "DT_FLOAT"}}}, {"name": "StatefulPartitionedCall/model/tf.math.add_61/Add/y", "op": "Const", "attr": {"value": {"tensor": {"dtype": "DT_FLOAT", "tensorShape": {"dim": [{"size": "64"}]}}}, "dtype": {"type": "DT_FLOAT"}}}, {"name": "StatefulPartitionedCall/model/tf.concat_11/concat/axis", "op": "Const", "attr": {"dtype": {"type": "DT_INT32"}, "value": {"tensor": {"dtype": "DT_INT32", "tensorShape": {}}}}}, {"name": "StatefulPartitionedCall/model/conv2d_59/Conv2D/ReadVariableOp", "op": "Const", "attr": {"dtype": {"type": "DT_FLOAT"}, "value": {"tensor": {"dtype": "DT_FLOAT", "tensorShape": {"dim": [{"size": "1"}, {"size": "1"}, {"size": "128"}, {"size": "64"}]}}}}}, {"name": "StatefulPartitionedCall/model/tf.math.add_86/Add/y", "op": "Const", "attr": {"dtype": {"type": "DT_FLOAT"}, "value": {"tensor": {"dtype": "DT_FLOAT", "tensorShape": {"dim": [{"size": "64"}]}}}}}, {"name": "StatefulPartitionedCall/model/tf.concat_12/concat/axis", "op": "Const", "attr": {"value": {"tensor": {"dtype": "DT_INT32", "tensorShape": {}}}, "dtype": {"type": "DT_INT32"}}}, {"name": "StatefulPartitionedCall/model/conv2d_60/Conv2D/ReadVariableOp", "op": "Const", "attr": {"dtype": {"type": "DT_FLOAT"}, "value": {"tensor": {"dtype": "DT_FLOAT", "tensorShape": {"dim": [{"size": "1"}, {"size": "1"}, {"size": "128"}, {"size": "128"}]}}}}}, {"name": "StatefulPartitionedCall/model/tf.math.add_87/Add/y", "op": "Const", "attr": {"value": {"tensor": {"dtype": "DT_FLOAT", "tensorShape": {"dim": [{"size": "128"}]}}}, "dtype": {"type": "DT_FLOAT"}}}, {"name": "StatefulPartitionedCall/model/zero_padding2d_25/Pad/paddings", "op": "Const", "attr": {"value": {"tensor": {"dtype": "DT_INT32", "tensorShape": {"dim": [{"size": "4"}, {"size": "2"}]}}}, "dtype": {"type": "DT_INT32"}}}, {"name": "StatefulPartitionedCall/model/depthwise_conv2d_24/depthwise/ReadVariableOp", "op": "Const", "attr": {"dtype": {"type": "DT_FLOAT"}, "value": {"tensor": {"dtype": "DT_FLOAT", "tensorShape": {"dim": [{"size": "3"}, {"size": "3"}, {"size": "128"}, {"size": "1"}]}}}}}, {"name": "StatefulPartitionedCall/model/tf.math.add_100/Add/y", "op": "Const", "attr": {"dtype": {"type": "DT_FLOAT"}, "value": {"tensor": {"dtype": "DT_FLOAT", "tensorShape": {"dim": [{"size": "128"}]}}}}}, {"name": "StatefulPartitionedCall/model/conv2d_69/Conv2D/ReadVariableOp", "op": "Const", "attr": {"value": {"tensor": {"dtype": "DT_FLOAT", "tensorShape": {"dim": [{"size": "1"}, {"size": "1"}, {"size": "128"}, {"size": "128"}]}}}, "dtype": {"type": "DT_FLOAT"}}}, {"name": "StatefulPartitionedCall/model/tf.math.add_101/Add/y", "op": "Const", "attr": {"value": {"tensor": {"dtype": "DT_FLOAT", "tensorShape": {"dim": [{"size": "128"}]}}}, "dtype": {"type": "DT_FLOAT"}}}, {"name": "StatefulPartitionedCall/model/conv2d_30/Conv2D/ReadVariableOp", "op": "Const", "attr": {"value": {"tensor": {"dtype": "DT_FLOAT", "tensorShape": {"dim": [{"size": "1"}, {"size": "1"}, {"size": "256"}, {"size": "128"}]}}}, "dtype": {"type": "DT_FLOAT"}}}, {"name": "StatefulPartitionedCall/model/tf.math.add_48/Add/y", "op": "Const", "attr": {"value": {"tensor": {"dtype": "DT_FLOAT", "tensorShape": {"dim": [{"size": "128"}]}}}, "dtype": {"type": "DT_FLOAT"}}}, {"name": "StatefulPartitionedCall/model/conv2d_31/Conv2D/ReadVariableOp", "op": "Const", "attr": {"dtype": {"type": "DT_FLOAT"}, "value": {"tensor": {"dtype": "DT_FLOAT", "tensorShape": {"dim": [{"size": "1"}, {"size": "1"}, {"size": "128"}, {"size": "128"}]}}}}}, {"name": "StatefulPartitionedCall/model/tf.math.add_49/Add/y", "op": "Const", "attr": {"dtype": {"type": "DT_FLOAT"}, "value": {"tensor": {"dtype": "DT_FLOAT", "tensorShape": {"dim": [{"size": "128"}]}}}}}, {"name": "StatefulPartitionedCall/model/zero_padding2d_12/Pad/paddings", "op": "Const", "attr": {"dtype": {"type": "DT_INT32"}, "value": {"tensor": {"dtype": "DT_INT32", "tensorShape": {"dim": [{"size": "4"}, {"size": "2"}]}}}}}, {"name": "StatefulPartitionedCall/model/depthwise_conv2d_11/depthwise/ReadVariableOp", "op": "Const", "attr": {"dtype": {"type": "DT_FLOAT"}, "value": {"tensor": {"dtype": "DT_FLOAT", "tensorShape": {"dim": [{"size": "3"}, {"size": "3"}, {"size": "128"}, {"size": "1"}]}}}}}, {"name": "StatefulPartitionedCall/model/tf.math.add_50/Add/y", "op": "Const", "attr": {"dtype": {"type": "DT_FLOAT"}, "value": {"tensor": {"dtype": "DT_FLOAT", "tensorShape": {"dim": [{"size": "128"}]}}}}}, {"name": "StatefulPartitionedCall/model/conv2d_32/Conv2D/ReadVariableOp", "op": "Const", "attr": {"value": {"tensor": {"dtype": "DT_FLOAT", "tensorShape": {"dim": [{"size": "1"}, {"size": "1"}, {"size": "128"}, {"size": "128"}]}}}, "dtype": {"type": "DT_FLOAT"}}}, {"name": "StatefulPartitionedCall/model/tf.math.add_51/Add/y", "op": "Const", "attr": {"dtype": {"type": "DT_FLOAT"}, "value": {"tensor": {"dtype": "DT_FLOAT", "tensorShape": {"dim": [{"size": "128"}]}}}}}, {"name": "StatefulPartitionedCall/model/conv2d_18/Conv2D/ReadVariableOp", "op": "Const", "attr": {"value": {"tensor": {"dtype": "DT_FLOAT", "tensorShape": {"dim": [{"size": "1"}, {"size": "1"}, {"size": "128"}, {"size": "64"}]}}}, "dtype": {"type": "DT_FLOAT"}}}, {"name": "StatefulPartitionedCall/model/tf.math.add_29/Add/y", "op": "Const", "attr": {"value": {"tensor": {"dtype": "DT_FLOAT", "tensorShape": {"dim": [{"size": "64"}]}}}, "dtype": {"type": "DT_FLOAT"}}}, {"name": "StatefulPartitionedCall/model/conv2d_19/Conv2D/ReadVariableOp", "op": "Const", "attr": {"dtype": {"type": "DT_FLOAT"}, "value": {"tensor": {"dtype": "DT_FLOAT", "tensorShape": {"dim": [{"size": "1"}, {"size": "1"}, {"size": "64"}, {"size": "64"}]}}}}}, {"name": "StatefulPartitionedCall/model/tf.math.add_30/Add/y", "op": "Const", "attr": {"value": {"tensor": {"dtype": "DT_FLOAT", "tensorShape": {"dim": [{"size": "64"}]}}}, "dtype": {"type": "DT_FLOAT"}}}, {"name": "StatefulPartitionedCall/model/zero_padding2d_8/Pad/paddings", "op": "Const", "attr": {"dtype": {"type": "DT_INT32"}, "value": {"tensor": {"dtype": "DT_INT32", "tensorShape": {"dim": [{"size": "4"}, {"size": "2"}]}}}}}, {"name": "StatefulPartitionedCall/model/depthwise_conv2d_7/depthwise/ReadVariableOp", "op": "Const", "attr": {"value": {"tensor": {"dtype": "DT_FLOAT", "tensorShape": {"dim": [{"size": "3"}, {"size": "3"}, {"size": "64"}, {"size": "1"}]}}}, "dtype": {"type": "DT_FLOAT"}}}, {"name": "StatefulPartitionedCall/model/tf.math.add_31/Add/y", "op": "Const", "attr": {"value": {"tensor": {"dtype": "DT_FLOAT", "tensorShape": {"dim": [{"size": "64"}]}}}, "dtype": {"type": "DT_FLOAT"}}}, {"name": "StatefulPartitionedCall/model/conv2d_20/Conv2D/ReadVariableOp", "op": "Const", "attr": {"dtype": {"type": "DT_FLOAT"}, "value": {"tensor": {"dtype": "DT_FLOAT", "tensorShape": {"dim": [{"size": "1"}, {"size": "1"}, {"size": "64"}, {"size": "64"}]}}}}}, {"name": "StatefulPartitionedCall/model/tf.math.add_32/Add/y", "op": "Const", "attr": {"dtype": {"type": "DT_FLOAT"}, "value": {"tensor": {"dtype": "DT_FLOAT", "tensorShape": {"dim": [{"size": "64"}]}}}}}, {"name": "StatefulPartitionedCall/model/conv2d_21/Conv2D/ReadVariableOp", "op": "Const", "attr": {"dtype": {"type": "DT_FLOAT"}, "value": {"tensor": {"dtype": "DT_FLOAT", "tensorShape": {"dim": [{"size": "1"}, {"size": "1"}, {"size": "64"}, {"size": "64"}]}}}}}, {"name": "StatefulPartitionedCall/model/tf.math.add_34/Add/y", "op": "Const", "attr": {"value": {"tensor": {"dtype": "DT_FLOAT", "tensorShape": {"dim": [{"size": "64"}]}}}, "dtype": {"type": "DT_FLOAT"}}}, {"name": "StatefulPartitionedCall/model/zero_padding2d_9/Pad/paddings", "op": "Const", "attr": {"dtype": {"type": "DT_INT32"}, "value": {"tensor": {"dtype": "DT_INT32", "tensorShape": {"dim": [{"size": "4"}, {"size": "2"}]}}}}}, {"name": "StatefulPartitionedCall/model/depthwise_conv2d_8/depthwise/ReadVariableOp", "op": "Const", "attr": {"dtype": {"type": "DT_FLOAT"}, "value": {"tensor": {"dtype": "DT_FLOAT", "tensorShape": {"dim": [{"size": "3"}, {"size": "3"}, {"size": "64"}, {"size": "1"}]}}}}}, {"name": "StatefulPartitionedCall/model/tf.math.add_35/Add/y", "op": "Const", "attr": {"dtype": {"type": "DT_FLOAT"}, "value": {"tensor": {"dtype": "DT_FLOAT", "tensorShape": {"dim": [{"size": "64"}]}}}}}, {"name": "StatefulPartitionedCall/model/conv2d_22/Conv2D/ReadVariableOp", "op": "Const", "attr": {"value": {"tensor": {"dtype": "DT_FLOAT", "tensorShape": {"dim": [{"size": "1"}, {"size": "1"}, {"size": "64"}, {"size": "64"}]}}}, "dtype": {"type": "DT_FLOAT"}}}, {"name": "StatefulPartitionedCall/model/tf.math.add_36/Add/y", "op": "Const", "attr": {"dtype": {"type": "DT_FLOAT"}, "value": {"tensor": {"dtype": "DT_FLOAT", "tensorShape": {"dim": [{"size": "64"}]}}}}}, {"name": "StatefulPartitionedCall/model/conv2d_23/Conv2D/ReadVariableOp", "op": "Const", "attr": {"dtype": {"type": "DT_FLOAT"}, "value": {"tensor": {"dtype": "DT_FLOAT", "tensorShape": {"dim": [{"size": "1"}, {"size": "1"}, {"size": "64"}, {"size": "64"}]}}}}}, {"name": "StatefulPartitionedCall/model/tf.math.add_38/Add/y", "op": "Const", "attr": {"value": {"tensor": {"dtype": "DT_FLOAT", "tensorShape": {"dim": [{"size": "64"}]}}}, "dtype": {"type": "DT_FLOAT"}}}, {"name": "StatefulPartitionedCall/model/zero_padding2d_10/Pad/paddings", "op": "Const", "attr": {"value": {"tensor": {"dtype": "DT_INT32", "tensorShape": {"dim": [{"size": "4"}, {"size": "2"}]}}}, "dtype": {"type": "DT_INT32"}}}, {"name": "StatefulPartitionedCall/model/depthwise_conv2d_9/depthwise/ReadVariableOp", "op": "Const", "attr": {"dtype": {"type": "DT_FLOAT"}, "value": {"tensor": {"dtype": "DT_FLOAT", "tensorShape": {"dim": [{"size": "3"}, {"size": "3"}, {"size": "64"}, {"size": "1"}]}}}}}, {"name": "StatefulPartitionedCall/model/tf.math.add_39/Add/y", "op": "Const", "attr": {"value": {"tensor": {"dtype": "DT_FLOAT", "tensorShape": {"dim": [{"size": "64"}]}}}, "dtype": {"type": "DT_FLOAT"}}}, {"name": "StatefulPartitionedCall/model/conv2d_24/Conv2D/ReadVariableOp", "op": "Const", "attr": {"value": {"tensor": {"dtype": "DT_FLOAT", "tensorShape": {"dim": [{"size": "1"}, {"size": "1"}, {"size": "64"}, {"size": "64"}]}}}, "dtype": {"type": "DT_FLOAT"}}}, {"name": "StatefulPartitionedCall/model/tf.math.add_40/Add/y", "op": "Const", "attr": {"dtype": {"type": "DT_FLOAT"}, "value": {"tensor": {"dtype": "DT_FLOAT", "tensorShape": {"dim": [{"size": "64"}]}}}}}, {"name": "StatefulPartitionedCall/model/conv2d_8/Conv2D/ReadVariableOp", "op": "Const", "attr": {"dtype": {"type": "DT_FLOAT"}, "value": {"tensor": {"dtype": "DT_FLOAT", "tensorShape": {"dim": [{"size": "1"}, {"size": "1"}, {"size": "64"}, {"size": "32"}]}}}}}, {"name": "StatefulPartitionedCall/model/tf.math.add_12/Add/y", "op": "Const", "attr": {"dtype": {"type": "DT_FLOAT"}, "value": {"tensor": {"dtype": "DT_FLOAT", "tensorShape": {"dim": [{"size": "32"}]}}}}}, {"name": "StatefulPartitionedCall/model/conv2d_9/Conv2D/ReadVariableOp", "op": "Const", "attr": {"dtype": {"type": "DT_FLOAT"}, "value": {"tensor": {"dtype": "DT_FLOAT", "tensorShape": {"dim": [{"size": "1"}, {"size": "1"}, {"size": "32"}, {"size": "32"}]}}}}}, {"name": "StatefulPartitionedCall/model/tf.math.add_13/Add/y", "op": "Const", "attr": {"dtype": {"type": "DT_FLOAT"}, "value": {"tensor": {"dtype": "DT_FLOAT", "tensorShape": {"dim": [{"size": "32"}]}}}}}, {"name": "StatefulPartitionedCall/model/zero_padding2d_4/Pad/paddings", "op": "Const", "attr": {"dtype": {"type": "DT_INT32"}, "value": {"tensor": {"dtype": "DT_INT32", "tensorShape": {"dim": [{"size": "4"}, {"size": "2"}]}}}}}, {"name": "StatefulPartitionedCall/model/depthwise_conv2d_3/depthwise/ReadVariableOp", "op": "Const", "attr": {"value": {"tensor": {"dtype": "DT_FLOAT", "tensorShape": {"dim": [{"size": "3"}, {"size": "3"}, {"size": "32"}, {"size": "1"}]}}}, "dtype": {"type": "DT_FLOAT"}}}, {"name": "StatefulPartitionedCall/model/tf.math.add_14/Add/y", "op": "Const", "attr": {"dtype": {"type": "DT_FLOAT"}, "value": {"tensor": {"dtype": "DT_FLOAT", "tensorShape": {"dim": [{"size": "32"}]}}}}}, {"name": "StatefulPartitionedCall/model/conv2d_10/Conv2D/ReadVariableOp", "op": "Const", "attr": {"value": {"tensor": {"dtype": "DT_FLOAT", "tensorShape": {"dim": [{"size": "1"}, {"size": "1"}, {"size": "32"}, {"size": "32"}]}}}, "dtype": {"type": "DT_FLOAT"}}}, {"name": "StatefulPartitionedCall/model/tf.math.add_15/Add/y", "op": "Const", "attr": {"value": {"tensor": {"dtype": "DT_FLOAT", "tensorShape": {"dim": [{"size": "32"}]}}}, "dtype": {"type": "DT_FLOAT"}}}, {"name": "StatefulPartitionedCall/model/conv2d_11/Conv2D/ReadVariableOp", "op": "Const", "attr": {"dtype": {"type": "DT_FLOAT"}, "value": {"tensor": {"dtype": "DT_FLOAT", "tensorShape": {"dim": [{"size": "1"}, {"size": "1"}, {"size": "32"}, {"size": "32"}]}}}}}, {"name": "StatefulPartitionedCall/model/tf.math.add_17/Add/y", "op": "Const", "attr": {"value": {"tensor": {"dtype": "DT_FLOAT", "tensorShape": {"dim": [{"size": "32"}]}}}, "dtype": {"type": "DT_FLOAT"}}}, {"name": "StatefulPartitionedCall/model/zero_padding2d_5/Pad/paddings", "op": "Const", "attr": {"dtype": {"type": "DT_INT32"}, "value": {"tensor": {"dtype": "DT_INT32", "tensorShape": {"dim": [{"size": "4"}, {"size": "2"}]}}}}}, {"name": "StatefulPartitionedCall/model/depthwise_conv2d_4/depthwise/ReadVariableOp", "op": "Const", "attr": {"dtype": {"type": "DT_FLOAT"}, "value": {"tensor": {"dtype": "DT_FLOAT", "tensorShape": {"dim": [{"size": "3"}, {"size": "3"}, {"size": "32"}, {"size": "1"}]}}}}}, {"name": "StatefulPartitionedCall/model/tf.math.add_18/Add/y", "op": "Const", "attr": {"dtype": {"type": "DT_FLOAT"}, "value": {"tensor": {"dtype": "DT_FLOAT", "tensorShape": {"dim": [{"size": "32"}]}}}}}, {"name": "StatefulPartitionedCall/model/conv2d_12/Conv2D/ReadVariableOp", "op": "Const", "attr": {"dtype": {"type": "DT_FLOAT"}, "value": {"tensor": {"dtype": "DT_FLOAT", "tensorShape": {"dim": [{"size": "1"}, {"size": "1"}, {"size": "32"}, {"size": "32"}]}}}}}, {"name": "StatefulPartitionedCall/model/tf.math.add_19/Add/y", "op": "Const", "attr": {"dtype": {"type": "DT_FLOAT"}, "value": {"tensor": {"dtype": "DT_FLOAT", "tensorShape": {"dim": [{"size": "32"}]}}}}}, {"name": "StatefulPartitionedCall/model/conv2d_13/Conv2D/ReadVariableOp", "op": "Const", "attr": {"dtype": {"type": "DT_FLOAT"}, "value": {"tensor": {"dtype": "DT_FLOAT", "tensorShape": {"dim": [{"size": "1"}, {"size": "1"}, {"size": "32"}, {"size": "32"}]}}}}}, {"name": "StatefulPartitionedCall/model/tf.math.add_21/Add/y", "op": "Const", "attr": {"value": {"tensor": {"dtype": "DT_FLOAT", "tensorShape": {"dim": [{"size": "32"}]}}}, "dtype": {"type": "DT_FLOAT"}}}, {"name": "StatefulPartitionedCall/model/zero_padding2d_6/Pad/paddings", "op": "Const", "attr": {"value": {"tensor": {"dtype": "DT_INT32", "tensorShape": {"dim": [{"size": "4"}, {"size": "2"}]}}}, "dtype": {"type": "DT_INT32"}}}, {"name": "StatefulPartitionedCall/model/depthwise_conv2d_5/depthwise/ReadVariableOp", "op": "Const", "attr": {"value": {"tensor": {"dtype": "DT_FLOAT", "tensorShape": {"dim": [{"size": "3"}, {"size": "3"}, {"size": "32"}, {"size": "1"}]}}}, "dtype": {"type": "DT_FLOAT"}}}, {"name": "StatefulPartitionedCall/model/tf.math.add_22/Add/y", "op": "Const", "attr": {"value": {"tensor": {"dtype": "DT_FLOAT", "tensorShape": {"dim": [{"size": "32"}]}}}, "dtype": {"type": "DT_FLOAT"}}}, {"name": "StatefulPartitionedCall/model/conv2d_14/Conv2D/ReadVariableOp", "op": "Const", "attr": {"value": {"tensor": {"dtype": "DT_FLOAT", "tensorShape": {"dim": [{"size": "1"}, {"size": "1"}, {"size": "32"}, {"size": "32"}]}}}, "dtype": {"type": "DT_FLOAT"}}}, {"name": "StatefulPartitionedCall/model/tf.math.add_23/Add/y", "op": "Const", "attr": {"dtype": {"type": "DT_FLOAT"}, "value": {"tensor": {"dtype": "DT_FLOAT", "tensorShape": {"dim": [{"size": "32"}]}}}}}, {"name": "StatefulPartitionedCall/model/conv2d_2/Conv2D/ReadVariableOp", "op": "Const", "attr": {"value": {"tensor": {"dtype": "DT_FLOAT", "tensorShape": {"dim": [{"size": "1"}, {"size": "1"}, {"size": "32"}, {"size": "16"}]}}}, "dtype": {"type": "DT_FLOAT"}}}, {"name": "StatefulPartitionedCall/model/tf.math.add_3/Add/y", "op": "Const", "attr": {"dtype": {"type": "DT_FLOAT"}, "value": {"tensor": {"dtype": "DT_FLOAT", "tensorShape": {"dim": [{"size": "16"}]}}}}}, {"name": "StatefulPartitionedCall/model/conv2d_3/Conv2D/ReadVariableOp", "op": "Const", "attr": {"dtype": {"type": "DT_FLOAT"}, "value": {"tensor": {"dtype": "DT_FLOAT", "tensorShape": {"dim": [{"size": "1"}, {"size": "1"}, {"size": "16"}, {"size": "16"}]}}}}}, {"name": "StatefulPartitionedCall/model/tf.math.add_4/Add/y", "op": "Const", "attr": {"dtype": {"type": "DT_FLOAT"}, "value": {"tensor": {"dtype": "DT_FLOAT", "tensorShape": {"dim": [{"size": "16"}]}}}}}, {"name": "StatefulPartitionedCall/model/zero_padding2d_2/Pad/paddings", "op": "Const", "attr": {"value": {"tensor": {"dtype": "DT_INT32", "tensorShape": {"dim": [{"size": "4"}, {"size": "2"}]}}}, "dtype": {"type": "DT_INT32"}}}, {"name": "StatefulPartitionedCall/model/depthwise_conv2d_1/depthwise/ReadVariableOp", "op": "Const", "attr": {"dtype": {"type": "DT_FLOAT"}, "value": {"tensor": {"dtype": "DT_FLOAT", "tensorShape": {"dim": [{"size": "3"}, {"size": "3"}, {"size": "16"}, {"size": "1"}]}}}}}, {"name": "StatefulPartitionedCall/model/tf.math.add_5/Add/y", "op": "Const", "attr": {"dtype": {"type": "DT_FLOAT"}, "value": {"tensor": {"dtype": "DT_FLOAT", "tensorShape": {"dim": [{"size": "16"}]}}}}}, {"name": "StatefulPartitionedCall/model/conv2d_4/Conv2D/ReadVariableOp", "op": "Const", "attr": {"value": {"tensor": {"dtype": "DT_FLOAT", "tensorShape": {"dim": [{"size": "1"}, {"size": "1"}, {"size": "16"}, {"size": "16"}]}}}, "dtype": {"type": "DT_FLOAT"}}}, {"name": "StatefulPartitionedCall/model/tf.math.add_6/Add/y", "op": "Const", "attr": {"value": {"tensor": {"dtype": "DT_FLOAT", "tensorShape": {"dim": [{"size": "16"}]}}}, "dtype": {"type": "DT_FLOAT"}}}, {"name": "StatefulPartitionedCall/model/tf.strided_slice/StridedSlice/begin", "op": "Const", "attr": {"dtype": {"type": "DT_INT64"}, "value": {"tensor": {"dtype": "DT_INT64", "tensorShape": {"dim": [{"size": "4"}]}}}}}, {"name": "StatefulPartitionedCall/model/tf.strided_slice/StridedSlice/end", "op": "Const", "attr": {"dtype": {"type": "DT_INT64"}, "value": {"tensor": {"dtype": "DT_INT64", "tensorShape": {"dim": [{"size": "4"}]}}}}}, {"name": "StatefulPartitionedCall/model/tf.strided_slice/StridedSlice/strides", "op": "Const", "attr": {"value": {"tensor": {"dtype": "DT_INT64", "tensorShape": {"dim": [{"size": "4"}]}}}, "dtype": {"type": "DT_INT64"}}}, {"name": "StatefulPartitionedCall/model/tf.strided_slice_1/StridedSlice/begin", "op": "Const", "attr": {"dtype": {"type": "DT_INT64"}, "value": {"tensor": {"dtype": "DT_INT64", "tensorShape": {"dim": [{"size": "4"}]}}}}}, {"name": "StatefulPartitionedCall/model/tf.strided_slice_1/StridedSlice/end", "op": "Const", "attr": {"dtype": {"type": "DT_INT64"}, "value": {"tensor": {"dtype": "DT_INT64", "tensorShape": {"dim": [{"size": "4"}]}}}}}, {"name": "StatefulPartitionedCall/model/tf.strided_slice_1/StridedSlice/strides", "op": "Const", "attr": {"value": {"tensor": {"dtype": "DT_INT64", "tensorShape": {"dim": [{"size": "4"}]}}}, "dtype": {"type": "DT_INT64"}}}, {"name": "StatefulPartitionedCall/model/tf.strided_slice_2/StridedSlice/begin", "op": "Const", "attr": {"value": {"tensor": {"dtype": "DT_INT64", "tensorShape": {"dim": [{"size": "4"}]}}}, "dtype": {"type": "DT_INT64"}}}, {"name": "StatefulPartitionedCall/model/tf.strided_slice_2/StridedSlice/end", "op": "Const", "attr": {"value": {"tensor": {"dtype": "DT_INT64", "tensorShape": {"dim": [{"size": "4"}]}}}, "dtype": {"type": "DT_INT64"}}}, {"name": "StatefulPartitionedCall/model/tf.strided_slice_2/StridedSlice/strides", "op": "Const", "attr": {"dtype": {"type": "DT_INT64"}, "value": {"tensor": {"dtype": "DT_INT64", "tensorShape": {"dim": [{"size": "4"}]}}}}}, {"name": "StatefulPartitionedCall/model/tf.strided_slice_3/StridedSlice/begin", "op": "Const", "attr": {"value": {"tensor": {"dtype": "DT_INT64", "tensorShape": {"dim": [{"size": "4"}]}}}, "dtype": {"type": "DT_INT64"}}}, {"name": "StatefulPartitionedCall/model/tf.strided_slice_3/StridedSlice/end", "op": "Const", "attr": {"dtype": {"type": "DT_INT64"}, "value": {"tensor": {"dtype": "DT_INT64", "tensorShape": {"dim": [{"size": "4"}]}}}}}, {"name": "StatefulPartitionedCall/model/tf.strided_slice_3/StridedSlice/strides", "op": "Const", "attr": {"value": {"tensor": {"dtype": "DT_INT64", "tensorShape": {"dim": [{"size": "4"}]}}}, "dtype": {"type": "DT_INT64"}}}, {"name": "StatefulPartitionedCall/model/tf.strided_slice_4/StridedSlice/begin", "op": "Const", "attr": {"value": {"tensor": {"dtype": "DT_INT64", "tensorShape": {"dim": [{"size": "4"}]}}}, "dtype": {"type": "DT_INT64"}}}, {"name": "StatefulPartitionedCall/model/tf.strided_slice_4/StridedSlice/end", "op": "Const", "attr": {"dtype": {"type": "DT_INT64"}, "value": {"tensor": {"dtype": "DT_INT64", "tensorShape": {"dim": [{"size": "4"}]}}}}}, {"name": "StatefulPartitionedCall/model/tf.strided_slice_4/StridedSlice/strides", "op": "Const", "attr": {"dtype": {"type": "DT_INT64"}, "value": {"tensor": {"dtype": "DT_INT64", "tensorShape": {"dim": [{"size": "4"}]}}}}}, {"name": "StatefulPartitionedCall/model/tf.strided_slice_5/StridedSlice/begin", "op": "Const", "attr": {"dtype": {"type": "DT_INT64"}, "value": {"tensor": {"dtype": "DT_INT64", "tensorShape": {"dim": [{"size": "4"}]}}}}}, {"name": "StatefulPartitionedCall/model/tf.strided_slice_5/StridedSlice/end", "op": "Const", "attr": {"value": {"tensor": {"dtype": "DT_INT64", "tensorShape": {"dim": [{"size": "4"}]}}}, "dtype": {"type": "DT_INT64"}}}, {"name": "StatefulPartitionedCall/model/tf.strided_slice_5/StridedSlice/strides", "op": "Const", "attr": {"value": {"tensor": {"dtype": "DT_INT64", "tensorShape": {"dim": [{"size": "4"}]}}}, "dtype": {"type": "DT_INT64"}}}, {"name": "StatefulPartitionedCall/model/tf.strided_slice_6/StridedSlice/begin", "op": "Const", "attr": {"value": {"tensor": {"dtype": "DT_INT64", "tensorShape": {"dim": [{"size": "4"}]}}}, "dtype": {"type": "DT_INT64"}}}, {"name": "StatefulPartitionedCall/model/tf.strided_slice_6/StridedSlice/end", "op": "Const", "attr": {"value": {"tensor": {"dtype": "DT_INT64", "tensorShape": {"dim": [{"size": "4"}]}}}, "dtype": {"type": "DT_INT64"}}}, {"name": "StatefulPartitionedCall/model/tf.strided_slice_6/StridedSlice/strides", "op": "Const", "attr": {"value": {"tensor": {"dtype": "DT_INT64", "tensorShape": {"dim": [{"size": "4"}]}}}, "dtype": {"type": "DT_INT64"}}}, {"name": "StatefulPartitionedCall/model/tf.strided_slice_7/StridedSlice/begin", "op": "Const", "attr": {"value": {"tensor": {"dtype": "DT_INT64", "tensorShape": {"dim": [{"size": "4"}]}}}, "dtype": {"type": "DT_INT64"}}}, {"name": "StatefulPartitionedCall/model/tf.strided_slice_7/StridedSlice/end", "op": "Const", "attr": {"value": {"tensor": {"dtype": "DT_INT64", "tensorShape": {"dim": [{"size": "4"}]}}}, "dtype": {"type": "DT_INT64"}}}, {"name": "StatefulPartitionedCall/model/tf.strided_slice_7/StridedSlice/strides", "op": "Const", "attr": {"dtype": {"type": "DT_INT64"}, "value": {"tensor": {"dtype": "DT_INT64", "tensorShape": {"dim": [{"size": "4"}]}}}}}, {"name": "StatefulPartitionedCall/model/tf.concat/concat/axis", "op": "Const", "attr": {"value": {"tensor": {"dtype": "DT_INT32", "tensorShape": {}}}, "dtype": {"type": "DT_INT32"}}}, {"name": "StatefulPartitionedCall/model/zero_padding2d/Pad/paddings", "op": "Const", "attr": {"value": {"tensor": {"dtype": "DT_INT32", "tensorShape": {"dim": [{"size": "4"}, {"size": "2"}]}}}, "dtype": {"type": "DT_INT32"}}}, {"name": "StatefulPartitionedCall/model/conv2d/Conv2D/ReadVariableOp", "op": "Const", "attr": {"dtype": {"type": "DT_FLOAT"}, "value": {"tensor": {"dtype": "DT_FLOAT", "tensorShape": {"dim": [{"size": "3"}, {"size": "3"}, {"size": "12"}, {"size": "16"}]}}}}}, {"name": "StatefulPartitionedCall/model/tf.math.add/Add/y", "op": "Const", "attr": {"value": {"tensor": {"dtype": "DT_FLOAT", "tensorShape": {"dim": [{"size": "16"}]}}}, "dtype": {"type": "DT_FLOAT"}}}, {"name": "StatefulPartitionedCall/model/zero_padding2d_1/Pad/paddings", "op": "Const", "attr": {"value": {"tensor": {"dtype": "DT_INT32", "tensorShape": {"dim": [{"size": "4"}, {"size": "2"}]}}}, "dtype": {"type": "DT_INT32"}}}, {"name": "StatefulPartitionedCall/model/depthwise_conv2d/depthwise/ReadVariableOp", "op": "Const", "attr": {"dtype": {"type": "DT_FLOAT"}, "value": {"tensor": {"dtype": "DT_FLOAT", "tensorShape": {"dim": [{"size": "3"}, {"size": "3"}, {"size": "16"}, {"size": "1"}]}}}}}, {"name": "StatefulPartitionedCall/model/tf.math.add_1/Add/y", "op": "Const", "attr": {"dtype": {"type": "DT_FLOAT"}, "value": {"tensor": {"dtype": "DT_FLOAT", "tensorShape": {"dim": [{"size": "16"}]}}}}}, {"name": "StatefulPartitionedCall/model/conv2d_1/Conv2D/ReadVariableOp", "op": "Const", "attr": {"value": {"tensor": {"dtype": "DT_FLOAT", "tensorShape": {"dim": [{"size": "1"}, {"size": "1"}, {"size": "16"}, {"size": "32"}]}}}, "dtype": {"type": "DT_FLOAT"}}}, {"name": "StatefulPartitionedCall/model/tf.math.add_2/Add/y", "op": "Const", "attr": {"dtype": {"type": "DT_FLOAT"}, "value": {"tensor": {"dtype": "DT_FLOAT", "tensorShape": {"dim": [{"size": "32"}]}}}}}, {"name": "StatefulPartitionedCall/model/conv2d_5/Conv2D/ReadVariableOp", "op": "Const", "attr": {"value": {"tensor": {"dtype": "DT_FLOAT", "tensorShape": {"dim": [{"size": "1"}, {"size": "1"}, {"size": "32"}, {"size": "16"}]}}}, "dtype": {"type": "DT_FLOAT"}}}, {"name": "StatefulPartitionedCall/model/tf.math.add_8/Add/y", "op": "Const", "attr": {"dtype": {"type": "DT_FLOAT"}, "value": {"tensor": {"dtype": "DT_FLOAT", "tensorShape": {"dim": [{"size": "16"}]}}}}}, {"name": "StatefulPartitionedCall/model/tf.concat_1/concat/axis", "op": "Const", "attr": {"value": {"tensor": {"dtype": "DT_INT32", "tensorShape": {}}}, "dtype": {"type": "DT_INT32"}}}, {"name": "StatefulPartitionedCall/model/conv2d_6/Conv2D/ReadVariableOp", "op": "Const", "attr": {"dtype": {"type": "DT_FLOAT"}, "value": {"tensor": {"dtype": "DT_FLOAT", "tensorShape": {"dim": [{"size": "1"}, {"size": "1"}, {"size": "32"}, {"size": "32"}]}}}}}, {"name": "StatefulPartitionedCall/model/tf.math.add_9/Add/y", "op": "Const", "attr": {"dtype": {"type": "DT_FLOAT"}, "value": {"tensor": {"dtype": "DT_FLOAT", "tensorShape": {"dim": [{"size": "32"}]}}}}}, {"name": "StatefulPartitionedCall/model/zero_padding2d_3/Pad/paddings", "op": "Const", "attr": {"dtype": {"type": "DT_INT32"}, "value": {"tensor": {"dtype": "DT_INT32", "tensorShape": {"dim": [{"size": "4"}, {"size": "2"}]}}}}}, {"name": "StatefulPartitionedCall/model/depthwise_conv2d_2/depthwise/ReadVariableOp", "op": "Const", "attr": {"dtype": {"type": "DT_FLOAT"}, "value": {"tensor": {"dtype": "DT_FLOAT", "tensorShape": {"dim": [{"size": "3"}, {"size": "3"}, {"size": "32"}, {"size": "1"}]}}}}}, {"name": "StatefulPartitionedCall/model/tf.math.add_10/Add/y", "op": "Const", "attr": {"value": {"tensor": {"dtype": "DT_FLOAT", "tensorShape": {"dim": [{"size": "32"}]}}}, "dtype": {"type": "DT_FLOAT"}}}, {"name": "StatefulPartitionedCall/model/conv2d_7/Conv2D/ReadVariableOp", "op": "Const", "attr": {"dtype": {"type": "DT_FLOAT"}, "value": {"tensor": {"dtype": "DT_FLOAT", "tensorShape": {"dim": [{"size": "1"}, {"size": "1"}, {"size": "32"}, {"size": "64"}]}}}}}, {"name": "StatefulPartitionedCall/model/tf.math.add_11/Add/y", "op": "Const", "attr": {"value": {"tensor": {"dtype": "DT_FLOAT", "tensorShape": {"dim": [{"size": "64"}]}}}, "dtype": {"type": "DT_FLOAT"}}}, {"name": "StatefulPartitionedCall/model/conv2d_15/Conv2D/ReadVariableOp", "op": "Const", "attr": {"value": {"tensor": {"dtype": "DT_FLOAT", "tensorShape": {"dim": [{"size": "1"}, {"size": "1"}, {"size": "64"}, {"size": "32"}]}}}, "dtype": {"type": "DT_FLOAT"}}}, {"name": "StatefulPartitionedCall/model/tf.math.add_25/Add/y", "op": "Const", "attr": {"dtype": {"type": "DT_FLOAT"}, "value": {"tensor": {"dtype": "DT_FLOAT", "tensorShape": {"dim": [{"size": "32"}]}}}}}, {"name": "StatefulPartitionedCall/model/tf.concat_2/concat/axis", "op": "Const", "attr": {"dtype": {"type": "DT_INT32"}, "value": {"tensor": {"dtype": "DT_INT32", "tensorShape": {}}}}}, {"name": "StatefulPartitionedCall/model/conv2d_16/Conv2D/ReadVariableOp", "op": "Const", "attr": {"dtype": {"type": "DT_FLOAT"}, "value": {"tensor": {"dtype": "DT_FLOAT", "tensorShape": {"dim": [{"size": "1"}, {"size": "1"}, {"size": "64"}, {"size": "64"}]}}}}}, {"name": "StatefulPartitionedCall/model/tf.math.add_26/Add/y", "op": "Const", "attr": {"value": {"tensor": {"dtype": "DT_FLOAT", "tensorShape": {"dim": [{"size": "64"}]}}}, "dtype": {"type": "DT_FLOAT"}}}, {"name": "StatefulPartitionedCall/model/zero_padding2d_7/Pad/paddings", "op": "Const", "attr": {"value": {"tensor": {"dtype": "DT_INT32", "tensorShape": {"dim": [{"size": "4"}, {"size": "2"}]}}}, "dtype": {"type": "DT_INT32"}}}, {"name": "StatefulPartitionedCall/model/depthwise_conv2d_6/depthwise/ReadVariableOp", "op": "Const", "attr": {"dtype": {"type": "DT_FLOAT"}, "value": {"tensor": {"dtype": "DT_FLOAT", "tensorShape": {"dim": [{"size": "3"}, {"size": "3"}, {"size": "64"}, {"size": "1"}]}}}}}, {"name": "StatefulPartitionedCall/model/tf.math.add_27/Add/y", "op": "Const", "attr": {"dtype": {"type": "DT_FLOAT"}, "value": {"tensor": {"dtype": "DT_FLOAT", "tensorShape": {"dim": [{"size": "64"}]}}}}}, {"name": "StatefulPartitionedCall/model/conv2d_17/Conv2D/ReadVariableOp", "op": "Const", "attr": {"value": {"tensor": {"dtype": "DT_FLOAT", "tensorShape": {"dim": [{"size": "1"}, {"size": "1"}, {"size": "64"}, {"size": "128"}]}}}, "dtype": {"type": "DT_FLOAT"}}}, {"name": "StatefulPartitionedCall/model/tf.math.add_28/Add/y", "op": "Const", "attr": {"dtype": {"type": "DT_FLOAT"}, "value": {"tensor": {"dtype": "DT_FLOAT", "tensorShape": {"dim": [{"size": "128"}]}}}}}, {"name": "StatefulPartitionedCall/model/conv2d_25/Conv2D/ReadVariableOp", "op": "Const", "attr": {"dtype": {"type": "DT_FLOAT"}, "value": {"tensor": {"dtype": "DT_FLOAT", "tensorShape": {"dim": [{"size": "1"}, {"size": "1"}, {"size": "128"}, {"size": "64"}]}}}}}, {"name": "StatefulPartitionedCall/model/tf.math.add_42/Add/y", "op": "Const", "attr": {"value": {"tensor": {"dtype": "DT_FLOAT", "tensorShape": {"dim": [{"size": "64"}]}}}, "dtype": {"type": "DT_FLOAT"}}}, {"name": "StatefulPartitionedCall/model/tf.concat_3/concat/axis", "op": "Const", "attr": {"dtype": {"type": "DT_INT32"}, "value": {"tensor": {"dtype": "DT_INT32", "tensorShape": {}}}}}, {"name": "StatefulPartitionedCall/model/conv2d_26/Conv2D/ReadVariableOp", "op": "Const", "attr": {"value": {"tensor": {"dtype": "DT_FLOAT", "tensorShape": {"dim": [{"size": "1"}, {"size": "1"}, {"size": "128"}, {"size": "128"}]}}}, "dtype": {"type": "DT_FLOAT"}}}, {"name": "StatefulPartitionedCall/model/tf.math.add_43/Add/y", "op": "Const", "attr": {"value": {"tensor": {"dtype": "DT_FLOAT", "tensorShape": {"dim": [{"size": "128"}]}}}, "dtype": {"type": "DT_FLOAT"}}}, {"name": "StatefulPartitionedCall/model/zero_padding2d_11/Pad/paddings", "op": "Const", "attr": {"value": {"tensor": {"dtype": "DT_INT32", "tensorShape": {"dim": [{"size": "4"}, {"size": "2"}]}}}, "dtype": {"type": "DT_INT32"}}}, {"name": "StatefulPartitionedCall/model/depthwise_conv2d_10/depthwise/ReadVariableOp", "op": "Const", "attr": {"value": {"tensor": {"dtype": "DT_FLOAT", "tensorShape": {"dim": [{"size": "3"}, {"size": "3"}, {"size": "128"}, {"size": "1"}]}}}, "dtype": {"type": "DT_FLOAT"}}}, {"name": "StatefulPartitionedCall/model/tf.math.add_44/Add/y", "op": "Const", "attr": {"dtype": {"type": "DT_FLOAT"}, "value": {"tensor": {"dtype": "DT_FLOAT", "tensorShape": {"dim": [{"size": "128"}]}}}}}, {"name": "StatefulPartitionedCall/model/conv2d_27/Conv2D/ReadVariableOp", "op": "Const", "attr": {"value": {"tensor": {"dtype": "DT_FLOAT", "tensorShape": {"dim": [{"size": "1"}, {"size": "1"}, {"size": "128"}, {"size": "256"}]}}}, "dtype": {"type": "DT_FLOAT"}}}, {"name": "StatefulPartitionedCall/model/tf.math.add_45/Add/y", "op": "Const", "attr": {"value": {"tensor": {"dtype": "DT_FLOAT", "tensorShape": {"dim": [{"size": "256"}]}}}, "dtype": {"type": "DT_FLOAT"}}}, {"name": "StatefulPartitionedCall/model/conv2d_28/Conv2D/ReadVariableOp", "op": "Const", "attr": {"dtype": {"type": "DT_FLOAT"}, "value": {"tensor": {"dtype": "DT_FLOAT", "tensorShape": {"dim": [{"size": "1"}, {"size": "1"}, {"size": "256"}, {"size": "128"}]}}}}}, {"name": "StatefulPartitionedCall/model/tf.math.add_46/Add/y", "op": "Const", "attr": {"dtype": {"type": "DT_FLOAT"}, "value": {"tensor": {"dtype": "DT_FLOAT", "tensorShape": {"dim": [{"size": "128"}]}}}}}, {"name": "StatefulPartitionedCall/model/tf.concat_4/concat/axis", "op": "Const", "attr": {"value": {"tensor": {"dtype": "DT_INT32", "tensorShape": {}}}, "dtype": {"type": "DT_INT32"}}}, {"name": "StatefulPartitionedCall/model/conv2d_29/Conv2D/ReadVariableOp", "op": "Const", "attr": {"dtype": {"type": "DT_FLOAT"}, "value": {"tensor": {"dtype": "DT_FLOAT", "tensorShape": {"dim": [{"size": "1"}, {"size": "1"}, {"size": "512"}, {"size": "256"}]}}}}}, {"name": "StatefulPartitionedCall/model/tf.math.add_47/Add/y", "op": "Const", "attr": {"value": {"tensor": {"dtype": "DT_FLOAT", "tensorShape": {"dim": [{"size": "256"}]}}}, "dtype": {"type": "DT_FLOAT"}}}, {"name": "StatefulPartitionedCall/model/conv2d_33/Conv2D/ReadVariableOp", "op": "Const", "attr": {"dtype": {"type": "DT_FLOAT"}, "value": {"tensor": {"dtype": "DT_FLOAT", "tensorShape": {"dim": [{"size": "1"}, {"size": "1"}, {"size": "256"}, {"size": "128"}]}}}}}, {"name": "StatefulPartitionedCall/model/tf.math.add_52/Add/y", "op": "Const", "attr": {"dtype": {"type": "DT_FLOAT"}, "value": {"tensor": {"dtype": "DT_FLOAT", "tensorShape": {"dim": [{"size": "128"}]}}}}}, {"name": "StatefulPartitionedCall/model/tf.concat_5/concat/axis", "op": "Const", "attr": {"value": {"tensor": {"dtype": "DT_INT32", "tensorShape": {}}}, "dtype": {"type": "DT_INT32"}}}, {"name": "StatefulPartitionedCall/model/conv2d_34/Conv2D/ReadVariableOp", "op": "Const", "attr": {"dtype": {"type": "DT_FLOAT"}, "value": {"tensor": {"dtype": "DT_FLOAT", "tensorShape": {"dim": [{"size": "1"}, {"size": "1"}, {"size": "256"}, {"size": "256"}]}}}}}, {"name": "StatefulPartitionedCall/model/tf.math.add_53/Add/y", "op": "Const", "attr": {"value": {"tensor": {"dtype": "DT_FLOAT", "tensorShape": {"dim": [{"size": "256"}]}}}, "dtype": {"type": "DT_FLOAT"}}}, {"name": "StatefulPartitionedCall/model/conv2d_35/Conv2D/ReadVariableOp", "op": "Const", "attr": {"value": {"tensor": {"dtype": "DT_FLOAT", "tensorShape": {"dim": [{"size": "1"}, {"size": "1"}, {"size": "256"}, {"size": "128"}]}}}, "dtype": {"type": "DT_FLOAT"}}}, {"name": "StatefulPartitionedCall/model/tf.math.add_54/Add/y", "op": "Const", "attr": {"dtype": {"type": "DT_FLOAT"}, "value": {"tensor": {"dtype": "DT_FLOAT", "tensorShape": {"dim": [{"size": "128"}]}}}}}, {"name": "StatefulPartitionedCall/model/tf.concat_14/concat/axis", "op": "Const", "attr": {"value": {"tensor": {"dtype": "DT_INT32", "tensorShape": {}}}, "dtype": {"type": "DT_INT32"}}}, {"name": "StatefulPartitionedCall/model/conv2d_73/Conv2D/ReadVariableOp", "op": "Const", "attr": {"value": {"tensor": {"dtype": "DT_FLOAT", "tensorShape": {"dim": [{"size": "1"}, {"size": "1"}, {"size": "256"}, {"size": "128"}]}}}, "dtype": {"type": "DT_FLOAT"}}}, {"name": "StatefulPartitionedCall/model/tf.math.add_106/Add/y", "op": "Const", "attr": {"dtype": {"type": "DT_FLOAT"}, "value": {"tensor": {"dtype": "DT_FLOAT", "tensorShape": {"dim": [{"size": "128"}]}}}}}, {"name": "StatefulPartitionedCall/model/tf.concat_15/concat/axis", "op": "Const", "attr": {"dtype": {"type": "DT_INT32"}, "value": {"tensor": {"dtype": "DT_INT32", "tensorShape": {}}}}}, {"name": "StatefulPartitionedCall/model/conv2d_74/Conv2D/ReadVariableOp", "op": "Const", "attr": {"dtype": {"type": "DT_FLOAT"}, "value": {"tensor": {"dtype": "DT_FLOAT", "tensorShape": {"dim": [{"size": "1"}, {"size": "1"}, {"size": "256"}, {"size": "256"}]}}}}}, {"name": "StatefulPartitionedCall/model/tf.math.add_107/Add/y", "op": "Const", "attr": {"dtype": {"type": "DT_FLOAT"}, "value": {"tensor": {"dtype": "DT_FLOAT", "tensorShape": {"dim": [{"size": "256"}]}}}}}, {"name": "StatefulPartitionedCall/model/conv2d_75/Conv2D/ReadVariableOp", "op": "Const", "attr": {"value": {"tensor": {"dtype": "DT_FLOAT", "tensorShape": {"dim": [{"size": "1"}, {"size": "1"}, {"size": "256"}, {"size": "64"}]}}}, "dtype": {"type": "DT_FLOAT"}}}, {"name": "StatefulPartitionedCall/model/tf.math.add_108/Add/y", "op": "Const", "attr": {"value": {"tensor": {"dtype": "DT_FLOAT", "tensorShape": {"dim": [{"size": "64"}]}}}, "dtype": {"type": "DT_FLOAT"}}}, {"name": "StatefulPartitionedCall/model/zero_padding2d_29/Pad/paddings", "op": "Const", "attr": {"value": {"tensor": {"dtype": "DT_INT32", "tensorShape": {"dim": [{"size": "4"}, {"size": "2"}]}}}, "dtype": {"type": "DT_INT32"}}}, {"name": "StatefulPartitionedCall/model/depthwise_conv2d_28/depthwise/ReadVariableOp", "op": "Const", "attr": {"value": {"tensor": {"dtype": "DT_FLOAT", "tensorShape": {"dim": [{"size": "3"}, {"size": "3"}, {"size": "64"}, {"size": "1"}]}}}, "dtype": {"type": "DT_FLOAT"}}}, {"name": "StatefulPartitionedCall/model/tf.math.add_115/Add/y", "op": "Const", "attr": {"value": {"tensor": {"dtype": "DT_FLOAT", "tensorShape": {"dim": [{"size": "64"}]}}}, "dtype": {"type": "DT_FLOAT"}}}, {"name": "StatefulPartitionedCall/model/conv2d_80/Conv2D/ReadVariableOp", "op": "Const", "attr": {"dtype": {"type": "DT_FLOAT"}, "value": {"tensor": {"dtype": "DT_FLOAT", "tensorShape": {"dim": [{"size": "1"}, {"size": "1"}, {"size": "64"}, {"size": "64"}]}}}}}, {"name": "StatefulPartitionedCall/model/tf.math.add_116/Add/y", "op": "Const", "attr": {"value": {"tensor": {"dtype": "DT_FLOAT", "tensorShape": {"dim": [{"size": "64"}]}}}, "dtype": {"type": "DT_FLOAT"}}}, {"name": "StatefulPartitionedCall/model/zero_padding2d_30/Pad/paddings", "op": "Const", "attr": {"value": {"tensor": {"dtype": "DT_INT32", "tensorShape": {"dim": [{"size": "4"}, {"size": "2"}]}}}, "dtype": {"type": "DT_INT32"}}}, {"name": "StatefulPartitionedCall/model/depthwise_conv2d_29/depthwise/ReadVariableOp", "op": "Const", "attr": {"dtype": {"type": "DT_FLOAT"}, "value": {"tensor": {"dtype": "DT_FLOAT", "tensorShape": {"dim": [{"size": "3"}, {"size": "3"}, {"size": "64"}, {"size": "1"}]}}}}}, {"name": "StatefulPartitionedCall/model/tf.math.add_117/Add/y", "op": "Const", "attr": {"value": {"tensor": {"dtype": "DT_FLOAT", "tensorShape": {"dim": [{"size": "64"}]}}}, "dtype": {"type": "DT_FLOAT"}}}, {"name": "StatefulPartitionedCall/model/conv2d_81/Conv2D/ReadVariableOp", "op": "Const", "attr": {"dtype": {"type": "DT_FLOAT"}, "value": {"tensor": {"dtype": "DT_FLOAT", "tensorShape": {"dim": [{"size": "1"}, {"size": "1"}, {"size": "64"}, {"size": "64"}]}}}}}, {"name": "StatefulPartitionedCall/model/tf.math.add_118/Add/y", "op": "Const", "attr": {"dtype": {"type": "DT_FLOAT"}, "value": {"tensor": {"dtype": "DT_FLOAT", "tensorShape": {"dim": [{"size": "64"}]}}}}}, {"name": "StatefulPartitionedCall/model/conv2d_82/Conv2D/ReadVariableOp", "op": "Const", "attr": {"dtype": {"type": "DT_FLOAT"}, "value": {"tensor": {"dtype": "DT_FLOAT", "tensorShape": {"dim": [{"size": "1"}, {"size": "1"}, {"size": "64"}, {"size": "80"}]}}}}}, {"name": "StatefulPartitionedCall/model/tf.math.add_119/Add/y", "op": "Const", "attr": {"dtype": {"type": "DT_FLOAT"}, "value": {"tensor": {"dtype": "DT_FLOAT", "tensorShape": {"dim": [{"size": "80"}]}}}}}, {"name": "StatefulPartitionedCall/model/tf.concat_16/concat/axis", "op": "Const", "attr": {"dtype": {"type": "DT_INT32"}, "value": {"tensor": {"dtype": "DT_INT32", "tensorShape": {}}}}}, {"name": "StatefulPartitionedCall/model/tf.reshape_2/Reshape/shape", "op": "Const", "attr": {"value": {"tensor": {"dtype": "DT_INT32", "tensorShape": {"dim": [{"size": "3"}]}}}, "dtype": {"type": "DT_INT32"}}}, {"name": "StatefulPartitionedCall/model/tf.concat_17/concat/axis", "op": "Const", "attr": {"value": {"tensor": {"dtype": "DT_INT32", "tensorShape": {}}}, "dtype": {"type": "DT_INT32"}}}, {"name": "images", "op": "Placeholder", "attr": {"dtype": {"type": "DT_FLOAT"}, "shape": {"shape": {"dim": [{"size": "1"}, {"size": "480"}, {"size": "640"}, {"size": "3"}]}}}}, {"name": "StatefulPartitionedCall/model/tf.strided_slice/StridedSlice", "op": "StridedSlice", "input": ["images", "StatefulPartitionedCall/model/tf.strided_slice/StridedSlice/begin", "StatefulPartitionedCall/model/tf.strided_slice/StridedSlice/end", "StatefulPartitionedCall/model/tf.strided_slice/StridedSlice/strides"], "attr": {"ellipsis_mask": {"i": "0"}, "T": {"type": "DT_FLOAT"}, "Index": {"type": "DT_INT64"}, "shrink_axis_mask": {"i": "0"}, "new_axis_mask": {"i": "0"}, "begin_mask": {"i": "1"}, "end_mask": {"i": "1"}}}, {"name": "StatefulPartitionedCall/model/tf.strided_slice_2/StridedSlice", "op": "StridedSlice", "input": ["images", "StatefulPartitionedCall/model/tf.strided_slice_2/StridedSlice/begin", "StatefulPartitionedCall/model/tf.strided_slice_2/StridedSlice/end", "StatefulPartitionedCall/model/tf.strided_slice_2/StridedSlice/strides"], "attr": {"Index": {"type": "DT_INT64"}, "T": {"type": "DT_FLOAT"}, "ellipsis_mask": {"i": "0"}, "begin_mask": {"i": "1"}, "end_mask": {"i": "1"}, "shrink_axis_mask": {"i": "0"}, "new_axis_mask": {"i": "0"}}}, {"name": "StatefulPartitionedCall/model/tf.strided_slice_4/StridedSlice", "op": "StridedSlice", "input": ["images", "StatefulPartitionedCall/model/tf.strided_slice_4/StridedSlice/begin", "StatefulPartitionedCall/model/tf.strided_slice_4/StridedSlice/end", "StatefulPartitionedCall/model/tf.strided_slice_4/StridedSlice/strides"], "attr": {"T": {"type": "DT_FLOAT"}, "new_axis_mask": {"i": "0"}, "shrink_axis_mask": {"i": "0"}, "begin_mask": {"i": "1"}, "end_mask": {"i": "1"}, "Index": {"type": "DT_INT64"}, "ellipsis_mask": {"i": "0"}}}, {"name": "StatefulPartitionedCall/model/tf.strided_slice_6/StridedSlice", "op": "StridedSlice", "input": ["images", "StatefulPartitionedCall/model/tf.strided_slice_6/StridedSlice/begin", "StatefulPartitionedCall/model/tf.strided_slice_6/StridedSlice/end", "StatefulPartitionedCall/model/tf.strided_slice_6/StridedSlice/strides"], "attr": {"shrink_axis_mask": {"i": "0"}, "end_mask": {"i": "1"}, "new_axis_mask": {"i": "0"}, "begin_mask": {"i": "1"}, "ellipsis_mask": {"i": "0"}, "T": {"type": "DT_FLOAT"}, "Index": {"type": "DT_INT64"}}}, {"name": "StatefulPartitionedCall/model/tf.strided_slice_1/StridedSlice", "op": "StridedSlice", "input": ["StatefulPartitionedCall/model/tf.strided_slice/StridedSlice", "StatefulPartitionedCall/model/tf.strided_slice_1/StridedSlice/begin", "StatefulPartitionedCall/model/tf.strided_slice_1/StridedSlice/end", "StatefulPartitionedCall/model/tf.strided_slice_1/StridedSlice/strides"], "attr": {"new_axis_mask": {"i": "0"}, "begin_mask": {"i": "2"}, "ellipsis_mask": {"i": "0"}, "Index": {"type": "DT_INT64"}, "T": {"type": "DT_FLOAT"}, "shrink_axis_mask": {"i": "0"}, "end_mask": {"i": "2"}}}, {"name": "StatefulPartitionedCall/model/tf.strided_slice_3/StridedSlice", "op": "StridedSlice", "input": ["StatefulPartitionedCall/model/tf.strided_slice_2/StridedSlice", "StatefulPartitionedCall/model/tf.strided_slice_3/StridedSlice/begin", "StatefulPartitionedCall/model/tf.strided_slice_3/StridedSlice/end", "StatefulPartitionedCall/model/tf.strided_slice_3/StridedSlice/strides"], "attr": {"Index": {"type": "DT_INT64"}, "ellipsis_mask": {"i": "0"}, "new_axis_mask": {"i": "0"}, "T": {"type": "DT_FLOAT"}, "begin_mask": {"i": "2"}, "shrink_axis_mask": {"i": "0"}, "end_mask": {"i": "2"}}}, {"name": "StatefulPartitionedCall/model/tf.strided_slice_5/StridedSlice", "op": "StridedSlice", "input": ["StatefulPartitionedCall/model/tf.strided_slice_4/StridedSlice", "StatefulPartitionedCall/model/tf.strided_slice_5/StridedSlice/begin", "StatefulPartitionedCall/model/tf.strided_slice_5/StridedSlice/end", "StatefulPartitionedCall/model/tf.strided_slice_5/StridedSlice/strides"], "attr": {"Index": {"type": "DT_INT64"}, "shrink_axis_mask": {"i": "0"}, "end_mask": {"i": "2"}, "new_axis_mask": {"i": "0"}, "T": {"type": "DT_FLOAT"}, "ellipsis_mask": {"i": "0"}, "begin_mask": {"i": "2"}}}, {"name": "StatefulPartitionedCall/model/tf.strided_slice_7/StridedSlice", "op": "StridedSlice", "input": ["StatefulPartitionedCall/model/tf.strided_slice_6/StridedSlice", "StatefulPartitionedCall/model/tf.strided_slice_7/StridedSlice/begin", "StatefulPartitionedCall/model/tf.strided_slice_7/StridedSlice/end", "StatefulPartitionedCall/model/tf.strided_slice_7/StridedSlice/strides"], "attr": {"new_axis_mask": {"i": "0"}, "Index": {"type": "DT_INT64"}, "T": {"type": "DT_FLOAT"}, "end_mask": {"i": "2"}, "ellipsis_mask": {"i": "0"}, "shrink_axis_mask": {"i": "0"}, "begin_mask": {"i": "2"}}}, {"name": "StatefulPartitionedCall/model/tf.concat/concat", "op": "ConcatV2", "input": ["StatefulPartitionedCall/model/tf.strided_slice_1/StridedSlice", "StatefulPartitionedCall/model/tf.strided_slice_3/StridedSlice", "StatefulPartitionedCall/model/tf.strided_slice_5/StridedSlice", "StatefulPartitionedCall/model/tf.strided_slice_7/StridedSlice", "StatefulPartitionedCall/model/tf.concat/concat/axis"], "attr": {"T": {"type": "DT_FLOAT"}, "Tidx": {"type": "DT_INT32"}, "N": {"i": "4"}}}, {"name": "StatefulPartitionedCall/model/zero_padding2d/Pad", "op": "Pad", "input": ["StatefulPartitionedCall/model/tf.concat/concat", "StatefulPartitionedCall/model/zero_padding2d/Pad/paddings"], "attr": {"T": {"type": "DT_FLOAT"}, "Tpaddings": {"type": "DT_INT32"}}}, {"name": "StatefulPartitionedCall/model/conv2d/Conv2D", "op": "Conv2D", "input": ["StatefulPartitionedCall/model/zero_padding2d/Pad", "StatefulPartitionedCall/model/conv2d/Conv2D/ReadVariableOp"], "device": "/device:CPU:0", "attr": {"dilations": {"list": {"i": ["1", "1", "1", "1"]}}, "use_cudnn_on_gpu": {"b": true}, "T": {"type": "DT_FLOAT"}, "padding": {"s": "VkFMSUQ="}, "explicit_paddings": {"list": {}}, "data_format": {"s": "TkhXQw=="}, "strides": {"list": {"i": ["1", "1", "1", "1"]}}}}, {"name": "StatefulPartitionedCall/model/tf.math.add/Add", "op": "AddV2", "input": ["StatefulPartitionedCall/model/conv2d/Conv2D", "StatefulPartitionedCall/model/tf.math.add/Add/y"], "attr": {"T": {"type": "DT_FLOAT"}}}, {"name": "StatefulPartitionedCall/model/tf.nn.silu/Sigmoid", "op": "Sigmoid", "input": ["StatefulPartitionedCall/model/tf.math.add/Add"], "attr": {"T": {"type": "DT_FLOAT"}}}, {"name": "StatefulPartitionedCall/model/tf.nn.silu/mul", "op": "Mul", "input": ["StatefulPartitionedCall/model/tf.math.add/Add", "StatefulPartitionedCall/model/tf.nn.silu/Sigmoid"], "attr": {"T": {"type": "DT_FLOAT"}}}, {"name": "StatefulPartitionedCall/model/zero_padding2d_1/Pad", "op": "Pad", "input": ["StatefulPartitionedCall/model/tf.nn.silu/mul", "StatefulPartitionedCall/model/zero_padding2d_1/Pad/paddings"], "attr": {"Tpaddings": {"type": "DT_INT32"}, "T": {"type": "DT_FLOAT"}}}, {"name": "StatefulPartitionedCall/model/depthwise_conv2d/depthwise", "op": "DepthwiseConv2dNative", "input": ["StatefulPartitionedCall/model/zero_padding2d_1/Pad", "StatefulPartitionedCall/model/depthwise_conv2d/depthwise/ReadVariableOp"], "attr": {"strides": {"list": {"i": ["1", "2", "2", "1"]}}, "explicit_paddings": {"list": {}}, "T": {"type": "DT_FLOAT"}, "padding": {"s": "VkFMSUQ="}, "data_format": {"s": "TkhXQw=="}, "dilations": {"list": {"i": ["1", "1", "1", "1"]}}}}, {"name": "StatefulPartitionedCall/model/tf.math.add_1/Add", "op": "AddV2", "input": ["StatefulPartitionedCall/model/depthwise_conv2d/depthwise", "StatefulPartitionedCall/model/tf.math.add_1/Add/y"], "attr": {"T": {"type": "DT_FLOAT"}}}, {"name": "StatefulPartitionedCall/model/tf.nn.silu_1/Sigmoid", "op": "Sigmoid", "input": ["StatefulPartitionedCall/model/tf.math.add_1/Add"], "attr": {"T": {"type": "DT_FLOAT"}}}, {"name": "StatefulPartitionedCall/model/tf.nn.silu_1/mul", "op": "Mul", "input": ["StatefulPartitionedCall/model/tf.math.add_1/Add", "StatefulPartitionedCall/model/tf.nn.silu_1/Sigmoid"], "attr": {"T": {"type": "DT_FLOAT"}}}, {"name": "StatefulPartitionedCall/model/conv2d_1/Conv2D", "op": "Conv2D", "input": ["StatefulPartitionedCall/model/tf.nn.silu_1/mul", "StatefulPartitionedCall/model/conv2d_1/Conv2D/ReadVariableOp"], "device": "/device:CPU:0", "attr": {"strides": {"list": {"i": ["1", "1", "1", "1"]}}, "dilations": {"list": {"i": ["1", "1", "1", "1"]}}, "padding": {"s": "VkFMSUQ="}, "data_format": {"s": "TkhXQw=="}, "use_cudnn_on_gpu": {"b": true}, "T": {"type": "DT_FLOAT"}, "explicit_paddings": {"list": {}}}}, {"name": "StatefulPartitionedCall/model/tf.math.add_2/Add", "op": "AddV2", "input": ["StatefulPartitionedCall/model/conv2d_1/Conv2D", "StatefulPartitionedCall/model/tf.math.add_2/Add/y"], "attr": {"T": {"type": "DT_FLOAT"}}}, {"name": "StatefulPartitionedCall/model/tf.nn.silu_2/Sigmoid", "op": "Sigmoid", "input": ["StatefulPartitionedCall/model/tf.math.add_2/Add"], "attr": {"T": {"type": "DT_FLOAT"}}}, {"name": "StatefulPartitionedCall/model/tf.nn.silu_2/mul", "op": "Mul", "input": ["StatefulPartitionedCall/model/tf.math.add_2/Add", "StatefulPartitionedCall/model/tf.nn.silu_2/Sigmoid"], "attr": {"T": {"type": "DT_FLOAT"}}}, {"name": "StatefulPartitionedCall/model/conv2d_2/Conv2D", "op": "Conv2D", "input": ["StatefulPartitionedCall/model/tf.nn.silu_2/mul", "StatefulPartitionedCall/model/conv2d_2/Conv2D/ReadVariableOp"], "device": "/device:CPU:0", "attr": {"use_cudnn_on_gpu": {"b": true}, "data_format": {"s": "TkhXQw=="}, "explicit_paddings": {"list": {}}, "T": {"type": "DT_FLOAT"}, "strides": {"list": {"i": ["1", "1", "1", "1"]}}, "padding": {"s": "VkFMSUQ="}, "dilations": {"list": {"i": ["1", "1", "1", "1"]}}}}, {"name": "StatefulPartitionedCall/model/conv2d_5/Conv2D", "op": "Conv2D", "input": ["StatefulPartitionedCall/model/tf.nn.silu_2/mul", "StatefulPartitionedCall/model/conv2d_5/Conv2D/ReadVariableOp"], "device": "/device:CPU:0", "attr": {"use_cudnn_on_gpu": {"b": true}, "dilations": {"list": {"i": ["1", "1", "1", "1"]}}, "explicit_paddings": {"list": {}}, "T": {"type": "DT_FLOAT"}, "padding": {"s": "VkFMSUQ="}, "strides": {"list": {"i": ["1", "1", "1", "1"]}}, "data_format": {"s": "TkhXQw=="}}}, {"name": "StatefulPartitionedCall/model/tf.math.add_3/Add", "op": "AddV2", "input": ["StatefulPartitionedCall/model/conv2d_2/Conv2D", "StatefulPartitionedCall/model/tf.math.add_3/Add/y"], "attr": {"T": {"type": "DT_FLOAT"}}}, {"name": "StatefulPartitionedCall/model/tf.math.add_8/Add", "op": "AddV2", "input": ["StatefulPartitionedCall/model/conv2d_5/Conv2D", "StatefulPartitionedCall/model/tf.math.add_8/Add/y"], "attr": {"T": {"type": "DT_FLOAT"}}}, {"name": "StatefulPartitionedCall/model/tf.nn.silu_3/Sigmoid", "op": "Sigmoid", "input": ["StatefulPartitionedCall/model/tf.math.add_3/Add"], "attr": {"T": {"type": "DT_FLOAT"}}}, {"name": "StatefulPartitionedCall/model/tf.nn.silu_7/Sigmoid", "op": "Sigmoid", "input": ["StatefulPartitionedCall/model/tf.math.add_8/Add"], "attr": {"T": {"type": "DT_FLOAT"}}}, {"name": "StatefulPartitionedCall/model/tf.nn.silu_3/mul", "op": "Mul", "input": ["StatefulPartitionedCall/model/tf.math.add_3/Add", "StatefulPartitionedCall/model/tf.nn.silu_3/Sigmoid"], "attr": {"T": {"type": "DT_FLOAT"}}}, {"name": "StatefulPartitionedCall/model/tf.nn.silu_7/mul", "op": "Mul", "input": ["StatefulPartitionedCall/model/tf.math.add_8/Add", "StatefulPartitionedCall/model/tf.nn.silu_7/Sigmoid"], "attr": {"T": {"type": "DT_FLOAT"}}}, {"name": "StatefulPartitionedCall/model/conv2d_3/Conv2D", "op": "Conv2D", "input": ["StatefulPartitionedCall/model/tf.nn.silu_3/mul", "StatefulPartitionedCall/model/conv2d_3/Conv2D/ReadVariableOp"], "device": "/device:CPU:0", "attr": {"data_format": {"s": "TkhXQw=="}, "dilations": {"list": {"i": ["1", "1", "1", "1"]}}, "strides": {"list": {"i": ["1", "1", "1", "1"]}}, "padding": {"s": "VkFMSUQ="}, "use_cudnn_on_gpu": {"b": true}, "explicit_paddings": {"list": {}}, "T": {"type": "DT_FLOAT"}}}, {"name": "StatefulPartitionedCall/model/tf.math.add_4/Add", "op": "AddV2", "input": ["StatefulPartitionedCall/model/conv2d_3/Conv2D", "StatefulPartitionedCall/model/tf.math.add_4/Add/y"], "attr": {"T": {"type": "DT_FLOAT"}}}, {"name": "StatefulPartitionedCall/model/tf.nn.silu_4/Sigmoid", "op": "Sigmoid", "input": ["StatefulPartitionedCall/model/tf.math.add_4/Add"], "attr": {"T": {"type": "DT_FLOAT"}}}, {"name": "StatefulPartitionedCall/model/tf.nn.silu_4/mul", "op": "Mul", "input": ["StatefulPartitionedCall/model/tf.math.add_4/Add", "StatefulPartitionedCall/model/tf.nn.silu_4/Sigmoid"], "attr": {"T": {"type": "DT_FLOAT"}}}, {"name": "StatefulPartitionedCall/model/zero_padding2d_2/Pad", "op": "Pad", "input": ["StatefulPartitionedCall/model/tf.nn.silu_4/mul", "StatefulPartitionedCall/model/zero_padding2d_2/Pad/paddings"], "attr": {"Tpaddings": {"type": "DT_INT32"}, "T": {"type": "DT_FLOAT"}}}, {"name": "StatefulPartitionedCall/model/depthwise_conv2d_1/depthwise", "op": "DepthwiseConv2dNative", "input": ["StatefulPartitionedCall/model/zero_padding2d_2/Pad", "StatefulPartitionedCall/model/depthwise_conv2d_1/depthwise/ReadVariableOp"], "attr": {"explicit_paddings": {"list": {}}, "padding": {"s": "VkFMSUQ="}, "strides": {"list": {"i": ["1", "1", "1", "1"]}}, "data_format": {"s": "TkhXQw=="}, "dilations": {"list": {"i": ["1", "1", "1", "1"]}}, "T": {"type": "DT_FLOAT"}}}, {"name": "StatefulPartitionedCall/model/tf.math.add_5/Add", "op": "AddV2", "input": ["StatefulPartitionedCall/model/depthwise_conv2d_1/depthwise", "StatefulPartitionedCall/model/tf.math.add_5/Add/y"], "attr": {"T": {"type": "DT_FLOAT"}}}, {"name": "StatefulPartitionedCall/model/tf.nn.silu_5/Sigmoid", "op": "Sigmoid", "input": ["StatefulPartitionedCall/model/tf.math.add_5/Add"], "attr": {"T": {"type": "DT_FLOAT"}}}, {"name": "StatefulPartitionedCall/model/tf.nn.silu_5/mul", "op": "Mul", "input": ["StatefulPartitionedCall/model/tf.math.add_5/Add", "StatefulPartitionedCall/model/tf.nn.silu_5/Sigmoid"], "attr": {"T": {"type": "DT_FLOAT"}}}, {"name": "StatefulPartitionedCall/model/conv2d_4/Conv2D", "op": "Conv2D", "input": ["StatefulPartitionedCall/model/tf.nn.silu_5/mul", "StatefulPartitionedCall/model/conv2d_4/Conv2D/ReadVariableOp"], "device": "/device:CPU:0", "attr": {"strides": {"list": {"i": ["1", "1", "1", "1"]}}, "T": {"type": "DT_FLOAT"}, "dilations": {"list": {"i": ["1", "1", "1", "1"]}}, "padding": {"s": "VkFMSUQ="}, "data_format": {"s": "TkhXQw=="}, "explicit_paddings": {"list": {}}, "use_cudnn_on_gpu": {"b": true}}}, {"name": "StatefulPartitionedCall/model/tf.math.add_6/Add", "op": "AddV2", "input": ["StatefulPartitionedCall/model/conv2d_4/Conv2D", "StatefulPartitionedCall/model/tf.math.add_6/Add/y"], "attr": {"T": {"type": "DT_FLOAT"}}}, {"name": "StatefulPartitionedCall/model/tf.nn.silu_6/Sigmoid", "op": "Sigmoid", "input": ["StatefulPartitionedCall/model/tf.math.add_6/Add"], "attr": {"T": {"type": "DT_FLOAT"}}}, {"name": "StatefulPartitionedCall/model/tf.nn.silu_6/mul", "op": "Mul", "input": ["StatefulPartitionedCall/model/tf.math.add_6/Add", "StatefulPartitionedCall/model/tf.nn.silu_6/Sigmoid"], "attr": {"T": {"type": "DT_FLOAT"}}}, {"name": "StatefulPartitionedCall/model/tf.math.add_7/Add", "op": "AddV2", "input": ["StatefulPartitionedCall/model/tf.nn.silu_3/mul", "StatefulPartitionedCall/model/tf.nn.silu_6/mul"], "attr": {"T": {"type": "DT_FLOAT"}}}, {"name": "StatefulPartitionedCall/model/tf.concat_1/concat", "op": "ConcatV2", "input": ["StatefulPartitionedCall/model/tf.math.add_7/Add", "StatefulPartitionedCall/model/tf.nn.silu_7/mul", "StatefulPartitionedCall/model/tf.concat_1/concat/axis"], "attr": {"T": {"type": "DT_FLOAT"}, "Tidx": {"type": "DT_INT32"}, "N": {"i": "2"}}}, {"name": "StatefulPartitionedCall/model/conv2d_6/Conv2D", "op": "Conv2D", "input": ["StatefulPartitionedCall/model/tf.concat_1/concat", "StatefulPartitionedCall/model/conv2d_6/Conv2D/ReadVariableOp"], "device": "/device:CPU:0", "attr": {"T": {"type": "DT_FLOAT"}, "padding": {"s": "VkFMSUQ="}, "data_format": {"s": "TkhXQw=="}, "explicit_paddings": {"list": {}}, "use_cudnn_on_gpu": {"b": true}, "strides": {"list": {"i": ["1", "1", "1", "1"]}}, "dilations": {"list": {"i": ["1", "1", "1", "1"]}}}}, {"name": "StatefulPartitionedCall/model/tf.math.add_9/Add", "op": "AddV2", "input": ["StatefulPartitionedCall/model/conv2d_6/Conv2D", "StatefulPartitionedCall/model/tf.math.add_9/Add/y"], "attr": {"T": {"type": "DT_FLOAT"}}}, {"name": "StatefulPartitionedCall/model/tf.nn.silu_8/Sigmoid", "op": "Sigmoid", "input": ["StatefulPartitionedCall/model/tf.math.add_9/Add"], "attr": {"T": {"type": "DT_FLOAT"}}}, {"name": "StatefulPartitionedCall/model/tf.nn.silu_8/mul", "op": "Mul", "input": ["StatefulPartitionedCall/model/tf.math.add_9/Add", "StatefulPartitionedCall/model/tf.nn.silu_8/Sigmoid"], "attr": {"T": {"type": "DT_FLOAT"}}}, {"name": "StatefulPartitionedCall/model/zero_padding2d_3/Pad", "op": "Pad", "input": ["StatefulPartitionedCall/model/tf.nn.silu_8/mul", "StatefulPartitionedCall/model/zero_padding2d_3/Pad/paddings"], "attr": {"T": {"type": "DT_FLOAT"}, "Tpaddings": {"type": "DT_INT32"}}}, {"name": "StatefulPartitionedCall/model/depthwise_conv2d_2/depthwise", "op": "DepthwiseConv2dNative", "input": ["StatefulPartitionedCall/model/zero_padding2d_3/Pad", "StatefulPartitionedCall/model/depthwise_conv2d_2/depthwise/ReadVariableOp"], "attr": {"strides": {"list": {"i": ["1", "2", "2", "1"]}}, "T": {"type": "DT_FLOAT"}, "data_format": {"s": "TkhXQw=="}, "padding": {"s": "VkFMSUQ="}, "explicit_paddings": {"list": {}}, "dilations": {"list": {"i": ["1", "1", "1", "1"]}}}}, {"name": "StatefulPartitionedCall/model/tf.math.add_10/Add", "op": "AddV2", "input": ["StatefulPartitionedCall/model/depthwise_conv2d_2/depthwise", "StatefulPartitionedCall/model/tf.math.add_10/Add/y"], "attr": {"T": {"type": "DT_FLOAT"}}}, {"name": "StatefulPartitionedCall/model/tf.nn.silu_9/Sigmoid", "op": "Sigmoid", "input": ["StatefulPartitionedCall/model/tf.math.add_10/Add"], "attr": {"T": {"type": "DT_FLOAT"}}}, {"name": "StatefulPartitionedCall/model/tf.nn.silu_9/mul", "op": "Mul", "input": ["StatefulPartitionedCall/model/tf.math.add_10/Add", "StatefulPartitionedCall/model/tf.nn.silu_9/Sigmoid"], "attr": {"T": {"type": "DT_FLOAT"}}}, {"name": "StatefulPartitionedCall/model/conv2d_7/Conv2D", "op": "Conv2D", "input": ["StatefulPartitionedCall/model/tf.nn.silu_9/mul", "StatefulPartitionedCall/model/conv2d_7/Conv2D/ReadVariableOp"], "device": "/device:CPU:0", "attr": {"use_cudnn_on_gpu": {"b": true}, "T": {"type": "DT_FLOAT"}, "padding": {"s": "VkFMSUQ="}, "data_format": {"s": "TkhXQw=="}, "dilations": {"list": {"i": ["1", "1", "1", "1"]}}, "strides": {"list": {"i": ["1", "1", "1", "1"]}}, "explicit_paddings": {"list": {}}}}, {"name": "StatefulPartitionedCall/model/tf.math.add_11/Add", "op": "AddV2", "input": ["StatefulPartitionedCall/model/conv2d_7/Conv2D", "StatefulPartitionedCall/model/tf.math.add_11/Add/y"], "attr": {"T": {"type": "DT_FLOAT"}}}, {"name": "StatefulPartitionedCall/model/tf.nn.silu_10/Sigmoid", "op": "Sigmoid", "input": ["StatefulPartitionedCall/model/tf.math.add_11/Add"], "attr": {"T": {"type": "DT_FLOAT"}}}, {"name": "StatefulPartitionedCall/model/tf.nn.silu_10/mul", "op": "Mul", "input": ["StatefulPartitionedCall/model/tf.math.add_11/Add", "StatefulPartitionedCall/model/tf.nn.silu_10/Sigmoid"], "attr": {"T": {"type": "DT_FLOAT"}}}, {"name": "StatefulPartitionedCall/model/conv2d_8/Conv2D", "op": "Conv2D", "input": ["StatefulPartitionedCall/model/tf.nn.silu_10/mul", "StatefulPartitionedCall/model/conv2d_8/Conv2D/ReadVariableOp"], "device": "/device:CPU:0", "attr": {"T": {"type": "DT_FLOAT"}, "explicit_paddings": {"list": {}}, "use_cudnn_on_gpu": {"b": true}, "padding": {"s": "VkFMSUQ="}, "dilations": {"list": {"i": ["1", "1", "1", "1"]}}, "data_format": {"s": "TkhXQw=="}, "strides": {"list": {"i": ["1", "1", "1", "1"]}}}}, {"name": "StatefulPartitionedCall/model/conv2d_15/Conv2D", "op": "Conv2D", "input": ["StatefulPartitionedCall/model/tf.nn.silu_10/mul", "StatefulPartitionedCall/model/conv2d_15/Conv2D/ReadVariableOp"], "device": "/device:CPU:0", "attr": {"strides": {"list": {"i": ["1", "1", "1", "1"]}}, "dilations": {"list": {"i": ["1", "1", "1", "1"]}}, "T": {"type": "DT_FLOAT"}, "explicit_paddings": {"list": {}}, "padding": {"s": "VkFMSUQ="}, "data_format": {"s": "TkhXQw=="}, "use_cudnn_on_gpu": {"b": true}}}, {"name": "StatefulPartitionedCall/model/tf.math.add_12/Add", "op": "AddV2", "input": ["StatefulPartitionedCall/model/conv2d_8/Conv2D", "StatefulPartitionedCall/model/tf.math.add_12/Add/y"], "attr": {"T": {"type": "DT_FLOAT"}}}, {"name": "StatefulPartitionedCall/model/tf.math.add_25/Add", "op": "AddV2", "input": ["StatefulPartitionedCall/model/conv2d_15/Conv2D", "StatefulPartitionedCall/model/tf.math.add_25/Add/y"], "attr": {"T": {"type": "DT_FLOAT"}}}, {"name": "StatefulPartitionedCall/model/tf.nn.silu_11/Sigmoid", "op": "Sigmoid", "input": ["StatefulPartitionedCall/model/tf.math.add_12/Add"], "attr": {"T": {"type": "DT_FLOAT"}}}, {"name": "StatefulPartitionedCall/model/tf.nn.silu_21/Sigmoid", "op": "Sigmoid", "input": ["StatefulPartitionedCall/model/tf.math.add_25/Add"], "attr": {"T": {"type": "DT_FLOAT"}}}, {"name": "StatefulPartitionedCall/model/tf.nn.silu_11/mul", "op": "Mul", "input": ["StatefulPartitionedCall/model/tf.math.add_12/Add", "StatefulPartitionedCall/model/tf.nn.silu_11/Sigmoid"], "attr": {"T": {"type": "DT_FLOAT"}}}, {"name": "StatefulPartitionedCall/model/tf.nn.silu_21/mul", "op": "Mul", "input": ["StatefulPartitionedCall/model/tf.math.add_25/Add", "StatefulPartitionedCall/model/tf.nn.silu_21/Sigmoid"], "attr": {"T": {"type": "DT_FLOAT"}}}, {"name": "StatefulPartitionedCall/model/conv2d_9/Conv2D", "op": "Conv2D", "input": ["StatefulPartitionedCall/model/tf.nn.silu_11/mul", "StatefulPartitionedCall/model/conv2d_9/Conv2D/ReadVariableOp"], "device": "/device:CPU:0", "attr": {"strides": {"list": {"i": ["1", "1", "1", "1"]}}, "padding": {"s": "VkFMSUQ="}, "dilations": {"list": {"i": ["1", "1", "1", "1"]}}, "explicit_paddings": {"list": {}}, "T": {"type": "DT_FLOAT"}, "data_format": {"s": "TkhXQw=="}, "use_cudnn_on_gpu": {"b": true}}}, {"name": "StatefulPartitionedCall/model/tf.math.add_13/Add", "op": "AddV2", "input": ["StatefulPartitionedCall/model/conv2d_9/Conv2D", "StatefulPartitionedCall/model/tf.math.add_13/Add/y"], "attr": {"T": {"type": "DT_FLOAT"}}}, {"name": "StatefulPartitionedCall/model/tf.nn.silu_12/Sigmoid", "op": "Sigmoid", "input": ["StatefulPartitionedCall/model/tf.math.add_13/Add"], "attr": {"T": {"type": "DT_FLOAT"}}}, {"name": "StatefulPartitionedCall/model/tf.nn.silu_12/mul", "op": "Mul", "input": ["StatefulPartitionedCall/model/tf.math.add_13/Add", "StatefulPartitionedCall/model/tf.nn.silu_12/Sigmoid"], "attr": {"T": {"type": "DT_FLOAT"}}}, {"name": "StatefulPartitionedCall/model/zero_padding2d_4/Pad", "op": "Pad", "input": ["StatefulPartitionedCall/model/tf.nn.silu_12/mul", "StatefulPartitionedCall/model/zero_padding2d_4/Pad/paddings"], "attr": {"T": {"type": "DT_FLOAT"}, "Tpaddings": {"type": "DT_INT32"}}}, {"name": "StatefulPartitionedCall/model/depthwise_conv2d_3/depthwise", "op": "DepthwiseConv2dNative", "input": ["StatefulPartitionedCall/model/zero_padding2d_4/Pad", "StatefulPartitionedCall/model/depthwise_conv2d_3/depthwise/ReadVariableOp"], "attr": {"dilations": {"list": {"i": ["1", "1", "1", "1"]}}, "data_format": {"s": "TkhXQw=="}, "T": {"type": "DT_FLOAT"}, "explicit_paddings": {"list": {}}, "padding": {"s": "VkFMSUQ="}, "strides": {"list": {"i": ["1", "1", "1", "1"]}}}}, {"name": "StatefulPartitionedCall/model/tf.math.add_14/Add", "op": "AddV2", "input": ["StatefulPartitionedCall/model/depthwise_conv2d_3/depthwise", "StatefulPartitionedCall/model/tf.math.add_14/Add/y"], "attr": {"T": {"type": "DT_FLOAT"}}}, {"name": "StatefulPartitionedCall/model/tf.nn.silu_13/Sigmoid", "op": "Sigmoid", "input": ["StatefulPartitionedCall/model/tf.math.add_14/Add"], "attr": {"T": {"type": "DT_FLOAT"}}}, {"name": "StatefulPartitionedCall/model/tf.nn.silu_13/mul", "op": "Mul", "input": ["StatefulPartitionedCall/model/tf.math.add_14/Add", "StatefulPartitionedCall/model/tf.nn.silu_13/Sigmoid"], "attr": {"T": {"type": "DT_FLOAT"}}}, {"name": "StatefulPartitionedCall/model/conv2d_10/Conv2D", "op": "Conv2D", "input": ["StatefulPartitionedCall/model/tf.nn.silu_13/mul", "StatefulPartitionedCall/model/conv2d_10/Conv2D/ReadVariableOp"], "device": "/device:CPU:0", "attr": {"use_cudnn_on_gpu": {"b": true}, "dilations": {"list": {"i": ["1", "1", "1", "1"]}}, "strides": {"list": {"i": ["1", "1", "1", "1"]}}, "data_format": {"s": "TkhXQw=="}, "explicit_paddings": {"list": {}}, "T": {"type": "DT_FLOAT"}, "padding": {"s": "VkFMSUQ="}}}, {"name": "StatefulPartitionedCall/model/tf.math.add_15/Add", "op": "AddV2", "input": ["StatefulPartitionedCall/model/conv2d_10/Conv2D", "StatefulPartitionedCall/model/tf.math.add_15/Add/y"], "attr": {"T": {"type": "DT_FLOAT"}}}, {"name": "StatefulPartitionedCall/model/tf.nn.silu_14/Sigmoid", "op": "Sigmoid", "input": ["StatefulPartitionedCall/model/tf.math.add_15/Add"], "attr": {"T": {"type": "DT_FLOAT"}}}, {"name": "StatefulPartitionedCall/model/tf.nn.silu_14/mul", "op": "Mul", "input": ["StatefulPartitionedCall/model/tf.math.add_15/Add", "StatefulPartitionedCall/model/tf.nn.silu_14/Sigmoid"], "attr": {"T": {"type": "DT_FLOAT"}}}, {"name": "StatefulPartitionedCall/model/tf.math.add_16/Add", "op": "AddV2", "input": ["StatefulPartitionedCall/model/tf.nn.silu_11/mul", "StatefulPartitionedCall/model/tf.nn.silu_14/mul"], "attr": {"T": {"type": "DT_FLOAT"}}}, {"name": "StatefulPartitionedCall/model/conv2d_11/Conv2D", "op": "Conv2D", "input": ["StatefulPartitionedCall/model/tf.math.add_16/Add", "StatefulPartitionedCall/model/conv2d_11/Conv2D/ReadVariableOp"], "device": "/device:CPU:0", "attr": {"strides": {"list": {"i": ["1", "1", "1", "1"]}}, "padding": {"s": "VkFMSUQ="}, "use_cudnn_on_gpu": {"b": true}, "dilations": {"list": {"i": ["1", "1", "1", "1"]}}, "data_format": {"s": "TkhXQw=="}, "explicit_paddings": {"list": {}}, "T": {"type": "DT_FLOAT"}}}, {"name": "StatefulPartitionedCall/model/tf.math.add_17/Add", "op": "AddV2", "input": ["StatefulPartitionedCall/model/conv2d_11/Conv2D", "StatefulPartitionedCall/model/tf.math.add_17/Add/y"], "attr": {"T": {"type": "DT_FLOAT"}}}, {"name": "StatefulPartitionedCall/model/tf.nn.silu_15/Sigmoid", "op": "Sigmoid", "input": ["StatefulPartitionedCall/model/tf.math.add_17/Add"], "attr": {"T": {"type": "DT_FLOAT"}}}, {"name": "StatefulPartitionedCall/model/tf.nn.silu_15/mul", "op": "Mul", "input": ["StatefulPartitionedCall/model/tf.math.add_17/Add", "StatefulPartitionedCall/model/tf.nn.silu_15/Sigmoid"], "attr": {"T": {"type": "DT_FLOAT"}}}, {"name": "StatefulPartitionedCall/model/zero_padding2d_5/Pad", "op": "Pad", "input": ["StatefulPartitionedCall/model/tf.nn.silu_15/mul", "StatefulPartitionedCall/model/zero_padding2d_5/Pad/paddings"], "attr": {"T": {"type": "DT_FLOAT"}, "Tpaddings": {"type": "DT_INT32"}}}, {"name": "StatefulPartitionedCall/model/depthwise_conv2d_4/depthwise", "op": "DepthwiseConv2dNative", "input": ["StatefulPartitionedCall/model/zero_padding2d_5/Pad", "StatefulPartitionedCall/model/depthwise_conv2d_4/depthwise/ReadVariableOp"], "attr": {"strides": {"list": {"i": ["1", "1", "1", "1"]}}, "padding": {"s": "VkFMSUQ="}, "dilations": {"list": {"i": ["1", "1", "1", "1"]}}, "data_format": {"s": "TkhXQw=="}, "explicit_paddings": {"list": {}}, "T": {"type": "DT_FLOAT"}}}, {"name": "StatefulPartitionedCall/model/tf.math.add_18/Add", "op": "AddV2", "input": ["StatefulPartitionedCall/model/depthwise_conv2d_4/depthwise", "StatefulPartitionedCall/model/tf.math.add_18/Add/y"], "attr": {"T": {"type": "DT_FLOAT"}}}, {"name": "StatefulPartitionedCall/model/tf.nn.silu_16/Sigmoid", "op": "Sigmoid", "input": ["StatefulPartitionedCall/model/tf.math.add_18/Add"], "attr": {"T": {"type": "DT_FLOAT"}}}, {"name": "StatefulPartitionedCall/model/tf.nn.silu_16/mul", "op": "Mul", "input": ["StatefulPartitionedCall/model/tf.math.add_18/Add", "StatefulPartitionedCall/model/tf.nn.silu_16/Sigmoid"], "attr": {"T": {"type": "DT_FLOAT"}}}, {"name": "StatefulPartitionedCall/model/conv2d_12/Conv2D", "op": "Conv2D", "input": ["StatefulPartitionedCall/model/tf.nn.silu_16/mul", "StatefulPartitionedCall/model/conv2d_12/Conv2D/ReadVariableOp"], "device": "/device:CPU:0", "attr": {"T": {"type": "DT_FLOAT"}, "data_format": {"s": "TkhXQw=="}, "dilations": {"list": {"i": ["1", "1", "1", "1"]}}, "explicit_paddings": {"list": {}}, "strides": {"list": {"i": ["1", "1", "1", "1"]}}, "use_cudnn_on_gpu": {"b": true}, "padding": {"s": "VkFMSUQ="}}}, {"name": "StatefulPartitionedCall/model/tf.math.add_19/Add", "op": "AddV2", "input": ["StatefulPartitionedCall/model/conv2d_12/Conv2D", "StatefulPartitionedCall/model/tf.math.add_19/Add/y"], "attr": {"T": {"type": "DT_FLOAT"}}}, {"name": "StatefulPartitionedCall/model/tf.nn.silu_17/Sigmoid", "op": "Sigmoid", "input": ["StatefulPartitionedCall/model/tf.math.add_19/Add"], "attr": {"T": {"type": "DT_FLOAT"}}}, {"name": "StatefulPartitionedCall/model/tf.nn.silu_17/mul", "op": "Mul", "input": ["StatefulPartitionedCall/model/tf.math.add_19/Add", "StatefulPartitionedCall/model/tf.nn.silu_17/Sigmoid"], "attr": {"T": {"type": "DT_FLOAT"}}}, {"name": "StatefulPartitionedCall/model/tf.math.add_20/Add", "op": "AddV2", "input": ["StatefulPartitionedCall/model/tf.math.add_16/Add", "StatefulPartitionedCall/model/tf.nn.silu_17/mul"], "attr": {"T": {"type": "DT_FLOAT"}}}, {"name": "StatefulPartitionedCall/model/conv2d_13/Conv2D", "op": "Conv2D", "input": ["StatefulPartitionedCall/model/tf.math.add_20/Add", "StatefulPartitionedCall/model/conv2d_13/Conv2D/ReadVariableOp"], "device": "/device:CPU:0", "attr": {"use_cudnn_on_gpu": {"b": true}, "T": {"type": "DT_FLOAT"}, "data_format": {"s": "TkhXQw=="}, "strides": {"list": {"i": ["1", "1", "1", "1"]}}, "explicit_paddings": {"list": {}}, "dilations": {"list": {"i": ["1", "1", "1", "1"]}}, "padding": {"s": "VkFMSUQ="}}}, {"name": "StatefulPartitionedCall/model/tf.math.add_21/Add", "op": "AddV2", "input": ["StatefulPartitionedCall/model/conv2d_13/Conv2D", "StatefulPartitionedCall/model/tf.math.add_21/Add/y"], "attr": {"T": {"type": "DT_FLOAT"}}}, {"name": "StatefulPartitionedCall/model/tf.nn.silu_18/Sigmoid", "op": "Sigmoid", "input": ["StatefulPartitionedCall/model/tf.math.add_21/Add"], "attr": {"T": {"type": "DT_FLOAT"}}}, {"name": "StatefulPartitionedCall/model/tf.nn.silu_18/mul", "op": "Mul", "input": ["StatefulPartitionedCall/model/tf.math.add_21/Add", "StatefulPartitionedCall/model/tf.nn.silu_18/Sigmoid"], "attr": {"T": {"type": "DT_FLOAT"}}}, {"name": "StatefulPartitionedCall/model/zero_padding2d_6/Pad", "op": "Pad", "input": ["StatefulPartitionedCall/model/tf.nn.silu_18/mul", "StatefulPartitionedCall/model/zero_padding2d_6/Pad/paddings"], "attr": {"T": {"type": "DT_FLOAT"}, "Tpaddings": {"type": "DT_INT32"}}}, {"name": "StatefulPartitionedCall/model/depthwise_conv2d_5/depthwise", "op": "DepthwiseConv2dNative", "input": ["StatefulPartitionedCall/model/zero_padding2d_6/Pad", "StatefulPartitionedCall/model/depthwise_conv2d_5/depthwise/ReadVariableOp"], "attr": {"explicit_paddings": {"list": {}}, "dilations": {"list": {"i": ["1", "1", "1", "1"]}}, "padding": {"s": "VkFMSUQ="}, "T": {"type": "DT_FLOAT"}, "data_format": {"s": "TkhXQw=="}, "strides": {"list": {"i": ["1", "1", "1", "1"]}}}}, {"name": "StatefulPartitionedCall/model/tf.math.add_22/Add", "op": "AddV2", "input": ["StatefulPartitionedCall/model/depthwise_conv2d_5/depthwise", "StatefulPartitionedCall/model/tf.math.add_22/Add/y"], "attr": {"T": {"type": "DT_FLOAT"}}}, {"name": "StatefulPartitionedCall/model/tf.nn.silu_19/Sigmoid", "op": "Sigmoid", "input": ["StatefulPartitionedCall/model/tf.math.add_22/Add"], "attr": {"T": {"type": "DT_FLOAT"}}}, {"name": "StatefulPartitionedCall/model/tf.nn.silu_19/mul", "op": "Mul", "input": ["StatefulPartitionedCall/model/tf.math.add_22/Add", "StatefulPartitionedCall/model/tf.nn.silu_19/Sigmoid"], "attr": {"T": {"type": "DT_FLOAT"}}}, {"name": "StatefulPartitionedCall/model/conv2d_14/Conv2D", "op": "Conv2D", "input": ["StatefulPartitionedCall/model/tf.nn.silu_19/mul", "StatefulPartitionedCall/model/conv2d_14/Conv2D/ReadVariableOp"], "device": "/device:CPU:0", "attr": {"use_cudnn_on_gpu": {"b": true}, "explicit_paddings": {"list": {}}, "padding": {"s": "VkFMSUQ="}, "strides": {"list": {"i": ["1", "1", "1", "1"]}}, "data_format": {"s": "TkhXQw=="}, "dilations": {"list": {"i": ["1", "1", "1", "1"]}}, "T": {"type": "DT_FLOAT"}}}, {"name": "StatefulPartitionedCall/model/tf.math.add_23/Add", "op": "AddV2", "input": ["StatefulPartitionedCall/model/conv2d_14/Conv2D", "StatefulPartitionedCall/model/tf.math.add_23/Add/y"], "attr": {"T": {"type": "DT_FLOAT"}}}, {"name": "StatefulPartitionedCall/model/tf.nn.silu_20/Sigmoid", "op": "Sigmoid", "input": ["StatefulPartitionedCall/model/tf.math.add_23/Add"], "attr": {"T": {"type": "DT_FLOAT"}}}, {"name": "StatefulPartitionedCall/model/tf.nn.silu_20/mul", "op": "Mul", "input": ["StatefulPartitionedCall/model/tf.math.add_23/Add", "StatefulPartitionedCall/model/tf.nn.silu_20/Sigmoid"], "attr": {"T": {"type": "DT_FLOAT"}}}, {"name": "StatefulPartitionedCall/model/tf.math.add_24/Add", "op": "AddV2", "input": ["StatefulPartitionedCall/model/tf.math.add_20/Add", "StatefulPartitionedCall/model/tf.nn.silu_20/mul"], "attr": {"T": {"type": "DT_FLOAT"}}}, {"name": "StatefulPartitionedCall/model/tf.concat_2/concat", "op": "ConcatV2", "input": ["StatefulPartitionedCall/model/tf.math.add_24/Add", "StatefulPartitionedCall/model/tf.nn.silu_21/mul", "StatefulPartitionedCall/model/tf.concat_2/concat/axis"], "attr": {"N": {"i": "2"}, "Tidx": {"type": "DT_INT32"}, "T": {"type": "DT_FLOAT"}}}, {"name": "StatefulPartitionedCall/model/conv2d_16/Conv2D", "op": "Conv2D", "input": ["StatefulPartitionedCall/model/tf.concat_2/concat", "StatefulPartitionedCall/model/conv2d_16/Conv2D/ReadVariableOp"], "device": "/device:CPU:0", "attr": {"explicit_paddings": {"list": {}}, "T": {"type": "DT_FLOAT"}, "use_cudnn_on_gpu": {"b": true}, "dilations": {"list": {"i": ["1", "1", "1", "1"]}}, "data_format": {"s": "TkhXQw=="}, "padding": {"s": "VkFMSUQ="}, "strides": {"list": {"i": ["1", "1", "1", "1"]}}}}, {"name": "StatefulPartitionedCall/model/tf.math.add_26/Add", "op": "AddV2", "input": ["StatefulPartitionedCall/model/conv2d_16/Conv2D", "StatefulPartitionedCall/model/tf.math.add_26/Add/y"], "attr": {"T": {"type": "DT_FLOAT"}}}, {"name": "StatefulPartitionedCall/model/tf.nn.silu_22/Sigmoid", "op": "Sigmoid", "input": ["StatefulPartitionedCall/model/tf.math.add_26/Add"], "attr": {"T": {"type": "DT_FLOAT"}}}, {"name": "StatefulPartitionedCall/model/tf.nn.silu_22/mul", "op": "Mul", "input": ["StatefulPartitionedCall/model/tf.math.add_26/Add", "StatefulPartitionedCall/model/tf.nn.silu_22/Sigmoid"], "attr": {"T": {"type": "DT_FLOAT"}}}, {"name": "StatefulPartitionedCall/model/zero_padding2d_7/Pad", "op": "Pad", "input": ["StatefulPartitionedCall/model/tf.nn.silu_22/mul", "StatefulPartitionedCall/model/zero_padding2d_7/Pad/paddings"], "attr": {"Tpaddings": {"type": "DT_INT32"}, "T": {"type": "DT_FLOAT"}}}, {"name": "StatefulPartitionedCall/model/depthwise_conv2d_6/depthwise", "op": "DepthwiseConv2dNative", "input": ["StatefulPartitionedCall/model/zero_padding2d_7/Pad", "StatefulPartitionedCall/model/depthwise_conv2d_6/depthwise/ReadVariableOp"], "attr": {"strides": {"list": {"i": ["1", "2", "2", "1"]}}, "data_format": {"s": "TkhXQw=="}, "explicit_paddings": {"list": {}}, "dilations": {"list": {"i": ["1", "1", "1", "1"]}}, "T": {"type": "DT_FLOAT"}, "padding": {"s": "VkFMSUQ="}}}, {"name": "StatefulPartitionedCall/model/tf.math.add_27/Add", "op": "AddV2", "input": ["StatefulPartitionedCall/model/depthwise_conv2d_6/depthwise", "StatefulPartitionedCall/model/tf.math.add_27/Add/y"], "attr": {"T": {"type": "DT_FLOAT"}}}, {"name": "StatefulPartitionedCall/model/tf.nn.silu_23/Sigmoid", "op": "Sigmoid", "input": ["StatefulPartitionedCall/model/tf.math.add_27/Add"], "attr": {"T": {"type": "DT_FLOAT"}}}, {"name": "StatefulPartitionedCall/model/tf.nn.silu_23/mul", "op": "Mul", "input": ["StatefulPartitionedCall/model/tf.math.add_27/Add", "StatefulPartitionedCall/model/tf.nn.silu_23/Sigmoid"], "attr": {"T": {"type": "DT_FLOAT"}}}, {"name": "StatefulPartitionedCall/model/conv2d_17/Conv2D", "op": "Conv2D", "input": ["StatefulPartitionedCall/model/tf.nn.silu_23/mul", "StatefulPartitionedCall/model/conv2d_17/Conv2D/ReadVariableOp"], "device": "/device:CPU:0", "attr": {"dilations": {"list": {"i": ["1", "1", "1", "1"]}}, "padding": {"s": "VkFMSUQ="}, "T": {"type": "DT_FLOAT"}, "explicit_paddings": {"list": {}}, "use_cudnn_on_gpu": {"b": true}, "data_format": {"s": "TkhXQw=="}, "strides": {"list": {"i": ["1", "1", "1", "1"]}}}}, {"name": "StatefulPartitionedCall/model/tf.math.add_28/Add", "op": "AddV2", "input": ["StatefulPartitionedCall/model/conv2d_17/Conv2D", "StatefulPartitionedCall/model/tf.math.add_28/Add/y"], "attr": {"T": {"type": "DT_FLOAT"}}}, {"name": "StatefulPartitionedCall/model/tf.nn.silu_24/Sigmoid", "op": "Sigmoid", "input": ["StatefulPartitionedCall/model/tf.math.add_28/Add"], "attr": {"T": {"type": "DT_FLOAT"}}}, {"name": "StatefulPartitionedCall/model/tf.nn.silu_24/mul", "op": "Mul", "input": ["StatefulPartitionedCall/model/tf.math.add_28/Add", "StatefulPartitionedCall/model/tf.nn.silu_24/Sigmoid"], "attr": {"T": {"type": "DT_FLOAT"}}}, {"name": "StatefulPartitionedCall/model/conv2d_18/Conv2D", "op": "Conv2D", "input": ["StatefulPartitionedCall/model/tf.nn.silu_24/mul", "StatefulPartitionedCall/model/conv2d_18/Conv2D/ReadVariableOp"], "device": "/device:CPU:0", "attr": {"use_cudnn_on_gpu": {"b": true}, "T": {"type": "DT_FLOAT"}, "strides": {"list": {"i": ["1", "1", "1", "1"]}}, "data_format": {"s": "TkhXQw=="}, "padding": {"s": "VkFMSUQ="}, "dilations": {"list": {"i": ["1", "1", "1", "1"]}}, "explicit_paddings": {"list": {}}}}, {"name": "StatefulPartitionedCall/model/conv2d_25/Conv2D", "op": "Conv2D", "input": ["StatefulPartitionedCall/model/tf.nn.silu_24/mul", "StatefulPartitionedCall/model/conv2d_25/Conv2D/ReadVariableOp"], "device": "/device:CPU:0", "attr": {"dilations": {"list": {"i": ["1", "1", "1", "1"]}}, "use_cudnn_on_gpu": {"b": true}, "T": {"type": "DT_FLOAT"}, "padding": {"s": "VkFMSUQ="}, "strides": {"list": {"i": ["1", "1", "1", "1"]}}, "explicit_paddings": {"list": {}}, "data_format": {"s": "TkhXQw=="}}}, {"name": "StatefulPartitionedCall/model/tf.math.add_29/Add", "op": "AddV2", "input": ["StatefulPartitionedCall/model/conv2d_18/Conv2D", "StatefulPartitionedCall/model/tf.math.add_29/Add/y"], "attr": {"T": {"type": "DT_FLOAT"}}}, {"name": "StatefulPartitionedCall/model/tf.math.add_42/Add", "op": "AddV2", "input": ["StatefulPartitionedCall/model/conv2d_25/Conv2D", "StatefulPartitionedCall/model/tf.math.add_42/Add/y"], "attr": {"T": {"type": "DT_FLOAT"}}}, {"name": "StatefulPartitionedCall/model/tf.nn.silu_25/Sigmoid", "op": "Sigmoid", "input": ["StatefulPartitionedCall/model/tf.math.add_29/Add"], "attr": {"T": {"type": "DT_FLOAT"}}}, {"name": "StatefulPartitionedCall/model/tf.nn.silu_35/Sigmoid", "op": "Sigmoid", "input": ["StatefulPartitionedCall/model/tf.math.add_42/Add"], "attr": {"T": {"type": "DT_FLOAT"}}}, {"name": "StatefulPartitionedCall/model/tf.nn.silu_25/mul", "op": "Mul", "input": ["StatefulPartitionedCall/model/tf.math.add_29/Add", "StatefulPartitionedCall/model/tf.nn.silu_25/Sigmoid"], "attr": {"T": {"type": "DT_FLOAT"}}}, {"name": "StatefulPartitionedCall/model/tf.nn.silu_35/mul", "op": "Mul", "input": ["StatefulPartitionedCall/model/tf.math.add_42/Add", "StatefulPartitionedCall/model/tf.nn.silu_35/Sigmoid"], "attr": {"T": {"type": "DT_FLOAT"}}}, {"name": "StatefulPartitionedCall/model/conv2d_19/Conv2D", "op": "Conv2D", "input": ["StatefulPartitionedCall/model/tf.nn.silu_25/mul", "StatefulPartitionedCall/model/conv2d_19/Conv2D/ReadVariableOp"], "device": "/device:CPU:0", "attr": {"strides": {"list": {"i": ["1", "1", "1", "1"]}}, "use_cudnn_on_gpu": {"b": true}, "T": {"type": "DT_FLOAT"}, "explicit_paddings": {"list": {}}, "dilations": {"list": {"i": ["1", "1", "1", "1"]}}, "padding": {"s": "VkFMSUQ="}, "data_format": {"s": "TkhXQw=="}}}, {"name": "StatefulPartitionedCall/model/tf.math.add_30/Add", "op": "AddV2", "input": ["StatefulPartitionedCall/model/conv2d_19/Conv2D", "StatefulPartitionedCall/model/tf.math.add_30/Add/y"], "attr": {"T": {"type": "DT_FLOAT"}}}, {"name": "StatefulPartitionedCall/model/tf.nn.silu_26/Sigmoid", "op": "Sigmoid", "input": ["StatefulPartitionedCall/model/tf.math.add_30/Add"], "attr": {"T": {"type": "DT_FLOAT"}}}, {"name": "StatefulPartitionedCall/model/tf.nn.silu_26/mul", "op": "Mul", "input": ["StatefulPartitionedCall/model/tf.math.add_30/Add", "StatefulPartitionedCall/model/tf.nn.silu_26/Sigmoid"], "attr": {"T": {"type": "DT_FLOAT"}}}, {"name": "StatefulPartitionedCall/model/zero_padding2d_8/Pad", "op": "Pad", "input": ["StatefulPartitionedCall/model/tf.nn.silu_26/mul", "StatefulPartitionedCall/model/zero_padding2d_8/Pad/paddings"], "attr": {"T": {"type": "DT_FLOAT"}, "Tpaddings": {"type": "DT_INT32"}}}, {"name": "StatefulPartitionedCall/model/depthwise_conv2d_7/depthwise", "op": "DepthwiseConv2dNative", "input": ["StatefulPartitionedCall/model/zero_padding2d_8/Pad", "StatefulPartitionedCall/model/depthwise_conv2d_7/depthwise/ReadVariableOp"], "attr": {"dilations": {"list": {"i": ["1", "1", "1", "1"]}}, "T": {"type": "DT_FLOAT"}, "strides": {"list": {"i": ["1", "1", "1", "1"]}}, "explicit_paddings": {"list": {}}, "data_format": {"s": "TkhXQw=="}, "padding": {"s": "VkFMSUQ="}}}, {"name": "StatefulPartitionedCall/model/tf.math.add_31/Add", "op": "AddV2", "input": ["StatefulPartitionedCall/model/depthwise_conv2d_7/depthwise", "StatefulPartitionedCall/model/tf.math.add_31/Add/y"], "attr": {"T": {"type": "DT_FLOAT"}}}, {"name": "StatefulPartitionedCall/model/tf.nn.silu_27/Sigmoid", "op": "Sigmoid", "input": ["StatefulPartitionedCall/model/tf.math.add_31/Add"], "attr": {"T": {"type": "DT_FLOAT"}}}, {"name": "StatefulPartitionedCall/model/tf.nn.silu_27/mul", "op": "Mul", "input": ["StatefulPartitionedCall/model/tf.math.add_31/Add", "StatefulPartitionedCall/model/tf.nn.silu_27/Sigmoid"], "attr": {"T": {"type": "DT_FLOAT"}}}, {"name": "StatefulPartitionedCall/model/conv2d_20/Conv2D", "op": "Conv2D", "input": ["StatefulPartitionedCall/model/tf.nn.silu_27/mul", "StatefulPartitionedCall/model/conv2d_20/Conv2D/ReadVariableOp"], "device": "/device:CPU:0", "attr": {"padding": {"s": "VkFMSUQ="}, "strides": {"list": {"i": ["1", "1", "1", "1"]}}, "use_cudnn_on_gpu": {"b": true}, "dilations": {"list": {"i": ["1", "1", "1", "1"]}}, "T": {"type": "DT_FLOAT"}, "data_format": {"s": "TkhXQw=="}, "explicit_paddings": {"list": {}}}}, {"name": "StatefulPartitionedCall/model/tf.math.add_32/Add", "op": "AddV2", "input": ["StatefulPartitionedCall/model/conv2d_20/Conv2D", "StatefulPartitionedCall/model/tf.math.add_32/Add/y"], "attr": {"T": {"type": "DT_FLOAT"}}}, {"name": "StatefulPartitionedCall/model/tf.nn.silu_28/Sigmoid", "op": "Sigmoid", "input": ["StatefulPartitionedCall/model/tf.math.add_32/Add"], "attr": {"T": {"type": "DT_FLOAT"}}}, {"name": "StatefulPartitionedCall/model/tf.nn.silu_28/mul", "op": "Mul", "input": ["StatefulPartitionedCall/model/tf.math.add_32/Add", "StatefulPartitionedCall/model/tf.nn.silu_28/Sigmoid"], "attr": {"T": {"type": "DT_FLOAT"}}}, {"name": "StatefulPartitionedCall/model/tf.math.add_33/Add", "op": "AddV2", "input": ["StatefulPartitionedCall/model/tf.nn.silu_25/mul", "StatefulPartitionedCall/model/tf.nn.silu_28/mul"], "attr": {"T": {"type": "DT_FLOAT"}}}, {"name": "StatefulPartitionedCall/model/conv2d_21/Conv2D", "op": "Conv2D", "input": ["StatefulPartitionedCall/model/tf.math.add_33/Add", "StatefulPartitionedCall/model/conv2d_21/Conv2D/ReadVariableOp"], "device": "/device:CPU:0", "attr": {"data_format": {"s": "TkhXQw=="}, "explicit_paddings": {"list": {}}, "padding": {"s": "VkFMSUQ="}, "T": {"type": "DT_FLOAT"}, "strides": {"list": {"i": ["1", "1", "1", "1"]}}, "use_cudnn_on_gpu": {"b": true}, "dilations": {"list": {"i": ["1", "1", "1", "1"]}}}}, {"name": "StatefulPartitionedCall/model/tf.math.add_34/Add", "op": "AddV2", "input": ["StatefulPartitionedCall/model/conv2d_21/Conv2D", "StatefulPartitionedCall/model/tf.math.add_34/Add/y"], "attr": {"T": {"type": "DT_FLOAT"}}}, {"name": "StatefulPartitionedCall/model/tf.nn.silu_29/Sigmoid", "op": "Sigmoid", "input": ["StatefulPartitionedCall/model/tf.math.add_34/Add"], "attr": {"T": {"type": "DT_FLOAT"}}}, {"name": "StatefulPartitionedCall/model/tf.nn.silu_29/mul", "op": "Mul", "input": ["StatefulPartitionedCall/model/tf.math.add_34/Add", "StatefulPartitionedCall/model/tf.nn.silu_29/Sigmoid"], "attr": {"T": {"type": "DT_FLOAT"}}}, {"name": "StatefulPartitionedCall/model/zero_padding2d_9/Pad", "op": "Pad", "input": ["StatefulPartitionedCall/model/tf.nn.silu_29/mul", "StatefulPartitionedCall/model/zero_padding2d_9/Pad/paddings"], "attr": {"Tpaddings": {"type": "DT_INT32"}, "T": {"type": "DT_FLOAT"}}}, {"name": "StatefulPartitionedCall/model/depthwise_conv2d_8/depthwise", "op": "DepthwiseConv2dNative", "input": ["StatefulPartitionedCall/model/zero_padding2d_9/Pad", "StatefulPartitionedCall/model/depthwise_conv2d_8/depthwise/ReadVariableOp"], "attr": {"explicit_paddings": {"list": {}}, "strides": {"list": {"i": ["1", "1", "1", "1"]}}, "padding": {"s": "VkFMSUQ="}, "T": {"type": "DT_FLOAT"}, "dilations": {"list": {"i": ["1", "1", "1", "1"]}}, "data_format": {"s": "TkhXQw=="}}}, {"name": "StatefulPartitionedCall/model/tf.math.add_35/Add", "op": "AddV2", "input": ["StatefulPartitionedCall/model/depthwise_conv2d_8/depthwise", "StatefulPartitionedCall/model/tf.math.add_35/Add/y"], "attr": {"T": {"type": "DT_FLOAT"}}}, {"name": "StatefulPartitionedCall/model/tf.nn.silu_30/Sigmoid", "op": "Sigmoid", "input": ["StatefulPartitionedCall/model/tf.math.add_35/Add"], "attr": {"T": {"type": "DT_FLOAT"}}}, {"name": "StatefulPartitionedCall/model/tf.nn.silu_30/mul", "op": "Mul", "input": ["StatefulPartitionedCall/model/tf.math.add_35/Add", "StatefulPartitionedCall/model/tf.nn.silu_30/Sigmoid"], "attr": {"T": {"type": "DT_FLOAT"}}}, {"name": "StatefulPartitionedCall/model/conv2d_22/Conv2D", "op": "Conv2D", "input": ["StatefulPartitionedCall/model/tf.nn.silu_30/mul", "StatefulPartitionedCall/model/conv2d_22/Conv2D/ReadVariableOp"], "device": "/device:CPU:0", "attr": {"data_format": {"s": "TkhXQw=="}, "padding": {"s": "VkFMSUQ="}, "T": {"type": "DT_FLOAT"}, "dilations": {"list": {"i": ["1", "1", "1", "1"]}}, "use_cudnn_on_gpu": {"b": true}, "strides": {"list": {"i": ["1", "1", "1", "1"]}}, "explicit_paddings": {"list": {}}}}, {"name": "StatefulPartitionedCall/model/tf.math.add_36/Add", "op": "AddV2", "input": ["StatefulPartitionedCall/model/conv2d_22/Conv2D", "StatefulPartitionedCall/model/tf.math.add_36/Add/y"], "attr": {"T": {"type": "DT_FLOAT"}}}, {"name": "StatefulPartitionedCall/model/tf.nn.silu_31/Sigmoid", "op": "Sigmoid", "input": ["StatefulPartitionedCall/model/tf.math.add_36/Add"], "attr": {"T": {"type": "DT_FLOAT"}}}, {"name": "StatefulPartitionedCall/model/tf.nn.silu_31/mul", "op": "Mul", "input": ["StatefulPartitionedCall/model/tf.math.add_36/Add", "StatefulPartitionedCall/model/tf.nn.silu_31/Sigmoid"], "attr": {"T": {"type": "DT_FLOAT"}}}, {"name": "StatefulPartitionedCall/model/tf.math.add_37/Add", "op": "AddV2", "input": ["StatefulPartitionedCall/model/tf.math.add_33/Add", "StatefulPartitionedCall/model/tf.nn.silu_31/mul"], "attr": {"T": {"type": "DT_FLOAT"}}}, {"name": "StatefulPartitionedCall/model/conv2d_23/Conv2D", "op": "Conv2D", "input": ["StatefulPartitionedCall/model/tf.math.add_37/Add", "StatefulPartitionedCall/model/conv2d_23/Conv2D/ReadVariableOp"], "device": "/device:CPU:0", "attr": {"use_cudnn_on_gpu": {"b": true}, "dilations": {"list": {"i": ["1", "1", "1", "1"]}}, "T": {"type": "DT_FLOAT"}, "data_format": {"s": "TkhXQw=="}, "padding": {"s": "VkFMSUQ="}, "strides": {"list": {"i": ["1", "1", "1", "1"]}}, "explicit_paddings": {"list": {}}}}, {"name": "StatefulPartitionedCall/model/tf.math.add_38/Add", "op": "AddV2", "input": ["StatefulPartitionedCall/model/conv2d_23/Conv2D", "StatefulPartitionedCall/model/tf.math.add_38/Add/y"], "attr": {"T": {"type": "DT_FLOAT"}}}, {"name": "StatefulPartitionedCall/model/tf.nn.silu_32/Sigmoid", "op": "Sigmoid", "input": ["StatefulPartitionedCall/model/tf.math.add_38/Add"], "attr": {"T": {"type": "DT_FLOAT"}}}, {"name": "StatefulPartitionedCall/model/tf.nn.silu_32/mul", "op": "Mul", "input": ["StatefulPartitionedCall/model/tf.math.add_38/Add", "StatefulPartitionedCall/model/tf.nn.silu_32/Sigmoid"], "attr": {"T": {"type": "DT_FLOAT"}}}, {"name": "StatefulPartitionedCall/model/zero_padding2d_10/Pad", "op": "Pad", "input": ["StatefulPartitionedCall/model/tf.nn.silu_32/mul", "StatefulPartitionedCall/model/zero_padding2d_10/Pad/paddings"], "attr": {"T": {"type": "DT_FLOAT"}, "Tpaddings": {"type": "DT_INT32"}}}, {"name": "StatefulPartitionedCall/model/depthwise_conv2d_9/depthwise", "op": "DepthwiseConv2dNative", "input": ["StatefulPartitionedCall/model/zero_padding2d_10/Pad", "StatefulPartitionedCall/model/depthwise_conv2d_9/depthwise/ReadVariableOp"], "attr": {"dilations": {"list": {"i": ["1", "1", "1", "1"]}}, "padding": {"s": "VkFMSUQ="}, "data_format": {"s": "TkhXQw=="}, "T": {"type": "DT_FLOAT"}, "strides": {"list": {"i": ["1", "1", "1", "1"]}}, "explicit_paddings": {"list": {}}}}, {"name": "StatefulPartitionedCall/model/tf.math.add_39/Add", "op": "AddV2", "input": ["StatefulPartitionedCall/model/depthwise_conv2d_9/depthwise", "StatefulPartitionedCall/model/tf.math.add_39/Add/y"], "attr": {"T": {"type": "DT_FLOAT"}}}, {"name": "StatefulPartitionedCall/model/tf.nn.silu_33/Sigmoid", "op": "Sigmoid", "input": ["StatefulPartitionedCall/model/tf.math.add_39/Add"], "attr": {"T": {"type": "DT_FLOAT"}}}, {"name": "StatefulPartitionedCall/model/tf.nn.silu_33/mul", "op": "Mul", "input": ["StatefulPartitionedCall/model/tf.math.add_39/Add", "StatefulPartitionedCall/model/tf.nn.silu_33/Sigmoid"], "attr": {"T": {"type": "DT_FLOAT"}}}, {"name": "StatefulPartitionedCall/model/conv2d_24/Conv2D", "op": "Conv2D", "input": ["StatefulPartitionedCall/model/tf.nn.silu_33/mul", "StatefulPartitionedCall/model/conv2d_24/Conv2D/ReadVariableOp"], "device": "/device:CPU:0", "attr": {"dilations": {"list": {"i": ["1", "1", "1", "1"]}}, "use_cudnn_on_gpu": {"b": true}, "explicit_paddings": {"list": {}}, "strides": {"list": {"i": ["1", "1", "1", "1"]}}, "padding": {"s": "VkFMSUQ="}, "T": {"type": "DT_FLOAT"}, "data_format": {"s": "TkhXQw=="}}}, {"name": "StatefulPartitionedCall/model/tf.math.add_40/Add", "op": "AddV2", "input": ["StatefulPartitionedCall/model/conv2d_24/Conv2D", "StatefulPartitionedCall/model/tf.math.add_40/Add/y"], "attr": {"T": {"type": "DT_FLOAT"}}}, {"name": "StatefulPartitionedCall/model/tf.nn.silu_34/Sigmoid", "op": "Sigmoid", "input": ["StatefulPartitionedCall/model/tf.math.add_40/Add"], "attr": {"T": {"type": "DT_FLOAT"}}}, {"name": "StatefulPartitionedCall/model/tf.nn.silu_34/mul", "op": "Mul", "input": ["StatefulPartitionedCall/model/tf.math.add_40/Add", "StatefulPartitionedCall/model/tf.nn.silu_34/Sigmoid"], "attr": {"T": {"type": "DT_FLOAT"}}}, {"name": "StatefulPartitionedCall/model/tf.math.add_41/Add", "op": "AddV2", "input": ["StatefulPartitionedCall/model/tf.math.add_37/Add", "StatefulPartitionedCall/model/tf.nn.silu_34/mul"], "attr": {"T": {"type": "DT_FLOAT"}}}, {"name": "StatefulPartitionedCall/model/tf.concat_3/concat", "op": "ConcatV2", "input": ["StatefulPartitionedCall/model/tf.math.add_41/Add", "StatefulPartitionedCall/model/tf.nn.silu_35/mul", "StatefulPartitionedCall/model/tf.concat_3/concat/axis"], "attr": {"Tidx": {"type": "DT_INT32"}, "T": {"type": "DT_FLOAT"}, "N": {"i": "2"}}}, {"name": "StatefulPartitionedCall/model/conv2d_26/Conv2D", "op": "Conv2D", "input": ["StatefulPartitionedCall/model/tf.concat_3/concat", "StatefulPartitionedCall/model/conv2d_26/Conv2D/ReadVariableOp"], "device": "/device:CPU:0", "attr": {"data_format": {"s": "TkhXQw=="}, "strides": {"list": {"i": ["1", "1", "1", "1"]}}, "use_cudnn_on_gpu": {"b": true}, "dilations": {"list": {"i": ["1", "1", "1", "1"]}}, "T": {"type": "DT_FLOAT"}, "padding": {"s": "VkFMSUQ="}, "explicit_paddings": {"list": {}}}}, {"name": "StatefulPartitionedCall/model/tf.math.add_43/Add", "op": "AddV2", "input": ["StatefulPartitionedCall/model/conv2d_26/Conv2D", "StatefulPartitionedCall/model/tf.math.add_43/Add/y"], "attr": {"T": {"type": "DT_FLOAT"}}}, {"name": "StatefulPartitionedCall/model/tf.nn.silu_36/Sigmoid", "op": "Sigmoid", "input": ["StatefulPartitionedCall/model/tf.math.add_43/Add"], "attr": {"T": {"type": "DT_FLOAT"}}}, {"name": "StatefulPartitionedCall/model/tf.nn.silu_36/mul", "op": "Mul", "input": ["StatefulPartitionedCall/model/tf.math.add_43/Add", "StatefulPartitionedCall/model/tf.nn.silu_36/Sigmoid"], "attr": {"T": {"type": "DT_FLOAT"}}}, {"name": "StatefulPartitionedCall/model/zero_padding2d_11/Pad", "op": "Pad", "input": ["StatefulPartitionedCall/model/tf.nn.silu_36/mul", "StatefulPartitionedCall/model/zero_padding2d_11/Pad/paddings"], "attr": {"Tpaddings": {"type": "DT_INT32"}, "T": {"type": "DT_FLOAT"}}}, {"name": "StatefulPartitionedCall/model/depthwise_conv2d_10/depthwise", "op": "DepthwiseConv2dNative", "input": ["StatefulPartitionedCall/model/zero_padding2d_11/Pad", "StatefulPartitionedCall/model/depthwise_conv2d_10/depthwise/ReadVariableOp"], "attr": {"strides": {"list": {"i": ["1", "2", "2", "1"]}}, "data_format": {"s": "TkhXQw=="}, "dilations": {"list": {"i": ["1", "1", "1", "1"]}}, "T": {"type": "DT_FLOAT"}, "explicit_paddings": {"list": {}}, "padding": {"s": "VkFMSUQ="}}}, {"name": "StatefulPartitionedCall/model/tf.math.add_44/Add", "op": "AddV2", "input": ["StatefulPartitionedCall/model/depthwise_conv2d_10/depthwise", "StatefulPartitionedCall/model/tf.math.add_44/Add/y"], "attr": {"T": {"type": "DT_FLOAT"}}}, {"name": "StatefulPartitionedCall/model/tf.nn.silu_37/Sigmoid", "op": "Sigmoid", "input": ["StatefulPartitionedCall/model/tf.math.add_44/Add"], "attr": {"T": {"type": "DT_FLOAT"}}}, {"name": "StatefulPartitionedCall/model/tf.nn.silu_37/mul", "op": "Mul", "input": ["StatefulPartitionedCall/model/tf.math.add_44/Add", "StatefulPartitionedCall/model/tf.nn.silu_37/Sigmoid"], "attr": {"T": {"type": "DT_FLOAT"}}}, {"name": "StatefulPartitionedCall/model/conv2d_27/Conv2D", "op": "Conv2D", "input": ["StatefulPartitionedCall/model/tf.nn.silu_37/mul", "StatefulPartitionedCall/model/conv2d_27/Conv2D/ReadVariableOp"], "device": "/device:CPU:0", "attr": {"data_format": {"s": "TkhXQw=="}, "use_cudnn_on_gpu": {"b": true}, "explicit_paddings": {"list": {}}, "strides": {"list": {"i": ["1", "1", "1", "1"]}}, "padding": {"s": "VkFMSUQ="}, "dilations": {"list": {"i": ["1", "1", "1", "1"]}}, "T": {"type": "DT_FLOAT"}}}, {"name": "StatefulPartitionedCall/model/tf.math.add_45/Add", "op": "AddV2", "input": ["StatefulPartitionedCall/model/conv2d_27/Conv2D", "StatefulPartitionedCall/model/tf.math.add_45/Add/y"], "attr": {"T": {"type": "DT_FLOAT"}}}, {"name": "StatefulPartitionedCall/model/tf.nn.silu_38/Sigmoid", "op": "Sigmoid", "input": ["StatefulPartitionedCall/model/tf.math.add_45/Add"], "attr": {"T": {"type": "DT_FLOAT"}}}, {"name": "StatefulPartitionedCall/model/tf.nn.silu_38/mul", "op": "Mul", "input": ["StatefulPartitionedCall/model/tf.math.add_45/Add", "StatefulPartitionedCall/model/tf.nn.silu_38/Sigmoid"], "attr": {"T": {"type": "DT_FLOAT"}}}, {"name": "StatefulPartitionedCall/model/conv2d_28/Conv2D", "op": "Conv2D", "input": ["StatefulPartitionedCall/model/tf.nn.silu_38/mul", "StatefulPartitionedCall/model/conv2d_28/Conv2D/ReadVariableOp"], "device": "/device:CPU:0", "attr": {"T": {"type": "DT_FLOAT"}, "explicit_paddings": {"list": {}}, "padding": {"s": "VkFMSUQ="}, "strides": {"list": {"i": ["1", "1", "1", "1"]}}, "dilations": {"list": {"i": ["1", "1", "1", "1"]}}, "data_format": {"s": "TkhXQw=="}, "use_cudnn_on_gpu": {"b": true}}}, {"name": "StatefulPartitionedCall/model/tf.math.add_46/Add", "op": "AddV2", "input": ["StatefulPartitionedCall/model/conv2d_28/Conv2D", "StatefulPartitionedCall/model/tf.math.add_46/Add/y"], "attr": {"T": {"type": "DT_FLOAT"}}}, {"name": "StatefulPartitionedCall/model/tf.nn.silu_39/Sigmoid", "op": "Sigmoid", "input": ["StatefulPartitionedCall/model/tf.math.add_46/Add"], "attr": {"T": {"type": "DT_FLOAT"}}}, {"name": "StatefulPartitionedCall/model/tf.nn.silu_39/mul", "op": "Mul", "input": ["StatefulPartitionedCall/model/tf.math.add_46/Add", "StatefulPartitionedCall/model/tf.nn.silu_39/Sigmoid"], "attr": {"T": {"type": "DT_FLOAT"}}}, {"name": "StatefulPartitionedCall/model/tf.nn.max_pool2d/MaxPool2d", "op": "MaxPool", "input": ["StatefulPartitionedCall/model/tf.nn.silu_39/mul"], "attr": {"ksize": {"list": {"i": ["1", "5", "5", "1"]}}, "data_format": {"s": "TkhXQw=="}, "explicit_paddings": {"list": {}}, "T": {"type": "DT_FLOAT"}, "padding": {"s": "U0FNRQ=="}, "strides": {"list": {"i": ["1", "1", "1", "1"]}}}}, {"name": "StatefulPartitionedCall/model/tf.nn.max_pool2d_1/MaxPool2d", "op": "MaxPool", "input": ["StatefulPartitionedCall/model/tf.nn.silu_39/mul"], "attr": {"data_format": {"s": "TkhXQw=="}, "explicit_paddings": {"list": {}}, "T": {"type": "DT_FLOAT"}, "strides": {"list": {"i": ["1", "1", "1", "1"]}}, "ksize": {"list": {"i": ["1", "9", "9", "1"]}}, "padding": {"s": "U0FNRQ=="}}}, {"name": "StatefulPartitionedCall/model/tf.nn.max_pool2d_2/MaxPool2d", "op": "MaxPool", "input": ["StatefulPartitionedCall/model/tf.nn.silu_39/mul"], "attr": {"data_format": {"s": "TkhXQw=="}, "ksize": {"list": {"i": ["1", "13", "13", "1"]}}, "padding": {"s": "U0FNRQ=="}, "explicit_paddings": {"list": {}}, "T": {"type": "DT_FLOAT"}, "strides": {"list": {"i": ["1", "1", "1", "1"]}}}}, {"name": "StatefulPartitionedCall/model/tf.concat_4/concat", "op": "ConcatV2", "input": ["StatefulPartitionedCall/model/tf.nn.silu_39/mul", "StatefulPartitionedCall/model/tf.nn.max_pool2d/MaxPool2d", "StatefulPartitionedCall/model/tf.nn.max_pool2d_1/MaxPool2d", "StatefulPartitionedCall/model/tf.nn.max_pool2d_2/MaxPool2d", "StatefulPartitionedCall/model/tf.concat_4/concat/axis"], "attr": {"T": {"type": "DT_FLOAT"}, "Tidx": {"type": "DT_INT32"}, "N": {"i": "4"}}}, {"name": "StatefulPartitionedCall/model/conv2d_29/Conv2D", "op": "Conv2D", "input": ["StatefulPartitionedCall/model/tf.concat_4/concat", "StatefulPartitionedCall/model/conv2d_29/Conv2D/ReadVariableOp"], "device": "/device:CPU:0", "attr": {"strides": {"list": {"i": ["1", "1", "1", "1"]}}, "use_cudnn_on_gpu": {"b": true}, "padding": {"s": "VkFMSUQ="}, "T": {"type": "DT_FLOAT"}, "dilations": {"list": {"i": ["1", "1", "1", "1"]}}, "data_format": {"s": "TkhXQw=="}, "explicit_paddings": {"list": {}}}}, {"name": "StatefulPartitionedCall/model/tf.math.add_47/Add", "op": "AddV2", "input": ["StatefulPartitionedCall/model/conv2d_29/Conv2D", "StatefulPartitionedCall/model/tf.math.add_47/Add/y"], "attr": {"T": {"type": "DT_FLOAT"}}}, {"name": "StatefulPartitionedCall/model/tf.nn.silu_40/Sigmoid", "op": "Sigmoid", "input": ["StatefulPartitionedCall/model/tf.math.add_47/Add"], "attr": {"T": {"type": "DT_FLOAT"}}}, {"name": "StatefulPartitionedCall/model/tf.nn.silu_40/mul", "op": "Mul", "input": ["StatefulPartitionedCall/model/tf.math.add_47/Add", "StatefulPartitionedCall/model/tf.nn.silu_40/Sigmoid"], "attr": {"T": {"type": "DT_FLOAT"}}}, {"name": "StatefulPartitionedCall/model/conv2d_30/Conv2D", "op": "Conv2D", "input": ["StatefulPartitionedCall/model/tf.nn.silu_40/mul", "StatefulPartitionedCall/model/conv2d_30/Conv2D/ReadVariableOp"], "device": "/device:CPU:0", "attr": {"explicit_paddings": {"list": {}}, "data_format": {"s": "TkhXQw=="}, "T": {"type": "DT_FLOAT"}, "padding": {"s": "VkFMSUQ="}, "dilations": {"list": {"i": ["1", "1", "1", "1"]}}, "use_cudnn_on_gpu": {"b": true}, "strides": {"list": {"i": ["1", "1", "1", "1"]}}}}, {"name": "StatefulPartitionedCall/model/conv2d_33/Conv2D", "op": "Conv2D", "input": ["StatefulPartitionedCall/model/tf.nn.silu_40/mul", "StatefulPartitionedCall/model/conv2d_33/Conv2D/ReadVariableOp"], "device": "/device:CPU:0", "attr": {"T": {"type": "DT_FLOAT"}, "data_format": {"s": "TkhXQw=="}, "dilations": {"list": {"i": ["1", "1", "1", "1"]}}, "use_cudnn_on_gpu": {"b": true}, "padding": {"s": "VkFMSUQ="}, "strides": {"list": {"i": ["1", "1", "1", "1"]}}, "explicit_paddings": {"list": {}}}}, {"name": "StatefulPartitionedCall/model/tf.math.add_48/Add", "op": "AddV2", "input": ["StatefulPartitionedCall/model/conv2d_30/Conv2D", "StatefulPartitionedCall/model/tf.math.add_48/Add/y"], "attr": {"T": {"type": "DT_FLOAT"}}}, {"name": "StatefulPartitionedCall/model/tf.math.add_52/Add", "op": "AddV2", "input": ["StatefulPartitionedCall/model/conv2d_33/Conv2D", "StatefulPartitionedCall/model/tf.math.add_52/Add/y"], "attr": {"T": {"type": "DT_FLOAT"}}}, {"name": "StatefulPartitionedCall/model/tf.nn.silu_41/Sigmoid", "op": "Sigmoid", "input": ["StatefulPartitionedCall/model/tf.math.add_48/Add"], "attr": {"T": {"type": "DT_FLOAT"}}}, {"name": "StatefulPartitionedCall/model/tf.nn.silu_45/Sigmoid", "op": "Sigmoid", "input": ["StatefulPartitionedCall/model/tf.math.add_52/Add"], "attr": {"T": {"type": "DT_FLOAT"}}}, {"name": "StatefulPartitionedCall/model/tf.nn.silu_41/mul", "op": "Mul", "input": ["StatefulPartitionedCall/model/tf.math.add_48/Add", "StatefulPartitionedCall/model/tf.nn.silu_41/Sigmoid"], "attr": {"T": {"type": "DT_FLOAT"}}}, {"name": "StatefulPartitionedCall/model/tf.nn.silu_45/mul", "op": "Mul", "input": ["StatefulPartitionedCall/model/tf.math.add_52/Add", "StatefulPartitionedCall/model/tf.nn.silu_45/Sigmoid"], "attr": {"T": {"type": "DT_FLOAT"}}}, {"name": "StatefulPartitionedCall/model/conv2d_31/Conv2D", "op": "Conv2D", "input": ["StatefulPartitionedCall/model/tf.nn.silu_41/mul", "StatefulPartitionedCall/model/conv2d_31/Conv2D/ReadVariableOp"], "device": "/device:CPU:0", "attr": {"use_cudnn_on_gpu": {"b": true}, "data_format": {"s": "TkhXQw=="}, "dilations": {"list": {"i": ["1", "1", "1", "1"]}}, "strides": {"list": {"i": ["1", "1", "1", "1"]}}, "explicit_paddings": {"list": {}}, "T": {"type": "DT_FLOAT"}, "padding": {"s": "VkFMSUQ="}}}, {"name": "StatefulPartitionedCall/model/tf.math.add_49/Add", "op": "AddV2", "input": ["StatefulPartitionedCall/model/conv2d_31/Conv2D", "StatefulPartitionedCall/model/tf.math.add_49/Add/y"], "attr": {"T": {"type": "DT_FLOAT"}}}, {"name": "StatefulPartitionedCall/model/tf.nn.silu_42/Sigmoid", "op": "Sigmoid", "input": ["StatefulPartitionedCall/model/tf.math.add_49/Add"], "attr": {"T": {"type": "DT_FLOAT"}}}, {"name": "StatefulPartitionedCall/model/tf.nn.silu_42/mul", "op": "Mul", "input": ["StatefulPartitionedCall/model/tf.math.add_49/Add", "StatefulPartitionedCall/model/tf.nn.silu_42/Sigmoid"], "attr": {"T": {"type": "DT_FLOAT"}}}, {"name": "StatefulPartitionedCall/model/zero_padding2d_12/Pad", "op": "Pad", "input": ["StatefulPartitionedCall/model/tf.nn.silu_42/mul", "StatefulPartitionedCall/model/zero_padding2d_12/Pad/paddings"], "attr": {"Tpaddings": {"type": "DT_INT32"}, "T": {"type": "DT_FLOAT"}}}, {"name": "StatefulPartitionedCall/model/depthwise_conv2d_11/depthwise", "op": "DepthwiseConv2dNative", "input": ["StatefulPartitionedCall/model/zero_padding2d_12/Pad", "StatefulPartitionedCall/model/depthwise_conv2d_11/depthwise/ReadVariableOp"], "attr": {"data_format": {"s": "TkhXQw=="}, "explicit_paddings": {"list": {}}, "T": {"type": "DT_FLOAT"}, "padding": {"s": "VkFMSUQ="}, "strides": {"list": {"i": ["1", "1", "1", "1"]}}, "dilations": {"list": {"i": ["1", "1", "1", "1"]}}}}, {"name": "StatefulPartitionedCall/model/tf.math.add_50/Add", "op": "AddV2", "input": ["StatefulPartitionedCall/model/depthwise_conv2d_11/depthwise", "StatefulPartitionedCall/model/tf.math.add_50/Add/y"], "attr": {"T": {"type": "DT_FLOAT"}}}, {"name": "StatefulPartitionedCall/model/tf.nn.silu_43/Sigmoid", "op": "Sigmoid", "input": ["StatefulPartitionedCall/model/tf.math.add_50/Add"], "attr": {"T": {"type": "DT_FLOAT"}}}, {"name": "StatefulPartitionedCall/model/tf.nn.silu_43/mul", "op": "Mul", "input": ["StatefulPartitionedCall/model/tf.math.add_50/Add", "StatefulPartitionedCall/model/tf.nn.silu_43/Sigmoid"], "attr": {"T": {"type": "DT_FLOAT"}}}, {"name": "StatefulPartitionedCall/model/conv2d_32/Conv2D", "op": "Conv2D", "input": ["StatefulPartitionedCall/model/tf.nn.silu_43/mul", "StatefulPartitionedCall/model/conv2d_32/Conv2D/ReadVariableOp"], "device": "/device:CPU:0", "attr": {"T": {"type": "DT_FLOAT"}, "data_format": {"s": "TkhXQw=="}, "explicit_paddings": {"list": {}}, "use_cudnn_on_gpu": {"b": true}, "dilations": {"list": {"i": ["1", "1", "1", "1"]}}, "padding": {"s": "VkFMSUQ="}, "strides": {"list": {"i": ["1", "1", "1", "1"]}}}}, {"name": "StatefulPartitionedCall/model/tf.math.add_51/Add", "op": "AddV2", "input": ["StatefulPartitionedCall/model/conv2d_32/Conv2D", "StatefulPartitionedCall/model/tf.math.add_51/Add/y"], "attr": {"T": {"type": "DT_FLOAT"}}}, {"name": "StatefulPartitionedCall/model/tf.nn.silu_44/Sigmoid", "op": "Sigmoid", "input": ["StatefulPartitionedCall/model/tf.math.add_51/Add"], "attr": {"T": {"type": "DT_FLOAT"}}}, {"name": "StatefulPartitionedCall/model/tf.nn.silu_44/mul", "op": "Mul", "input": ["StatefulPartitionedCall/model/tf.math.add_51/Add", "StatefulPartitionedCall/model/tf.nn.silu_44/Sigmoid"], "attr": {"T": {"type": "DT_FLOAT"}}}, {"name": "StatefulPartitionedCall/model/tf.concat_5/concat", "op": "ConcatV2", "input": ["StatefulPartitionedCall/model/tf.nn.silu_44/mul", "StatefulPartitionedCall/model/tf.nn.silu_45/mul", "StatefulPartitionedCall/model/tf.concat_5/concat/axis"], "attr": {"T": {"type": "DT_FLOAT"}, "Tidx": {"type": "DT_INT32"}, "N": {"i": "2"}}}, {"name": "StatefulPartitionedCall/model/conv2d_34/Conv2D", "op": "Conv2D", "input": ["StatefulPartitionedCall/model/tf.concat_5/concat", "StatefulPartitionedCall/model/conv2d_34/Conv2D/ReadVariableOp"], "device": "/device:CPU:0", "attr": {"dilations": {"list": {"i": ["1", "1", "1", "1"]}}, "strides": {"list": {"i": ["1", "1", "1", "1"]}}, "use_cudnn_on_gpu": {"b": true}, "padding": {"s": "VkFMSUQ="}, "explicit_paddings": {"list": {}}, "T": {"type": "DT_FLOAT"}, "data_format": {"s": "TkhXQw=="}}}, {"name": "StatefulPartitionedCall/model/tf.math.add_53/Add", "op": "AddV2", "input": ["StatefulPartitionedCall/model/conv2d_34/Conv2D", "StatefulPartitionedCall/model/tf.math.add_53/Add/y"], "attr": {"T": {"type": "DT_FLOAT"}}}, {"name": "StatefulPartitionedCall/model/tf.nn.silu_46/Sigmoid", "op": "Sigmoid", "input": ["StatefulPartitionedCall/model/tf.math.add_53/Add"], "attr": {"T": {"type": "DT_FLOAT"}}}, {"name": "StatefulPartitionedCall/model/tf.nn.silu_46/mul", "op": "Mul", "input": ["StatefulPartitionedCall/model/tf.math.add_53/Add", "StatefulPartitionedCall/model/tf.nn.silu_46/Sigmoid"], "attr": {"T": {"type": "DT_FLOAT"}}}, {"name": "StatefulPartitionedCall/model/conv2d_35/Conv2D", "op": "Conv2D", "input": ["StatefulPartitionedCall/model/tf.nn.silu_46/mul", "StatefulPartitionedCall/model/conv2d_35/Conv2D/ReadVariableOp"], "device": "/device:CPU:0", "attr": {"T": {"type": "DT_FLOAT"}, "padding": {"s": "VkFMSUQ="}, "explicit_paddings": {"list": {}}, "data_format": {"s": "TkhXQw=="}, "strides": {"list": {"i": ["1", "1", "1", "1"]}}, "dilations": {"list": {"i": ["1", "1", "1", "1"]}}, "use_cudnn_on_gpu": {"b": true}}}, {"name": "StatefulPartitionedCall/model/tf.math.add_54/Add", "op": "AddV2", "input": ["StatefulPartitionedCall/model/conv2d_35/Conv2D", "StatefulPartitionedCall/model/tf.math.add_54/Add/y"], "attr": {"T": {"type": "DT_FLOAT"}}}, {"name": "StatefulPartitionedCall/model/tf.nn.silu_47/Sigmoid", "op": "Sigmoid", "input": ["StatefulPartitionedCall/model/tf.math.add_54/Add"], "attr": {"T": {"type": "DT_FLOAT"}}}, {"name": "StatefulPartitionedCall/model/tf.nn.silu_47/mul", "op": "Mul", "input": ["StatefulPartitionedCall/model/tf.math.add_54/Add", "StatefulPartitionedCall/model/tf.nn.silu_47/Sigmoid"], "attr": {"T": {"type": "DT_FLOAT"}}}, {"name": "StatefulPartitionedCall/model/lambda/resize/ResizeNearestNeighbor", "op": "ResizeNearestNeighbor", "input": ["StatefulPartitionedCall/model/tf.nn.silu_47/mul", "StatefulPartitionedCall/model/lambda/resize/size"], "attr": {"half_pixel_centers": {"b": true}, "align_corners": {"b": false}, "T": {"type": "DT_FLOAT"}}}, {"name": "StatefulPartitionedCall/model/tf.concat_6/concat", "op": "ConcatV2", "input": ["StatefulPartitionedCall/model/lambda/resize/ResizeNearestNeighbor", "StatefulPartitionedCall/model/tf.nn.silu_36/mul", "StatefulPartitionedCall/model/tf.concat_6/concat/axis"], "attr": {"Tidx": {"type": "DT_INT32"}, "N": {"i": "2"}, "T": {"type": "DT_FLOAT"}}}, {"name": "StatefulPartitionedCall/model/conv2d_36/Conv2D", "op": "Conv2D", "input": ["StatefulPartitionedCall/model/tf.concat_6/concat", "StatefulPartitionedCall/model/conv2d_36/Conv2D/ReadVariableOp"], "device": "/device:CPU:0", "attr": {"use_cudnn_on_gpu": {"b": true}, "strides": {"list": {"i": ["1", "1", "1", "1"]}}, "dilations": {"list": {"i": ["1", "1", "1", "1"]}}, "padding": {"s": "VkFMSUQ="}, "explicit_paddings": {"list": {}}, "T": {"type": "DT_FLOAT"}, "data_format": {"s": "TkhXQw=="}}}, {"name": "StatefulPartitionedCall/model/conv2d_39/Conv2D", "op": "Conv2D", "input": ["StatefulPartitionedCall/model/tf.concat_6/concat", "StatefulPartitionedCall/model/conv2d_39/Conv2D/ReadVariableOp"], "device": "/device:CPU:0", "attr": {"use_cudnn_on_gpu": {"b": true}, "padding": {"s": "VkFMSUQ="}, "dilations": {"list": {"i": ["1", "1", "1", "1"]}}, "explicit_paddings": {"list": {}}, "data_format": {"s": "TkhXQw=="}, "strides": {"list": {"i": ["1", "1", "1", "1"]}}, "T": {"type": "DT_FLOAT"}}}, {"name": "StatefulPartitionedCall/model/tf.math.add_55/Add", "op": "AddV2", "input": ["StatefulPartitionedCall/model/conv2d_36/Conv2D", "StatefulPartitionedCall/model/tf.math.add_55/Add/y"], "attr": {"T": {"type": "DT_FLOAT"}}}, {"name": "StatefulPartitionedCall/model/tf.math.add_59/Add", "op": "AddV2", "input": ["StatefulPartitionedCall/model/conv2d_39/Conv2D", "StatefulPartitionedCall/model/tf.math.add_59/Add/y"], "attr": {"T": {"type": "DT_FLOAT"}}}, {"name": "StatefulPartitionedCall/model/tf.nn.silu_48/Sigmoid", "op": "Sigmoid", "input": ["StatefulPartitionedCall/model/tf.math.add_55/Add"], "attr": {"T": {"type": "DT_FLOAT"}}}, {"name": "StatefulPartitionedCall/model/tf.nn.silu_52/Sigmoid", "op": "Sigmoid", "input": ["StatefulPartitionedCall/model/tf.math.add_59/Add"], "attr": {"T": {"type": "DT_FLOAT"}}}, {"name": "StatefulPartitionedCall/model/tf.nn.silu_48/mul", "op": "Mul", "input": ["StatefulPartitionedCall/model/tf.math.add_55/Add", "StatefulPartitionedCall/model/tf.nn.silu_48/Sigmoid"], "attr": {"T": {"type": "DT_FLOAT"}}}, {"name": "StatefulPartitionedCall/model/tf.nn.silu_52/mul", "op": "Mul", "input": ["StatefulPartitionedCall/model/tf.math.add_59/Add", "StatefulPartitionedCall/model/tf.nn.silu_52/Sigmoid"], "attr": {"T": {"type": "DT_FLOAT"}}}, {"name": "StatefulPartitionedCall/model/conv2d_37/Conv2D", "op": "Conv2D", "input": ["StatefulPartitionedCall/model/tf.nn.silu_48/mul", "StatefulPartitionedCall/model/conv2d_37/Conv2D/ReadVariableOp"], "device": "/device:CPU:0", "attr": {"strides": {"list": {"i": ["1", "1", "1", "1"]}}, "explicit_paddings": {"list": {}}, "use_cudnn_on_gpu": {"b": true}, "data_format": {"s": "TkhXQw=="}, "padding": {"s": "VkFMSUQ="}, "dilations": {"list": {"i": ["1", "1", "1", "1"]}}, "T": {"type": "DT_FLOAT"}}}, {"name": "StatefulPartitionedCall/model/tf.math.add_56/Add", "op": "AddV2", "input": ["StatefulPartitionedCall/model/conv2d_37/Conv2D", "StatefulPartitionedCall/model/tf.math.add_56/Add/y"], "attr": {"T": {"type": "DT_FLOAT"}}}, {"name": "StatefulPartitionedCall/model/tf.nn.silu_49/Sigmoid", "op": "Sigmoid", "input": ["StatefulPartitionedCall/model/tf.math.add_56/Add"], "attr": {"T": {"type": "DT_FLOAT"}}}, {"name": "StatefulPartitionedCall/model/tf.nn.silu_49/mul", "op": "Mul", "input": ["StatefulPartitionedCall/model/tf.math.add_56/Add", "StatefulPartitionedCall/model/tf.nn.silu_49/Sigmoid"], "attr": {"T": {"type": "DT_FLOAT"}}}, {"name": "StatefulPartitionedCall/model/zero_padding2d_13/Pad", "op": "Pad", "input": ["StatefulPartitionedCall/model/tf.nn.silu_49/mul", "StatefulPartitionedCall/model/zero_padding2d_13/Pad/paddings"], "attr": {"Tpaddings": {"type": "DT_INT32"}, "T": {"type": "DT_FLOAT"}}}, {"name": "StatefulPartitionedCall/model/depthwise_conv2d_12/depthwise", "op": "DepthwiseConv2dNative", "input": ["StatefulPartitionedCall/model/zero_padding2d_13/Pad", "StatefulPartitionedCall/model/depthwise_conv2d_12/depthwise/ReadVariableOp"], "attr": {"explicit_paddings": {"list": {}}, "padding": {"s": "VkFMSUQ="}, "data_format": {"s": "TkhXQw=="}, "T": {"type": "DT_FLOAT"}, "dilations": {"list": {"i": ["1", "1", "1", "1"]}}, "strides": {"list": {"i": ["1", "1", "1", "1"]}}}}, {"name": "StatefulPartitionedCall/model/tf.math.add_57/Add", "op": "AddV2", "input": ["StatefulPartitionedCall/model/depthwise_conv2d_12/depthwise", "StatefulPartitionedCall/model/tf.math.add_57/Add/y"], "attr": {"T": {"type": "DT_FLOAT"}}}, {"name": "StatefulPartitionedCall/model/tf.nn.silu_50/Sigmoid", "op": "Sigmoid", "input": ["StatefulPartitionedCall/model/tf.math.add_57/Add"], "attr": {"T": {"type": "DT_FLOAT"}}}, {"name": "StatefulPartitionedCall/model/tf.nn.silu_50/mul", "op": "Mul", "input": ["StatefulPartitionedCall/model/tf.math.add_57/Add", "StatefulPartitionedCall/model/tf.nn.silu_50/Sigmoid"], "attr": {"T": {"type": "DT_FLOAT"}}}, {"name": "StatefulPartitionedCall/model/conv2d_38/Conv2D", "op": "Conv2D", "input": ["StatefulPartitionedCall/model/tf.nn.silu_50/mul", "StatefulPartitionedCall/model/conv2d_38/Conv2D/ReadVariableOp"], "device": "/device:CPU:0", "attr": {"dilations": {"list": {"i": ["1", "1", "1", "1"]}}, "data_format": {"s": "TkhXQw=="}, "use_cudnn_on_gpu": {"b": true}, "explicit_paddings": {"list": {}}, "T": {"type": "DT_FLOAT"}, "strides": {"list": {"i": ["1", "1", "1", "1"]}}, "padding": {"s": "VkFMSUQ="}}}, {"name": "StatefulPartitionedCall/model/tf.math.add_58/Add", "op": "AddV2", "input": ["StatefulPartitionedCall/model/conv2d_38/Conv2D", "StatefulPartitionedCall/model/tf.math.add_58/Add/y"], "attr": {"T": {"type": "DT_FLOAT"}}}, {"name": "StatefulPartitionedCall/model/tf.nn.silu_51/Sigmoid", "op": "Sigmoid", "input": ["StatefulPartitionedCall/model/tf.math.add_58/Add"], "attr": {"T": {"type": "DT_FLOAT"}}}, {"name": "StatefulPartitionedCall/model/tf.nn.silu_51/mul", "op": "Mul", "input": ["StatefulPartitionedCall/model/tf.math.add_58/Add", "StatefulPartitionedCall/model/tf.nn.silu_51/Sigmoid"], "attr": {"T": {"type": "DT_FLOAT"}}}, {"name": "StatefulPartitionedCall/model/tf.concat_7/concat", "op": "ConcatV2", "input": ["StatefulPartitionedCall/model/tf.nn.silu_51/mul", "StatefulPartitionedCall/model/tf.nn.silu_52/mul", "StatefulPartitionedCall/model/tf.concat_7/concat/axis"], "attr": {"N": {"i": "2"}, "T": {"type": "DT_FLOAT"}, "Tidx": {"type": "DT_INT32"}}}, {"name": "StatefulPartitionedCall/model/conv2d_40/Conv2D", "op": "Conv2D", "input": ["StatefulPartitionedCall/model/tf.concat_7/concat", "StatefulPartitionedCall/model/conv2d_40/Conv2D/ReadVariableOp"], "device": "/device:CPU:0", "attr": {"explicit_paddings": {"list": {}}, "padding": {"s": "VkFMSUQ="}, "strides": {"list": {"i": ["1", "1", "1", "1"]}}, "use_cudnn_on_gpu": {"b": true}, "data_format": {"s": "TkhXQw=="}, "T": {"type": "DT_FLOAT"}, "dilations": {"list": {"i": ["1", "1", "1", "1"]}}}}, {"name": "StatefulPartitionedCall/model/tf.math.add_60/Add", "op": "AddV2", "input": ["StatefulPartitionedCall/model/conv2d_40/Conv2D", "StatefulPartitionedCall/model/tf.math.add_60/Add/y"], "attr": {"T": {"type": "DT_FLOAT"}}}, {"name": "StatefulPartitionedCall/model/tf.nn.silu_53/Sigmoid", "op": "Sigmoid", "input": ["StatefulPartitionedCall/model/tf.math.add_60/Add"], "attr": {"T": {"type": "DT_FLOAT"}}}, {"name": "StatefulPartitionedCall/model/tf.nn.silu_53/mul", "op": "Mul", "input": ["StatefulPartitionedCall/model/tf.math.add_60/Add", "StatefulPartitionedCall/model/tf.nn.silu_53/Sigmoid"], "attr": {"T": {"type": "DT_FLOAT"}}}, {"name": "StatefulPartitionedCall/model/conv2d_41/Conv2D", "op": "Conv2D", "input": ["StatefulPartitionedCall/model/tf.nn.silu_53/mul", "StatefulPartitionedCall/model/conv2d_41/Conv2D/ReadVariableOp"], "device": "/device:CPU:0", "attr": {"padding": {"s": "VkFMSUQ="}, "dilations": {"list": {"i": ["1", "1", "1", "1"]}}, "T": {"type": "DT_FLOAT"}, "use_cudnn_on_gpu": {"b": true}, "explicit_paddings": {"list": {}}, "data_format": {"s": "TkhXQw=="}, "strides": {"list": {"i": ["1", "1", "1", "1"]}}}}, {"name": "StatefulPartitionedCall/model/tf.math.add_61/Add", "op": "AddV2", "input": ["StatefulPartitionedCall/model/conv2d_41/Conv2D", "StatefulPartitionedCall/model/tf.math.add_61/Add/y"], "attr": {"T": {"type": "DT_FLOAT"}}}, {"name": "StatefulPartitionedCall/model/tf.nn.silu_54/Sigmoid", "op": "Sigmoid", "input": ["StatefulPartitionedCall/model/tf.math.add_61/Add"], "attr": {"T": {"type": "DT_FLOAT"}}}, {"name": "StatefulPartitionedCall/model/tf.nn.silu_54/mul", "op": "Mul", "input": ["StatefulPartitionedCall/model/tf.math.add_61/Add", "StatefulPartitionedCall/model/tf.nn.silu_54/Sigmoid"], "attr": {"T": {"type": "DT_FLOAT"}}}, {"name": "StatefulPartitionedCall/model/lambda_1/resize/ResizeNearestNeighbor", "op": "ResizeNearestNeighbor", "input": ["StatefulPartitionedCall/model/tf.nn.silu_54/mul", "StatefulPartitionedCall/model/lambda_1/resize/size"], "attr": {"T": {"type": "DT_FLOAT"}, "half_pixel_centers": {"b": true}, "align_corners": {"b": false}}}, {"name": "StatefulPartitionedCall/model/tf.concat_8/concat", "op": "ConcatV2", "input": ["StatefulPartitionedCall/model/lambda_1/resize/ResizeNearestNeighbor", "StatefulPartitionedCall/model/tf.nn.silu_22/mul", "StatefulPartitionedCall/model/tf.concat_8/concat/axis"], "attr": {"T": {"type": "DT_FLOAT"}, "N": {"i": "2"}, "Tidx": {"type": "DT_INT32"}}}, {"name": "StatefulPartitionedCall/model/conv2d_42/Conv2D", "op": "Conv2D", "input": ["StatefulPartitionedCall/model/tf.concat_8/concat", "StatefulPartitionedCall/model/conv2d_42/Conv2D/ReadVariableOp"], "device": "/device:CPU:0", "attr": {"T": {"type": "DT_FLOAT"}, "data_format": {"s": "TkhXQw=="}, "strides": {"list": {"i": ["1", "1", "1", "1"]}}, "dilations": {"list": {"i": ["1", "1", "1", "1"]}}, "padding": {"s": "VkFMSUQ="}, "use_cudnn_on_gpu": {"b": true}, "explicit_paddings": {"list": {}}}}, {"name": "StatefulPartitionedCall/model/conv2d_45/Conv2D", "op": "Conv2D", "input": ["StatefulPartitionedCall/model/tf.concat_8/concat", "StatefulPartitionedCall/model/conv2d_45/Conv2D/ReadVariableOp"], "device": "/device:CPU:0", "attr": {"use_cudnn_on_gpu": {"b": true}, "T": {"type": "DT_FLOAT"}, "strides": {"list": {"i": ["1", "1", "1", "1"]}}, "dilations": {"list": {"i": ["1", "1", "1", "1"]}}, "padding": {"s": "VkFMSUQ="}, "explicit_paddings": {"list": {}}, "data_format": {"s": "TkhXQw=="}}}, {"name": "StatefulPartitionedCall/model/tf.math.add_62/Add", "op": "AddV2", "input": ["StatefulPartitionedCall/model/conv2d_42/Conv2D", "StatefulPartitionedCall/model/tf.math.add_62/Add/y"], "attr": {"T": {"type": "DT_FLOAT"}}}, {"name": "StatefulPartitionedCall/model/tf.math.add_66/Add", "op": "AddV2", "input": ["StatefulPartitionedCall/model/conv2d_45/Conv2D", "StatefulPartitionedCall/model/tf.math.add_66/Add/y"], "attr": {"T": {"type": "DT_FLOAT"}}}, {"name": …
 {"type": "DT_FLOAT"}, "N": {"i": "2"}}}, {"name": "StatefulPartitionedCall/model/conv2d_74/Conv2D", "op": "Conv2D", "input": ["StatefulPartitionedCall/model/tf.concat_15/concat", "StatefulPartitionedCall/model/conv2d_74/Conv2D/ReadVariableOp"], "device": "/device:CPU:0", "attr": {"strides": {"list": {"i": ["1", "1", "1", "1"]}}, "dilations": {"list": {"i": ["1", "1", "1", "1"]}}, "explicit_paddings": {"list": {}}, "data_format": {"s": "TkhXQw=="}, "padding": {"s": "VkFMSUQ="}, "T": {"type": "DT_FLOAT"}, "use_cudnn_on_gpu": {"b": true}}}, {"name": "StatefulPartitionedCall/model/tf.math.add_107/Add", "op": "AddV2", "input": ["StatefulPartitionedCall/model/conv2d_74/Conv2D", "StatefulPartitionedCall/model/tf.math.add_107/Add/y"], "attr": {"T": {"type": "DT_FLOAT"}}}, {"name": "StatefulPartitionedCall/model/tf.nn.silu_94/Sigmoid", "op": "Sigmoid", "input": ["StatefulPartitionedCall/model/tf.math.add_107/Add"], "attr": {"T": {"type": "DT_FLOAT"}}}, {"name": "StatefulPartitionedCall/model/tf.nn.silu_94/mul", "op": "Mul", "input": ["StatefulPartitionedCall/model/tf.math.add_107/Add", "StatefulPartitionedCall/model/tf.nn.silu_94/Sigmoid"], "attr": {"T": {"type": "DT_FLOAT"}}}, {"name": "StatefulPartitionedCall/model/conv2d_75/Conv2D", "op": "Conv2D", "input": ["StatefulPartitionedCall/model/tf.nn.silu_94/mul", "StatefulPartitionedCall/model/conv2d_75/Conv2D/ReadVariableOp"], "device": "/device:CPU:0", "attr": {"T": {"type": "DT_FLOAT"}, "dilations": {"list": {"i": ["1", "1", "1", "1"]}}, "explicit_paddings": {"list": {}}, "data_format": {"s": "TkhXQw=="}, "padding": {"s": "VkFMSUQ="}, "strides": {"list": {"i": ["1", "1", "1", "1"]}}, "use_cudnn_on_gpu": {"b": true}}}, {"name": "StatefulPartitionedCall/model/tf.math.add_108/Add", "op": "AddV2", "input": ["StatefulPartitionedCall/model/conv2d_75/Conv2D", "StatefulPartitionedCall/model/tf.math.add_108/Add/y"], "attr": {"T": {"type": "DT_FLOAT"}}}, {"name": "StatefulPartitionedCall/model/tf.nn.silu_95/Sigmoid", "op": "Sigmoid", "input": ["StatefulPartitionedCall/model/tf.math.add_108/Add"], "attr": {"T": {"type": "DT_FLOAT"}}}, {"name": "StatefulPartitionedCall/model/tf.nn.silu_95/mul", "op": "Mul", "input": ["StatefulPartitionedCall/model/tf.math.add_108/Add", "StatefulPartitionedCall/model/tf.nn.silu_95/Sigmoid"], "attr": {"T": {"type": "DT_FLOAT"}}}, {"name": "StatefulPartitionedCall/model/zero_padding2d_27/Pad", "op": "Pad", "input": ["StatefulPartitionedCall/model/tf.nn.silu_95/mul", "StatefulPartitionedCall/model/zero_padding2d_27/Pad/paddings"], "attr": {"Tpaddings": {"type": "DT_INT32"}, "T": {"type": "DT_FLOAT"}}}, {"name": "StatefulPartitionedCall/model/zero_padding2d_29/Pad", "op": "Pad", "input": ["StatefulPartitionedCall/model/tf.nn.silu_95/mul", "StatefulPartitionedCall/model/zero_padding2d_29/Pad/paddings"], "attr": {"T": {"type": "DT_FLOAT"}, "Tpaddings": {"type": "DT_INT32"}}}, {"name": "StatefulPartitionedCall/model/depthwise_conv2d_26/depthwise", "op": "DepthwiseConv2dNative", "input": ["StatefulPartitionedCall/model/zero_padding2d_27/Pad", "StatefulPartitionedCall/model/depthwise_conv2d_26/depthwise/ReadVariableOp"], "attr": {"data_format": {"s": "TkhXQw=="}, "T": {"type": "DT_FLOAT"}, "strides": {"list": {"i": ["1", "1", "1", "1"]}}, "padding": {"s": "VkFMSUQ="}, "dilations": {"list": {"i": ["1", "1", "1", "1"]}}, "explicit_paddings": {"list": {}}}}, {"name": "StatefulPartitionedCall/model/depthwise_conv2d_28/depthwise", "op": "DepthwiseConv2dNative", "input": ["StatefulPartitionedCall/model/zero_padding2d_29/Pad", "StatefulPartitionedCall/model/depthwise_conv2d_28/depthwise/ReadVariableOp"], "attr": {"explicit_paddings": {"list": {}}, "padding": {"s": "VkFMSUQ="}, "T": {"type": "DT_FLOAT"}, "dilations": {"list": {"i": ["1", "1", "1", "1"]}}, "strides": {"list": {"i": ["1", "1", "1", "1"]}}, "data_format": {"s": "TkhXQw=="}}}, {"name": "StatefulPartitionedCall/model/tf.math.add_109/Add", "op": "AddV2", "input": ["StatefulPartitionedCall/model/depthwise_conv2d_26/depthwise", "StatefulPartitionedCall/model/tf.math.add_109/Add/y"], "attr": {"T": {"type": "DT_FLOAT"}}}, {"name": "StatefulPartitionedCall/model/tf.math.add_115/Add", "op": "AddV2", "input": ["StatefulPartitionedCall/model/depthwise_conv2d_28/depthwise", "StatefulPartitionedCall/model/tf.math.add_115/Add/y"], "attr": {"T": {"type": "DT_FLOAT"}}}, {"name": "StatefulPartitionedCall/model/tf.nn.silu_96/Sigmoid", "op": "Sigmoid", "input": ["StatefulPartitionedCall/model/tf.math.add_109/Add"], "attr": {"T": {"type": "DT_FLOAT"}}}, {"name": "StatefulPartitionedCall/model/tf.nn.silu_100/Sigmoid", "op": "Sigmoid", "input": ["StatefulPartitionedCall/model/tf.math.add_115/Add"], "attr": {"T": {"type": "DT_FLOAT"}}}, {"name": "StatefulPartitionedCall/model/tf.nn.silu_96/mul", "op": "Mul", "input": ["StatefulPartitionedCall/model/tf.math.add_109/Add", "StatefulPartitionedCall/model/tf.nn.silu_96/Sigmoid"], "attr": {"T": {"type": "DT_FLOAT"}}}, {"name": "StatefulPartitionedCall/model/tf.nn.silu_100/mul", "op": "Mul", "input": ["StatefulPartitionedCall/model/tf.math.add_115/Add", "StatefulPartitionedCall/model/tf.nn.silu_100/Sigmoid"], "attr": {"T": {"type": "DT_FLOAT"}}}, {"name": "StatefulPartitionedCall/model/conv2d_76/Conv2D", "op": "Conv2D", "input": ["StatefulPartitionedCall/model/tf.nn.silu_96/mul", "StatefulPartitionedCall/model/conv2d_76/Conv2D/ReadVariableOp"], "device": "/device:CPU:0", "attr": {"dilations": {"list": {"i": ["1", "1", "1", "1"]}}, "T": {"type": "DT_FLOAT"}, "explicit_paddings": {"list": {}}, "strides": {"list": {"i": ["1", "1", "1", "1"]}}, "data_format": {"s": "TkhXQw=="}, "use_cudnn_on_gpu": {"b": true}, "padding": {"s": "VkFMSUQ="}}}, {"name": "StatefulPartitionedCall/model/conv2d_80/Conv2D", "op": "Conv2D", "input": ["StatefulPartitionedCall/model/tf.nn.silu_100/mul", "StatefulPartitionedCall/model/conv2d_80/Conv2D/ReadVariableOp"], "device": "/device:CPU:0", "attr": {"T": {"type": "DT_FLOAT"}, "use_cudnn_on_gpu": {"b": true}, "padding": {"s": "VkFMSUQ="}, "strides": {"list": {"i": ["1", "1", "1", "1"]}}, "dilations": {"list": {"i": ["1", "1", "1", "1"]}}, "data_format": {"s": "TkhXQw=="}, "explicit_paddings": {"list": {}}}}, {"name": "StatefulPartitionedCall/model/tf.math.add_110/Add", "op": "AddV2", "input": ["StatefulPartitionedCall/model/conv2d_76/Conv2D", "StatefulPartitionedCall/model/tf.math.add_110/Add/y"], "attr": {"T": {"type": "DT_FLOAT"}}}, {"name": "StatefulPartitionedCall/model/tf.math.add_116/Add", "op": "AddV2", "input": ["StatefulPartitionedCall/model/conv2d_80/Conv2D", "StatefulPartitionedCall/model/tf.math.add_116/Add/y"], "attr": {"T": {"type": "DT_FLOAT"}}}, {"name": "StatefulPartitionedCall/model/tf.nn.silu_97/Sigmoid", "op": "Sigmoid", "input": ["StatefulPartitionedCall/model/tf.math.add_110/Add"], "attr": {"T": {"type": "DT_FLOAT"}}}, {"name": "StatefulPartitionedCall/model/tf.nn.silu_101/Sigmoid", "op": "Sigmoid", "input": ["StatefulPartitionedCall/model/tf.math.add_116/Add"], "attr": {"T": {"type": "DT_FLOAT"}}}, {"name": "StatefulPartitionedCall/model/tf.nn.silu_97/mul", "op": "Mul", "input": ["StatefulPartitionedCall/model/tf.math.add_110/Add", "StatefulPartitionedCall/model/tf.nn.silu_97/Sigmoid"], "attr": {"T": {"type": "DT_FLOAT"}}}, {"name": "StatefulPartitionedCall/model/tf.nn.silu_101/mul", "op": "Mul", "input": ["StatefulPartitionedCall/model/tf.math.add_116/Add", "StatefulPartitionedCall/model/tf.nn.silu_101/Sigmoid"], "attr": {"T": {"type": "DT_FLOAT"}}}, {"name": "StatefulPartitionedCall/model/zero_padding2d_28/Pad", "op": "Pad", "input": ["StatefulPartitionedCall/model/tf.nn.silu_97/mul", "StatefulPartitionedCall/model/zero_padding2d_28/Pad/paddings"], "attr": {"T": {"type": "DT_FLOAT"}, "Tpaddings": {"type": "DT_INT32"}}}, {"name": "StatefulPartitionedCall/model/zero_padding2d_30/Pad", "op": "Pad", "input": ["StatefulPartitionedCall/model/tf.nn.silu_101/mul", "StatefulPartitionedCall/model/zero_padding2d_30/Pad/paddings"], "attr": {"T": {"type": "DT_FLOAT"}, "Tpaddings": {"type": "DT_INT32"}}}, {"name": "StatefulPartitionedCall/model/depthwise_conv2d_27/depthwise", "op": "DepthwiseConv2dNative", "input": ["StatefulPartitionedCall/model/zero_padding2d_28/Pad", "StatefulPartitionedCall/model/depthwise_conv2d_27/depthwise/ReadVariableOp"], "attr": {"T": {"type": "DT_FLOAT"}, "data_format": {"s": "TkhXQw=="}, "explicit_paddings": {"list": {}}, "padding": {"s": "VkFMSUQ="}, "strides": {"list": {"i": ["1", "1", "1", "1"]}}, "dilations": {"list": {"i": ["1", "1", "1", "1"]}}}}, {"name": "StatefulPartitionedCall/model/depthwise_conv2d_29/depthwise", "op": "DepthwiseConv2dNative", "input": ["StatefulPartitionedCall/model/zero_padding2d_30/Pad", "StatefulPartitionedCall/model/depthwise_conv2d_29/depthwise/ReadVariableOp"], "attr": {"dilations": {"list": {"i": ["1", "1", "1", "1"]}}, "padding": {"s": "VkFMSUQ="}, "explicit_paddings": {"list": {}}, "strides": {"list": {"i": ["1", "1", "1", "1"]}}, "T": {"type": "DT_FLOAT"}, "data_format": {"s": "TkhXQw=="}}}, {"name": "StatefulPartitionedCall/model/tf.math.add_111/Add", "op": "AddV2", "input": ["StatefulPartitionedCall/model/depthwise_conv2d_27/depthwise", "StatefulPartitionedCall/model/tf.math.add_111/Add/y"], "attr": {"T": {"type": "DT_FLOAT"}}}, {"name": "StatefulPartitionedCall/model/tf.math.add_117/Add", "op": "AddV2", "input": ["StatefulPartitionedCall/model/depthwise_conv2d_29/depthwise", "StatefulPartitionedCall/model/tf.math.add_117/Add/y"], "attr": {"T": {"type": "DT_FLOAT"}}}, {"name": "StatefulPartitionedCall/model/tf.nn.silu_98/Sigmoid", "op": "Sigmoid", "input": ["StatefulPartitionedCall/model/tf.math.add_111/Add"], "attr": {"T": {"type": "DT_FLOAT"}}}, {"name": "StatefulPartitionedCall/model/tf.nn.silu_102/Sigmoid", "op": "Sigmoid", "input": ["StatefulPartitionedCall/model/tf.math.add_117/Add"], "attr": {"T": {"type": "DT_FLOAT"}}}, {"name": "StatefulPartitionedCall/model/tf.nn.silu_98/mul", "op": "Mul", "input": ["StatefulPartitionedCall/model/tf.math.add_111/Add", "StatefulPartitionedCall/model/tf.nn.silu_98/Sigmoid"], "attr": {"T": {"type": "DT_FLOAT"}}}, {"name": "StatefulPartitionedCall/model/tf.nn.silu_102/mul", "op": "Mul", "input": ["StatefulPartitionedCall/model/tf.math.add_117/Add", "StatefulPartitionedCall/model/tf.nn.silu_102/Sigmoid"], "attr": {"T": {"type": "DT_FLOAT"}}}, {"name": "StatefulPartitionedCall/model/conv2d_77/Conv2D", "op": "Conv2D", "input": ["StatefulPartitionedCall/model/tf.nn.silu_98/mul", "StatefulPartitionedCall/model/conv2d_77/Conv2D/ReadVariableOp"], "device": "/device:CPU:0", "attr": {"dilations": {"list": {"i": ["1", "1", "1", "1"]}}, "data_format": {"s": "TkhXQw=="}, "strides": {"list": {"i": ["1", "1", "1", "1"]}}, "explicit_paddings": {"list": {}}, "T": {"type": "DT_FLOAT"}, "use_cudnn_on_gpu": {"b": true}, "padding": {"s": "VkFMSUQ="}}}, {"name": "StatefulPartitionedCall/model/conv2d_81/Conv2D", "op": "Conv2D", "input": ["StatefulPartitionedCall/model/tf.nn.silu_102/mul", "StatefulPartitionedCall/model/conv2d_81/Conv2D/ReadVariableOp"], "device": "/device:CPU:0", "attr": {"strides": {"list": {"i": ["1", "1", "1", "1"]}}, "dilations": {"list": {"i": ["1", "1", "1", "1"]}}, "use_cudnn_on_gpu": {"b": true}, "T": {"type": "DT_FLOAT"}, "explicit_paddings": {"list": {}}, "data_format": {"s": "TkhXQw=="}, "padding": {"s": "VkFMSUQ="}}}, {"name": "StatefulPartitionedCall/model/tf.math.add_112/Add", "op": "AddV2", "input": ["StatefulPartitionedCall/model/conv2d_77/Conv2D", "StatefulPartitionedCall/model/tf.math.add_112/Add/y"], "attr": {"T": {"type": "DT_FLOAT"}}}, {"name": "StatefulPartitionedCall/model/tf.math.add_118/Add", "op": "AddV2", "input": ["StatefulPartitionedCall/model/conv2d_81/Conv2D", "StatefulPartitionedCall/model/tf.math.add_118/Add/y"], "attr": {"T": {"type": "DT_FLOAT"}}}, {"name": "StatefulPartitionedCall/model/tf.nn.silu_99/Sigmoid", "op": "Sigmoid", "input": ["StatefulPartitionedCall/model/tf.math.add_112/Add"], "attr": {"T": {"type": "DT_FLOAT"}}}, {"name": "StatefulPartitionedCall/model/tf.nn.silu_103/Sigmoid", "op": "Sigmoid", "input": ["StatefulPartitionedCall/model/tf.math.add_118/Add"], "attr": {"T": {"type": "DT_FLOAT"}}}, {"name": "StatefulPartitionedCall/model/tf.nn.silu_99/mul", "op": "Mul", "input": ["StatefulPartitionedCall/model/tf.math.add_112/Add", "StatefulPartitionedCall/model/tf.nn.silu_99/Sigmoid"], "attr": {"T": {"type": "DT_FLOAT"}}}, {"name": "StatefulPartitionedCall/model/tf.nn.silu_103/mul", "op": "Mul", "input": ["StatefulPartitionedCall/model/tf.math.add_118/Add", "StatefulPartitionedCall/model/tf.nn.silu_103/Sigmoid"], "attr": {"T": {"type": "DT_FLOAT"}}}, {"name": "StatefulPartitionedCall/model/conv2d_78/Conv2D", "op": "Conv2D", "input": ["StatefulPartitionedCall/model/tf.nn.silu_99/mul", "StatefulPartitionedCall/model/conv2d_78/Conv2D/ReadVariableOp"], "device": "/device:CPU:0", "attr": {"explicit_paddings": {"list": {}}, "T": {"type": "DT_FLOAT"}, "dilations": {"list": {"i": ["1", "1", "1", "1"]}}, "data_format": {"s": "TkhXQw=="}, "use_cudnn_on_gpu": {"b": true}, "strides": {"list": {"i": ["1", "1", "1", "1"]}}, "padding": {"s": "VkFMSUQ="}}}, {"name": "StatefulPartitionedCall/model/conv2d_79/Conv2D", "op": "Conv2D", "input": ["StatefulPartitionedCall/model/tf.nn.silu_99/mul", "StatefulPartitionedCall/model/conv2d_79/Conv2D/ReadVariableOp"], "device": "/device:CPU:0", "attr": {"strides": {"list": {"i": ["1", "1", "1", "1"]}}, "padding": {"s": "VkFMSUQ="}, "use_cudnn_on_gpu": {"b": true}, "T": {"type": "DT_FLOAT"}, "dilations": {"list": {"i": ["1", "1", "1", "1"]}}, "data_format": {"s": "TkhXQw=="}, "explicit_paddings": {"list": {}}}}, {"name": "StatefulPartitionedCall/model/conv2d_82/Conv2D", "op": "Conv2D", "input": ["StatefulPartitionedCall/model/tf.nn.silu_103/mul", "StatefulPartitionedCall/model/conv2d_82/Conv2D/ReadVariableOp"], "device": "/device:CPU:0", "attr": {"explicit_paddings": {"list": {}}, "dilations": {"list": {"i": ["1", "1", "1", "1"]}}, "strides": {"list": {"i": ["1", "1", "1", "1"]}}, "padding": {"s": "VkFMSUQ="}, "use_cudnn_on_gpu": {"b": true}, "data_format": {"s": "TkhXQw=="}, "T": {"type": "DT_FLOAT"}}}, {"name": "StatefulPartitionedCall/model/tf.math.add_113/Add", "op": "AddV2", "input": ["StatefulPartitionedCall/model/conv2d_78/Conv2D", "StatefulPartitionedCall/model/tf.math.add_113/Add/y"], "attr": {"T": {"type": "DT_FLOAT"}}}, {"name": "StatefulPartitionedCall/model/tf.math.add_114/Add", "op": "AddV2", "input": ["StatefulPartitionedCall/model/conv2d_79/Conv2D", "StatefulPartitionedCall/model/tf.math.add_114/Add/y"], "attr": {"T": {"type": "DT_FLOAT"}}}, {"name": "StatefulPartitionedCall/model/tf.math.add_119/Add", "op": "AddV2", "input": ["StatefulPartitionedCall/model/conv2d_82/Conv2D", "StatefulPartitionedCall/model/tf.math.add_119/Add/y"], "attr": {"T": {"type": "DT_FLOAT"}}}, {"name": "StatefulPartitionedCall/model/tf.math.sigmoid_4/Sigmoid", "op": "Sigmoid", "input": ["StatefulPartitionedCall/model/tf.math.add_114/Add"], "attr": {"T": {"type": "DT_FLOAT"}}}, {"name": "StatefulPartitionedCall/model/tf.math.sigmoid_5/Sigmoid", "op": "Sigmoid", "input": ["StatefulPartitionedCall/model/tf.math.add_119/Add"], "attr": {"T": {"type": "DT_FLOAT"}}}, {"name": "StatefulPartitionedCall/model/tf.concat_16/concat", "op": "ConcatV2", "input": ["StatefulPartitionedCall/model/tf.math.add_113/Add", "StatefulPartitionedCall/model/tf.math.sigmoid_4/Sigmoid", "StatefulPartitionedCall/model/tf.math.sigmoid_5/Sigmoid", "StatefulPartitionedCall/model/tf.concat_16/concat/axis"], "attr": {"N": {"i": "3"}, "Tidx": {"type": "DT_INT32"}, "T": {"type": "DT_FLOAT"}}}, {"name": "StatefulPartitionedCall/model/tf.reshape_2/Reshape", "op": "Reshape", "input": ["StatefulPartitionedCall/model/tf.concat_16/concat", "StatefulPartitionedCall/model/tf.reshape_2/Reshape/shape"], "attr": {"Tshape": {"type": "DT_INT32"}, "T": {"type": "DT_FLOAT"}}}, {"name": "StatefulPartitionedCall/model/tf.concat_17/concat", "op": "ConcatV2", "input": ["StatefulPartitionedCall/model/tf.reshape/Reshape", "StatefulPartitionedCall/model/tf.reshape_1/Reshape", "StatefulPartitionedCall/model/tf.reshape_2/Reshape", "StatefulPartitionedCall/model/tf.concat_17/concat/axis"], "attr": {"T": {"type": "DT_FLOAT"}, "Tidx": {"type": "DT_INT32"}, "N": {"i": "3"}}}, {"name": "Identity", "op": "Identity", "input": ["StatefulPartitionedCall/model/tf.concat_17/concat"], "attr": {"T": {"type": "DT_FLOAT"}}}], "library": {}, "versions": {"producer": 808}}, "weightsManifest": [{"paths": ["group1-shard1of1.bin"], "weights": [{"name": "StatefulPartitionedCall/model/conv2d_50/Conv2D/ReadVariableOp", "shape": [1, 1, 64, 4], "dtype": "float32"}, {"name": "StatefulPartitionedCall/model/tf.math.add_73/Add/y", "shape": [4], "dtype": "float32"}, {"name": "StatefulPartitionedCall/model/zero_padding2d_15/Pad/paddings", "shape": [4, 2], "dtype": "int32"}, {"name": "StatefulPartitionedCall/model/depthwise_conv2d_14/depthwise/ReadVariableOp", "shape": [3, 3, 64, 1], "dtype": "float32"}, {"name": "StatefulPartitionedCall/model/tf.math.add_69/Add/y", "shape": [64], "dtype": "float32"}, {"name": "StatefulPartitionedCall/model/conv2d_48/Conv2D/ReadVariableOp", "shape": [1, 1, 64, 64], "dtype": "float32"}, {"name": "StatefulPartitionedCall/model/tf.math.add_70/Add/y", "shape": [64], "dtype": "float32"}, {"name": "StatefulPartitionedCall/model/zero_padding2d_16/Pad/paddings", "shape": [4, 2], "dtype": "int32"}, {"name": "StatefulPartitionedCall/model/depthwise_conv2d_15/depthwise/ReadVariableOp", "shape": [3, 3, 64, 1], "dtype": "float32"}, {"name": "StatefulPartitionedCall/model/tf.math.add_71/Add/y", "shape": [64], "dtype": "float32"}, {"name": "StatefulPartitionedCall/model/conv2d_49/Conv2D/ReadVariableOp", "shape": [1, 1, 64, 64], "dtype": "float32"}, {"name": "StatefulPartitionedCall/model/tf.math.add_72/Add/y", "shape": [64], "dtype": "float32"}, {"name": "StatefulPartitionedCall/model/conv2d_51/Conv2D/ReadVariableOp", "shape": [1, 1, 64, 1], "dtype": "float32"}, {"name": "StatefulPartitionedCall/model/tf.math.add_74/Add/y", "shape": [1], "dtype": "float32"}, {"name": "StatefulPartitionedCall/model/conv2d_47/Conv2D/ReadVariableOp", "shape": [1, 1, 64, 64], "dtype": "float32"}, {"name": "StatefulPartitionedCall/model/tf.math.add_68/Add/y", "shape": [64], "dtype": "float32"}, {"name": "StatefulPartitionedCall/model/zero_padding2d_17/Pad/paddings", "shape": [4, 2], "dtype": "int32"}, {"name": "StatefulPartitionedCall/model/depthwise_conv2d_16/depthwise/ReadVariableOp", "shape": [3, 3, 64, 1], "dtype": "float32"}, {"name": "StatefulPartitionedCall/model/tf.math.add_75/Add/y", "shape": [64], "dtype": "float32"}, {"name": "StatefulPartitionedCall/model/conv2d_52/Conv2D/ReadVariableOp", "shape": [1, 1, 64, 64], "dtype": "float32"}, {"name": "StatefulPartitionedCall/model/tf.math.add_76/Add/y", "shape": [64], "dtype": "float32"}, {"name": "StatefulPartitionedCall/model/zero_padding2d_18/Pad/paddings", "shape": [4, 2], "dtype": "int32"}, {"name": "StatefulPartitionedCall/model/depthwise_conv2d_17/depthwise/ReadVariableOp", "shape": [3, 3, 64, 1], "dtype": "float32"}, {"name": "StatefulPartitionedCall/model/tf.math.add_77/Add/y", "shape": [64], "dtype": "float32"}, {"name": "StatefulPartitionedCall/model/conv2d_53/Conv2D/ReadVariableOp", "shape": [1, 1, 64, 64], "dtype": "float32"}, {"name": "StatefulPartitionedCall/model/tf.math.add_78/Add/y", "shape": [64], "dtype": "float32"}, {"name": "StatefulPartitionedCall/model/conv2d_54/Conv2D/ReadVariableOp", "shape": [1, 1, 64, 80], "dtype": "float32"}, {"name": "StatefulPartitionedCall/model/tf.math.add_79/Add/y", "shape": [80], "dtype": "float32"}, {"name": "StatefulPartitionedCall/model/tf.concat_10/concat/axis", "shape": [], "dtype": "int32"}, {"name": "StatefulPartitionedCall/model/tf.reshape/Reshape/shape", "shape": [3], "dtype": "int32"}, {"name": "StatefulPartitionedCall/model/conv2d_64/Conv2D/ReadVariableOp", "shape": [1, 1, 64, 4], "dtype": "float32"}, {"name": "StatefulPartitionedCall/model/tf.math.add_93/Add/y", "shape": [4], "dtype": "float32"}, {"name": "StatefulPartitionedCall/model/zero_padding2d_21/Pad/paddings", "shape": [4, 2], "dtype": "int32"}, {"name": "StatefulPartitionedCall/model/depthwise_conv2d_20/depthwise/ReadVariableOp", "shape": [3, 3, 64, 1], "dtype": "float32"}, {"name": "StatefulPartitionedCall/model/tf.math.add_89/Add/y", "shape": [64], "dtype": "float32"}, {"name": "StatefulPartitionedCall/model/conv2d_62/Conv2D/ReadVariableOp", "shape": [1, 1, 64, 64], "dtype": "float32"}, {"name": "StatefulPartitionedCall/model/tf.math.add_90/Add/y", "shape": [64], "dtype": "float32"}, {"name": "StatefulPartitionedCall/model/zero_padding2d_22/Pad/paddings", "shape": [4, 2], "dtype": "int32"}, {"name": "StatefulPartitionedCall/model/depthwise_conv2d_21/depthwise/ReadVariableOp", "shape": [3, 3, 64, 1], "dtype": "float32"}, {"name": "StatefulPartitionedCall/model/tf.math.add_91/Add/y", "shape": [64], "dtype": "float32"}, {"name": "StatefulPartitionedCall/model/conv2d_63/Conv2D/ReadVariableOp", "shape": [1, 1, 64, 64], "dtype": "float32"}, {"name": "StatefulPartitionedCall/model/tf.math.add_92/Add/y", "shape": [64], "dtype": "float32"}, {"name": "StatefulPartitionedCall/model/conv2d_65/Conv2D/ReadVariableOp", "shape": [1, 1, 64, 1], "dtype": "float32"}, {"name": "StatefulPartitionedCall/model/tf.math.add_94/Add/y", "shape": [1], "dtype": "float32"}, {"name": "StatefulPartitionedCall/model/conv2d_61/Conv2D/ReadVariableOp", "shape": [1, 1, 128, 64], "dtype": "float32"}, {"name": "StatefulPartitionedCall/model/tf.math.add_88/Add/y", "shape": [64], "dtype": "float32"}, {"name": "StatefulPartitionedCall/model/zero_padding2d_23/Pad/paddings", "shape": [4, 2], "dtype": "int32"}, {"name": "StatefulPartitionedCall/model/depthwise_conv2d_22/depthwise/ReadVariableOp", "shape": [3, 3, 64, 1], "dtype": "float32"}, {"name": "StatefulPartitionedCall/model/tf.math.add_95/Add/y", "shape": [64], "dtype": "float32"}, {"name": "StatefulPartitionedCall/model/conv2d_66/Conv2D/ReadVariableOp", "shape": [1, 1, 64, 64], "dtype": "float32"}, {"name": "StatefulPartitionedCall/model/tf.math.add_96/Add/y", "shape": [64], "dtype": "float32"}, {"name": "StatefulPartitionedCall/model/zero_padding2d_24/Pad/paddings", "shape": [4, 2], "dtype": "int32"}, {"name": "StatefulPartitionedCall/model/depthwise_conv2d_23/depthwise/ReadVariableOp", "shape": [3, 3, 64, 1], "dtype": "float32"}, {"name": "StatefulPartitionedCall/model/tf.math.add_97/Add/y", "shape": [64], "dtype": "float32"}, {"name": "StatefulPartitionedCall/model/conv2d_67/Conv2D/ReadVariableOp", "shape": [1, 1, 64, 64], "dtype": "float32"}, {"name": "StatefulPartitionedCall/model/tf.math.add_98/Add/y", "shape": [64], "dtype": "float32"}, {"name": "StatefulPartitionedCall/model/conv2d_68/Conv2D/ReadVariableOp", "shape": [1, 1, 64, 80], "dtype": "float32"}, {"name": "StatefulPartitionedCall/model/tf.math.add_99/Add/y", "shape": [80], "dtype": "float32"}, {"name": "StatefulPartitionedCall/model/tf.concat_13/concat/axis", "shape": [], "dtype": "int32"}, {"name": "StatefulPartitionedCall/model/tf.reshape_1/Reshape/shape", "shape": [3], "dtype": "int32"}, {"name": "StatefulPartitionedCall/model/conv2d_78/Conv2D/ReadVariableOp", "shape": [1, 1, 64, 4], "dtype": "float32"}, {"name": "StatefulPartitionedCall/model/tf.math.add_113/Add/y", "shape": [4], "dtype": "float32"}, {"name": "StatefulPartitionedCall/model/zero_padding2d_27/Pad/paddings", "shape": [4, 2], "dtype": "int32"}, {"name": "StatefulPartitionedCall/model/depthwise_conv2d_26/depthwise/ReadVariableOp", "shape": [3, 3, 64, 1], "dtype": "float32"}, {"name": "StatefulPartitionedCall/model/tf.math.add_109/Add/y", "shape": [64], "dtype": "float32"}, {"name": "StatefulPartitionedCall/model/conv2d_76/Conv2D/ReadVariableOp", "shape": [1, 1, 64, 64], "dtype": "float32"}, {"name": "StatefulPartitionedCall/model/tf.math.add_110/Add/y", "shape": [64], "dtype": "float32"}, {"name": "StatefulPartitionedCall/model/zero_padding2d_28/Pad/paddings", "shape": [4, 2], "dtype": "int32"}, {"name": "StatefulPartitionedCall/model/depthwise_conv2d_27/depthwise/ReadVariableOp", "shape": [3, 3, 64, 1], "dtype": "float32"}, {"name": "StatefulPartitionedCall/model/tf.math.add_111/Add/y", "shape": [64], "dtype": "float32"}, {"name": "StatefulPartitionedCall/model/conv2d_77/Conv2D/ReadVariableOp", "shape": [1, 1, 64, 64], "dtype": "float32"}, {"name": "StatefulPartitionedCall/model/tf.math.add_112/Add/y", "shape": [64], "dtype": "float32"}, {"name": "StatefulPartitionedCall/model/conv2d_79/Conv2D/ReadVariableOp", "shape": [1, 1, 64, 1], "dtype": "float32"}, {"name": "StatefulPartitionedCall/model/tf.math.add_114/Add/y", "shape": [1], "dtype": "float32"}, {"name": "StatefulPartitionedCall/model/conv2d_70/Conv2D/ReadVariableOp", "shape": [1, 1, 256, 128], "dtype": "float32"}, {"name": "StatefulPartitionedCall/model/tf.math.add_102/Add/y", "shape": [128], "dtype": "float32"}, {"name": "StatefulPartitionedCall/model/conv2d_71/Conv2D/ReadVariableOp", "shape": [1, 1, 128, 128], "dtype": "float32"}, {"name": "StatefulPartitionedCall/model/tf.math.add_103/Add/y", "shape": [128], "dtype": "float32"}, {"name": "StatefulPartitionedCall/model/zero_padding2d_26/Pad/paddings", "shape": [4, 2], "dtype": "int32"}, {"name": "StatefulPartitionedCall/model/depthwise_conv2d_25/depthwise/ReadVariableOp", "shape": [3, 3, 128, 1], "dtype": "float32"}, {"name": "StatefulPartitionedCall/model/tf.math.add_104/Add/y", "shape": [128], "dtype": "float32"}, {"name": "StatefulPartitionedCall/model/conv2d_72/Conv2D/ReadVariableOp", "shape": [1, 1, 128, 128], "dtype": "float32"}, {"name": "StatefulPartitionedCall/model/tf.math.add_105/Add/y", "shape": [128], "dtype": "float32"}, {"name": "StatefulPartitionedCall/model/conv2d_56/Conv2D/ReadVariableOp", "shape": [1, 1, 128, 64], "dtype": "float32"}, {"name": "StatefulPartitionedCall/model/tf.math.add_82/Add/y", "shape": [64], "dtype": "float32"}, {"name": "StatefulPartitionedCall/model/conv2d_57/Conv2D/ReadVariableOp", "shape": [1, 1, 64, 64], "dtype": "float32"}, {"name": "StatefulPartitionedCall/model/tf.math.add_83/Add/y", "shape": [64], "dtype": "float32"}, {"name": "StatefulPartitionedCall/model/zero_padding2d_20/Pad/paddings", "shape": [4, 2], "dtype": "int32"}, {"name": "StatefulPartitionedCall/model/depthwise_conv2d_19/depthwise/ReadVariableOp", "shape": [3, 3, 64, 1], "dtype": "float32"}, {"name": "StatefulPartitionedCall/model/tf.math.add_84/Add/y", "shape": [64], "dtype": "float32"}, {"name": "StatefulPartitionedCall/model/conv2d_58/Conv2D/ReadVariableOp", "shape": [1, 1, 64, 64], "dtype": "float32"}, {"name": "StatefulPartitionedCall/model/tf.math.add_85/Add/y", "shape": [64], "dtype": "float32"}, {"name": "StatefulPartitionedCall/model/conv2d_42/Conv2D/ReadVariableOp", "shape": [1, 1, 128, 32], "dtype": "float32"}, {"name": "StatefulPartitionedCall/model/tf.math.add_62/Add/y", "shape": [32], "dtype": "float32"}, {"name": "StatefulPartitionedCall/model/conv2d_43/Conv2D/ReadVariableOp", "shape": [1, 1, 32, 32], "dtype": "float32"}, {"name": "StatefulPartitionedCall/model/tf.math.add_63/Add/y", "shape": [32], "dtype": "float32"}, {"name": "StatefulPartitionedCall/model/zero_padding2d_14/Pad/paddings", "shape": [4, 2], "dtype": "int32"}, {"name": "StatefulPartitionedCall/model/depthwise_conv2d_13/depthwise/ReadVariableOp", "shape": [3, 3, 32, 1], "dtype": "float32"}, {"name": "StatefulPartitionedCall/model/tf.math.add_64/Add/y", "shape": [32], "dtype": "float32"}, {"name": "StatefulPartitionedCall/model/conv2d_44/Conv2D/ReadVariableOp", "shape": [1, 1, 32, 32], "dtype": "float32"}, {"name": "StatefulPartitionedCall/model/tf.math.add_65/Add/y", "shape": [32], "dtype": "float32"}, {"name": "StatefulPartitionedCall/model/lambda_1/resize/size", "shape": [2], "dtype": "int32"}, {"name": "StatefulPartitionedCall/model/tf.concat_8/concat/axis", "shape": [], "dtype": "int32"}, {"name": "StatefulPartitionedCall/model/conv2d_45/Conv2D/ReadVariableOp", "shape": [1, 1, 128, 32], "dtype": "float32"}, {"name": "StatefulPartitionedCall/model/tf.math.add_66/Add/y", "shape": [32], "dtype": "float32"}, {"name": "StatefulPartitionedCall/model/tf.concat_9/concat/axis", "shape": [], "dtype": "int32"}, {"name": "StatefulPartitionedCall/model/conv2d_46/Conv2D/ReadVariableOp", "shape": [1, 1, 64, 64], "dtype": "float32"}, {"name": "StatefulPartitionedCall/model/tf.math.add_67/Add/y", "shape": [64], "dtype": "float32"}, {"name": "StatefulPartitionedCall/model/zero_padding2d_19/Pad/paddings", "shape": [4, 2], "dtype": "int32"}, {"name": "StatefulPartitionedCall/model/depthwise_conv2d_18/depthwise/ReadVariableOp", "shape": [3, 3, 64, 1], "dtype": "float32"}, {"name": "StatefulPartitionedCall/model/tf.math.add_80/Add/y", "shape": [64], "dtype": "float32"}, {"name": "StatefulPartitionedCall/model/conv2d_55/Conv2D/ReadVariableOp", "shape": [1, 1, 64, 64], "dtype": "float32"}, {"name": "StatefulPartitionedCall/model/tf.math.add_81/Add/y", "shape": [64], "dtype": "float32"}, {"name": "StatefulPartitionedCall/model/conv2d_36/Conv2D/ReadVariableOp", "shape": [1, 1, 256, 64], "dtype": "float32"}, {"name": "StatefulPartitionedCall/model/tf.math.add_55/Add/y", "shape": [64], "dtype": "float32"}, {"name": "StatefulPartitionedCall/model/conv2d_37/Conv2D/ReadVariableOp", "shape": [1, 1, 64, 64], "dtype": "float32"}, {"name": "StatefulPartitionedCall/model/tf.math.add_56/Add/y", "shape": [64], "dtype": "float32"}, {"name": "StatefulPartitionedCall/model/zero_padding2d_13/Pad/paddings", "shape": [4, 2], "dtype": "int32"}, {"name": "StatefulPartitionedCall/model/depthwise_conv2d_12/depthwise/ReadVariableOp", "shape": [3, 3, 64, 1], "dtype": "float32"}, {"name": "StatefulPartitionedCall/model/tf.math.add_57/Add/y", "shape": [64], "dtype": "float32"}, {"name": "StatefulPartitionedCall/model/conv2d_38/Conv2D/ReadVariableOp", "shape": [1, 1, 64, 64], "dtype": "float32"}, {"name": "StatefulPartitionedCall/model/tf.math.add_58/Add/y", "shape": [64], "dtype": "float32"}, {"name": "StatefulPartitionedCall/model/lambda/resize/size", "shape": [2], "dtype": "int32"}, {"name": "StatefulPartitionedCall/model/tf.concat_6/concat/axis", "shape": [], "dtype": "int32"}, {"name": "StatefulPartitionedCall/model/conv2d_39/Conv2D/ReadVariableOp", "shape": [1, 1, 256, 64], "dtype": "float32"}, {"name": "StatefulPartitionedCall/model/tf.math.add_59/Add/y", "shape": [64], "dtype": "float32"}, {"name": "StatefulPartitionedCall/model/tf.concat_7/concat/axis", "shape": [], "dtype": "int32"}, {"name": "StatefulPartitionedCall/model/conv2d_40/Conv2D/ReadVariableOp", "shape": [1, 1, 128, 128], "dtype": "float32"}, {"name": "StatefulPartitionedCall/model/tf.math.add_60/Add/y", "shape": [128], "dtype": "float32"}, {"name": "StatefulPartitionedCall/model/conv2d_41/Conv2D/ReadVariableOp", "shape": [1, 1, 128, 64], "dtype": "float32"}, {"name": "StatefulPartitionedCall/model/tf.math.add_61/Add/y", "shape": [64], "dtype": "float32"}, {"name": "StatefulPartitionedCall/model/tf.concat_11/concat/axis", "shape": [], "dtype": "int32"}, {"name": "StatefulPartitionedCall/model/conv2d_59/Conv2D/ReadVariableOp", "shape": [1, 1, 128, 64], "dtype": "float32"}, {"name": "StatefulPartitionedCall/model/tf.math.add_86/Add/y", "shape": [64], "dtype": "float32"}, {"name": "StatefulPartitionedCall/model/tf.concat_12/concat/axis", "shape": [], "dtype": "int32"}, {"name": "StatefulPartitionedCall/model/conv2d_60/Conv2D/ReadVariableOp", "shape": [1, 1, 128, 128], "dtype": "float32"}, {"name": "StatefulPartitionedCall/model/tf.math.add_87/Add/y", "shape": [128], "dtype": "float32"}, {"name": "StatefulPartitionedCall/model/zero_padding2d_25/Pad/paddings", "shape": [4, 2], "dtype": "int32"}, {"name": "StatefulPartitionedCall/model/depthwise_conv2d_24/depthwise/ReadVariableOp", "shape": [3, 3, 128, 1], "dtype": "float32"}, {"name": "StatefulPartitionedCall/model/tf.math.add_100/Add/y", "shape": [128], "dtype": "float32"}, {"name": "StatefulPartitionedCall/model/conv2d_69/Conv2D/ReadVariableOp", "shape": [1, 1, 128, 128], "dtype": "float32"}, {"name": "StatefulPartitionedCall/model/tf.math.add_101/Add/y", "shape": [128], "dtype": "float32"}, {"name": "StatefulPartitionedCall/model/conv2d_30/Conv2D/ReadVariableOp", "shape": [1, 1, 256, 128], "dtype": "float32"}, {"name": "StatefulPartitionedCall/model/tf.math.add_48/Add/y", "shape": [128], "dtype": "float32"}, {"name": "StatefulPartitionedCall/model/conv2d_31/Conv2D/ReadVariableOp", "shape": [1, 1, 128, 128], "dtype": "float32"}, {"name": "StatefulPartitionedCall/model/tf.math.add_49/Add/y", "shape": [128], "dtype": "float32"}, {"name": "StatefulPartitionedCall/model/zero_padding2d_12/Pad/paddings", "shape": [4, 2], "dtype": "int32"}, {"name": "StatefulPartitionedCall/model/depthwise_conv2d_11/depthwise/ReadVariableOp", "shape": [3, 3, 128, 1], "dtype": "float32"}, {"name": "StatefulPartitionedCall/model/tf.math.add_50/Add/y", "shape": [128], "dtype": "float32"}, {"name": "StatefulPartitionedCall/model/conv2d_32/Conv2D/ReadVariableOp", "shape": [1, 1, 128, 128], "dtype": "float32"}, {"name": "StatefulPartitionedCall/model/tf.math.add_51/Add/y", "shape": [128], "dtype": "float32"}, {"name": "StatefulPartitionedCall/model/conv2d_18/Conv2D/ReadVariableOp", "shape": [1, 1, 128, 64], "dtype": "float32"}, {"name": "StatefulPartitionedCall/model/tf.math.add_29/Add/y", "shape": [64], "dtype": "float32"}, {"name": "StatefulPartitionedCall/model/conv2d_19/Conv2D/ReadVariableOp", "shape": [1, 1, 64, 64], "dtype": "float32"}, {"name": "StatefulPartitionedCall/model/tf.math.add_30/Add/y", "shape": [64], "dtype": "float32"}, {"name": "StatefulPartitionedCall/model/zero_padding2d_8/Pad/paddings", "shape": [4, 2], "dtype": "int32"}, {"name": "StatefulPartitionedCall/model/depthwise_conv2d_7/depthwise/ReadVariableOp", "shape": [3, 3, 64, 1], "dtype": "float32"}, {"name": "StatefulPartitionedCall/model/tf.math.add_31/Add/y", "shape": [64], "dtype": "float32"}, {"name": "StatefulPartitionedCall/model/conv2d_20/Conv2D/ReadVariableOp", "shape": [1, 1, 64, 64], "dtype": "float32"}, {"name": "StatefulPartitionedCall/model/tf.math.add_32/Add/y", "shape": [64], "dtype": "float32"}, {"name": "StatefulPartitionedCall/model/conv2d_21/Conv2D/ReadVariableOp", "shape": [1, 1, 64, 64], "dtype": "float32"}, {"name": "StatefulPartitionedCall/model/tf.math.add_34/Add/y", "shape": [64], "dtype": "float32"}, {"name": "StatefulPartitionedCall/model/zero_padding2d_9/Pad/paddings", "shape": [4, 2], "dtype": "int32"}, {"name": "StatefulPartitionedCall/model/depthwise_conv2d_8/depthwise/ReadVariableOp", "shape": [3, 3, 64, 1], "dtype": "float32"}, {"name": "StatefulPartitionedCall/model/tf.math.add_35/Add/y", "shape": [64], "dtype": "float32"}, {"name": "StatefulPartitionedCall/model/conv2d_22/Conv2D/ReadVariableOp", "shape": [1, 1, 64, 64], "dtype": "float32"}, {"name": "StatefulPartitionedCall/model/tf.math.add_36/Add/y", "shape": [64], "dtype": "float32"}, {"name": "StatefulPartitionedCall/model/conv2d_23/Conv2D/ReadVariableOp", "shape": [1, 1, 64, 64], "dtype": "float32"}, {"name": "StatefulPartitionedCall/model/tf.math.add_38/Add/y", "shape": [64], "dtype": "float32"}, {"name": "StatefulPartitionedCall/model/zero_padding2d_10/Pad/paddings", "shape": [4, 2], "dtype": "int32"}, {"name": "StatefulPartitionedCall/model/depthwise_conv2d_9/depthwise/ReadVariableOp", "shape": [3, 3, 64, 1], "dtype": "float32"}, {"name": "StatefulPartitionedCall/model/tf.math.add_39/Add/y", "shape": [64], "dtype": "float32"}, {"name": "StatefulPartitionedCall/model/conv2d_24/Conv2D/ReadVariableOp", "shape": [1, 1, 64, 64], "dtype": "float32"}, {"name": "StatefulPartitionedCall/model/tf.math.add_40/Add/y", "shape": [64], "dtype": "float32"}, {"name": "StatefulPartitionedCall/model/conv2d_8/Conv2D/ReadVariableOp", "shape": [1, 1, 64, 32], "dtype": "float32"}, {"name": "StatefulPartitionedCall/model/tf.math.add_12/Add/y", "shape": [32], "dtype": "float32"}, {"name": "StatefulPartitionedCall/model/conv2d_9/Conv2D/ReadVariableOp", "shape": [1, 1, 32, 32], "dtype": "float32"}, {"name": "StatefulPartitionedCall/model/tf.math.add_13/Add/y", "shape": [32], "dtype": "float32"}, {"name": "StatefulPartitionedCall/model/zero_padding2d_4/Pad/paddings", "shape": [4, 2], "dtype": "int32"}, {"name": "StatefulPartitionedCall/model/depthwise_conv2d_3/depthwise/ReadVariableOp", "shape": [3, 3, 32, 1], "dtype": "float32"}, {"name": "StatefulPartitionedCall/model/tf.math.add_14/Add/y", "shape": [32], "dtype": "float32"}, {"name": "StatefulPartitionedCall/model/conv2d_10/Conv2D/ReadVariableOp", "shape": [1, 1, 32, 32], "dtype": "float32"}, {"name": "StatefulPartitionedCall/model/tf.math.add_15/Add/y", "shape": [32], "dtype": "float32"}, {"name": "StatefulPartitionedCall/model/conv2d_11/Conv2D/ReadVariableOp", "shape": [1, 1, 32, 32], "dtype": "float32"}, {"name": "StatefulPartitionedCall/model/tf.math.add_17/Add/y", "shape": [32], "dtype": "float32"}, {"name": "StatefulPartitionedCall/model/zero_padding2d_5/Pad/paddings", "shape": [4, 2], "dtype": "int32"}, {"name": "StatefulPartitionedCall/model/depthwise_conv2d_4/depthwise/ReadVariableOp", "shape": [3, 3, 32, 1], "dtype": "float32"}, {"name": "StatefulPartitionedCall/model/tf.math.add_18/Add/y", "shape": [32], "dtype": "float32"}, {"name": "StatefulPartitionedCall/model/conv2d_12/Conv2D/ReadVariableOp", "shape": [1, 1, 32, 32], "dtype": "float32"}, {"name": "StatefulPartitionedCall/model/tf.math.add_19/Add/y", "shape": [32], "dtype": "float32"}, {"name": "StatefulPartitionedCall/model/conv2d_13/Conv2D/ReadVariableOp", "shape": [1, 1, 32, 32], "dtype": "float32"}, {"name": "StatefulPartitionedCall/model/tf.math.add_21/Add/y", "shape": [32], "dtype": "float32"}, {"name": "StatefulPartitionedCall/model/zero_padding2d_6/Pad/paddings", "shape": [4, 2], "dtype": "int32"}, {"name": "StatefulPartitionedCall/model/depthwise_conv2d_5/depthwise/ReadVariableOp", "shape": [3, 3, 32, 1], "dtype": "float32"}, {"name": "StatefulPartitionedCall/model/tf.math.add_22/Add/y", "shape": [32], "dtype": "float32"}, {"name": "StatefulPartitionedCall/model/conv2d_14/Conv2D/ReadVariableOp", "shape": [1, 1, 32, 32], "dtype": "float32"}, {"name": "StatefulPartitionedCall/model/tf.math.add_23/Add/y", "shape": [32], "dtype": "float32"}, {"name": "StatefulPartitionedCall/model/conv2d_2/Conv2D/ReadVariableOp", "shape": [1, 1, 32, 16], "dtype": "float32"}, {"name": "StatefulPartitionedCall/model/tf.math.add_3/Add/y", "shape": [16], "dtype": "float32"}, {"name": "StatefulPartitionedCall/model/conv2d_3/Conv2D/ReadVariableOp", "shape": [1, 1, 16, 16], "dtype": "float32"}, {"name": "StatefulPartitionedCall/model/tf.math.add_4/Add/y", "shape": [16], "dtype": "float32"}, {"name": "StatefulPartitionedCall/model/zero_padding2d_2/Pad/paddings", "shape": [4, 2], "dtype": "int32"}, {"name": "StatefulPartitionedCall/model/depthwise_conv2d_1/depthwise/ReadVariableOp", "shape": [3, 3, 16, 1], "dtype": "float32"}, {"name": "StatefulPartitionedCall/model/tf.math.add_5/Add/y", "shape": [16], "dtype": "float32"}, {"name": "StatefulPartitionedCall/model/conv2d_4/Conv2D/ReadVariableOp", "shape": [1, 1, 16, 16], "dtype": "float32"}, {"name": "StatefulPartitionedCall/model/tf.math.add_6/Add/y", "shape": [16], "dtype": "float32"}, {"name": "StatefulPartitionedCall/model/tf.strided_slice/StridedSlice/begin", "shape": [4], "dtype": "int32"}, {"name": "StatefulPartitionedCall/model/tf.strided_slice/StridedSlice/end", "shape": [4], "dtype": "int32"}, {"name": "StatefulPartitionedCall/model/tf.strided_slice/StridedSlice/strides", "shape": [4], "dtype": "int32"}, {"name": "StatefulPartitionedCall/model/tf.strided_slice_1/StridedSlice/begin", "shape": [4], "dtype": "int32"}, {"name": "StatefulPartitionedCall/model/tf.strided_slice_1/StridedSlice/end", "shape": [4], "dtype": "int32"}, {"name": "StatefulPartitionedCall/model/tf.strided_slice_1/StridedSlice/strides", "shape": [4], "dtype": "int32"}, {"name": "StatefulPartitionedCall/model/tf.strided_slice_2/StridedSlice/begin", "shape": [4], "dtype": "int32"}, {"name": "StatefulPartitionedCall/model/tf.strided_slice_2/StridedSlice/end", "shape": [4], "dtype": "int32"}, {"name": "StatefulPartitionedCall/model/tf.strided_slice_2/StridedSlice/strides", "shape": [4], "dtype": "int32"}, {"name": "StatefulPartitionedCall/model/tf.strided_slice_3/StridedSlice/begin", "shape": [4], "dtype": "int32"}, {"name": "StatefulPartitionedCall/model/tf.strided_slice_3/StridedSlice/end", "shape": [4], "dtype": "int32"}, {"name": "StatefulPartitionedCall/model/tf.strided_slice_3/StridedSlice/strides", "shape": [4], "dtype": "int32"}, {"name": "StatefulPartitionedCall/model/tf.strided_slice_4/StridedSlice/begin", "shape": [4], "dtype": "int32"}, {"name": "StatefulPartitionedCall/model/tf.strided_slice_4/StridedSlice/end", "shape": [4], "dtype": "int32"}, {"name": "StatefulPartitionedCall/model/tf.strided_slice_4/StridedSlice/strides", "shape": [4], "dtype": "int32"}, {"name": "StatefulPartitionedCall/model/tf.strided_slice_5/StridedSlice/begin", "shape": [4], "dtype": "int32"}, {"name": "StatefulPartitionedCall/model/tf.strided_slice_5/StridedSlice/end", "shape": [4], "dtype": "int32"}, {"name": "StatefulPartitionedCall/model/tf.strided_slice_5/StridedSlice/strides", "shape": [4], "dtype": "int32"}, {"name": "StatefulPartitionedCall/model/tf.strided_slice_6/StridedSlice/begin", "shape": [4], "dtype": "int32"}, {"name": "StatefulPartitionedCall/model/tf.strided_slice_6/StridedSlice/end", "shape": [4], "dtype": "int32"}, {"name": "StatefulPartitionedCall/model/tf.strided_slice_6/StridedSlice/strides", "shape": [4], "dtype": "int32"}, {"name": "StatefulPartitionedCall/model/tf.strided_slice_7/StridedSlice/begin", "shape": [4], "dtype": "int32"}, {"name": "StatefulPartitionedCall/model/tf.strided_slice_7/StridedSlice/end", "shape": [4], "dtype": "int32"}, {"name": "StatefulPartitionedCall/model/tf.strided_slice_7/StridedSlice/strides", "shape": [4], "dtype": "int32"}, {"name": "StatefulPartitionedCall/model/tf.concat/concat/axis", "shape": [], "dtype": "int32"}, {"name": "StatefulPartitionedCall/model/zero_padding2d/Pad/paddings", "shape": [4, 2], "dtype": "int32"}, {"name": "StatefulPartitionedCall/model/conv2d/Conv2D/ReadVariableOp", "shape": [3, 3, 12, 16], "dtype": "float32"}, {"name": "StatefulPartitionedCall/model/tf.math.add/Add/y", "shape": [16], "dtype": "float32"}, {"name": "StatefulPartitionedCall/model/zero_padding2d_1/Pad/paddings", "shape": [4, 2], "dtype": "int32"}, {"name": "StatefulPartitionedCall/model/depthwise_conv2d/depthwise/ReadVariableOp", "shape": [3, 3, 16, 1], "dtype": "float32"}, {"name": "StatefulPartitionedCall/model/tf.math.add_1/Add/y", "shape": [16], "dtype": "float32"}, {"name": "StatefulPartitionedCall/model/conv2d_1/Conv2D/ReadVariableOp", "shape": [1, 1, 16, 32], "dtype": "float32"}, {"name": "StatefulPartitionedCall/model/tf.math.add_2/Add/y", "shape": [32], "dtype": "float32"}, {"name": "StatefulPartitionedCall/model/conv2d_5/Conv2D/ReadVariableOp", "shape": [1, 1, 32, 16], "dtype": "float32"}, {"name": "StatefulPartitionedCall/model/tf.math.add_8/Add/y", "shape": [16], "dtype": "float32"}, {"name": "StatefulPartitionedCall/model/tf.concat_1/concat/axis", "shape": [], "dtype": "int32"}, {"name": "StatefulPartitionedCall/model/conv2d_6/Conv2D/ReadVariableOp", "shape": [1, 1, 32, 32], "dtype": "float32"}, {"name": "StatefulPartitionedCall/model/tf.math.add_9/Add/y", "shape": [32], "dtype": "float32"}, {"name": "StatefulPartitionedCall/model/zero_padding2d_3/Pad/paddings", "shape": [4, 2], "dtype": "int32"}, {"name": "StatefulPartitionedCall/model/depthwise_conv2d_2/depthwise/ReadVariableOp", "shape": [3, 3, 32, 1], "dtype": "float32"}, {"name": "StatefulPartitionedCall/model/tf.math.add_10/Add/y", "shape": [32], "dtype": "float32"}, {"name": "StatefulPartitionedCall/model/conv2d_7/Conv2D/ReadVariableOp", "shape": [1, 1, 32, 64], "dtype": "float32"}, {"name": "StatefulPartitionedCall/model/tf.math.add_11/Add/y", "shape": [64], "dtype": "float32"}, {"name": "StatefulPartitionedCall/model/conv2d_15/Conv2D/ReadVariableOp", "shape": [1, 1, 64, 32], "dtype": "float32"}, {"name": "StatefulPartitionedCall/model/tf.math.add_25/Add/y", "shape": [32], "dtype": "float32"}, {"name": "StatefulPartitionedCall/model/tf.concat_2/concat/axis", "shape": [], "dtype": "int32"}, {"name": "StatefulPartitionedCall/model/conv2d_16/Conv2D/ReadVariableOp", "shape": [1, 1, 64, 64], "dtype": "float32"}, {"name": "StatefulPartitionedCall/model/tf.math.add_26/Add/y", "shape": [64], "dtype": "float32"}, {"name": "StatefulPartitionedCall/model/zero_padding2d_7/Pad/paddings", "shape": [4, 2], "dtype": "int32"}, {"name": "StatefulPartitionedCall/model/depthwise_conv2d_6/depthwise/ReadVariableOp", "shape": [3, 3, 64, 1], "dtype": "float32"}, {"name": "StatefulPartitionedCall/model/tf.math.add_27/Add/y", "shape": [64], "dtype": "float32"}, {"name": "StatefulPartitionedCall/model/conv2d_17/Conv2D/ReadVariableOp", "shape": [1, 1, 64, 128], "dtype": "float32"}, {"name": "StatefulPartitionedCall/model/tf.math.add_28/Add/y", "shape": [128], "dtype": "float32"}, {"name": "StatefulPartitionedCall/model/conv2d_25/Conv2D/ReadVariableOp", "shape": [1, 1, 128, 64], "dtype": "float32"}, {"name": "StatefulPartitionedCall/model/tf.math.add_42/Add/y", "shape": [64], "dtype": "float32"}, {"name": "StatefulPartitionedCall/model/tf.concat_3/concat/axis", "shape": [], "dtype": "int32"}, {"name": "StatefulPartitionedCall/model/conv2d_26/Conv2D/ReadVariableOp", "shape": [1, 1, 128, 128], "dtype": "float32"}, {"name": "StatefulPartitionedCall/model/tf.math.add_43/Add/y", "shape": [128], "dtype": "float32"}, {"name": "StatefulPartitionedCall/model/zero_padding2d_11/Pad/paddings", "shape": [4, 2], "dtype": "int32"}, {"name": "StatefulPartitionedCall/model/depthwise_conv2d_10/depthwise/ReadVariableOp", "shape": [3, 3, 128, 1], "dtype": "float32"}, {"name": "StatefulPartitionedCall/model/tf.math.add_44/Add/y", "shape": [128], "dtype": "float32"}, {"name": "StatefulPartitionedCall/model/conv2d_27/Conv2D/ReadVariableOp", "shape": [1, 1, 128, 256], "dtype": "float32"}, {"name": "StatefulPartitionedCall/model/tf.math.add_45/Add/y", "shape": [256], "dtype": "float32"}, {"name": "StatefulPartitionedCall/model/conv2d_28/Conv2D/ReadVariableOp", "shape": [1, 1, 256, 128], "dtype": "float32"}, {"name": "StatefulPartitionedCall/model/tf.math.add_46/Add/y", "shape": [128], "dtype": "float32"}, {"name": "StatefulPartitionedCall/model/tf.concat_4/concat/axis", "shape": [], "dtype": "int32"}, {"name": "StatefulPartitionedCall/model/conv2d_29/Conv2D/ReadVariableOp", "shape": [1, 1, 512, 256], "dtype": "float32"}, {"name": "StatefulPartitionedCall/model/tf.math.add_47/Add/y", "shape": [256], "dtype": "float32"}, {"name": "StatefulPartitionedCall/model/conv2d_33/Conv2D/ReadVariableOp", "shape": [1, 1, 256, 128], "dtype": "float32"}, {"name": "StatefulPartitionedCall/model/tf.math.add_52/Add/y", "shape": [128], "dtype": "float32"}, {"name": "StatefulPartitionedCall/model/tf.concat_5/concat/axis", "shape": [], "dtype": "int32"}, {"name": "StatefulPartitionedCall/model/conv2d_34/Conv2D/ReadVariableOp", "shape": [1, 1, 256, 256], "dtype": "float32"}, {"name": "StatefulPartitionedCall/model/tf.math.add_53/Add/y", "shape": [256], "dtype": "float32"}, {"name": "StatefulPartitionedCall/model/conv2d_35/Conv2D/ReadVariableOp", "shape": [1, 1, 256, 128], "dtype": "float32"}, {"name": "StatefulPartitionedCall/model/tf.math.add_54/Add/y", "shape": [128], "dtype": "float32"}, {"name": "StatefulPartitionedCall/model/tf.concat_14/concat/axis", "shape": [], "dtype": "int32"}, {"name": "StatefulPartitionedCall/model/conv2d_73/Conv2D/ReadVariableOp", "shape": [1, 1, 256, 128], "dtype": "float32"}, {"name": "StatefulPartitionedCall/model/tf.math.add_106/Add/y", "shape": [128], "dtype": "float32"}, {"name": "StatefulPartitionedCall/model/tf.concat_15/concat/axis", "shape": [], "dtype": "int32"}, {"name": "StatefulPartitionedCall/model/conv2d_74/Conv2D/ReadVariableOp", "shape": [1, 1, 256, 256], "dtype": "float32"}, {"name": "StatefulPartitionedCall/model/tf.math.add_107/Add/y", "shape": [256], "dtype": "float32"}, {"name": "StatefulPartitionedCall/model/conv2d_75/Conv2D/ReadVariableOp", "shape": [1, 1, 256, 64], "dtype": "float32"}, {"name": "StatefulPartitionedCall/model/tf.math.add_108/Add/y", "shape": [64], "dtype": "float32"}, {"name": "StatefulPartitionedCall/model/zero_padding2d_29/Pad/paddings", "shape": [4, 2], "dtype": "int32"}, {"name": "StatefulPartitionedCall/model/depthwise_conv2d_28/depthwise/ReadVariableOp", "shape": [3, 3, 64, 1], "dtype": "float32"}, {"name": "StatefulPartitionedCall/model/tf.math.add_115/Add/y", "shape": [64], "dtype": "float32"}, {"name": "StatefulPartitionedCall/model/conv2d_80/Conv2D/ReadVariableOp", "shape": [1, 1, 64, 64], "dtype": "float32"}, {"name": "StatefulPartitionedCall/model/tf.math.add_116/Add/y", "shape": [64], "dtype": "float32"}, {"name": "StatefulPartitionedCall/model/zero_padding2d_30/Pad/paddings", "shape": [4, 2], "dtype": "int32"}, {"name": "StatefulPartitionedCall/model/depthwise_conv2d_29/depthwise/ReadVariableOp", "shape": [3, 3, 64, 1], "dtype": "float32"}, {"name": "StatefulPartitionedCall/model/tf.math.add_117/Add/y", "shape": [64], "dtype": "float32"}, {"name": "StatefulPartitionedCall/model/conv2d_81/Conv2D/ReadVariableOp", "shape": [1, 1, 64, 64], "dtype": "float32"}, {"name": "StatefulPartitionedCall/model/tf.math.add_118/Add/y", "shape": [64], "dtype": "float32"}, {"name": "StatefulPartitionedCall/model/conv2d_82/Conv2D/ReadVariableOp", "shape": [1, 1, 64, 80], "dtype": "float32"}, {"name": "StatefulPartitionedCall/model/tf.math.add_119/Add/y", "shape": [80], "dtype": "float32"}, {"name": "StatefulPartitionedCall/model/tf.concat_16/concat/axis", "shape": [], "dtype": "int32"}, {"name": "StatefulPartitionedCall/model/tf.reshape_2/Reshape/shape", "shape": [3], "dtype": "int32"}, {"name": "StatefulPartitionedCall/model/tf.concat_17/concat/axis", "shape": [], "dtype": "int32"}]}]}